deployment/models/control_model.tflite (tflite, 341852 bytes, 11 tensors)

arith.constant f4 [1, 64]
-0.013450342 0.039058145 -0.0034560622 0.07057935 0.054272223 -0.0017004742 0.0023489557 0.01511155
-0.11631393 -0.003893675 0.106116354 0.008111762 0.038719818 0.16804287 0.005333573 0.035519246
0.016067963 -0.007712318 -0.029910618 -0.05558924 -0.010206029 0.17811291 -0.08720097 -0.012088348
-0.063468285 -0.0024603812 0.10414939 -0.0011582881 0.043385845 0.022477308 0.08409584 0.015183848
-0.022720175 0.014188334 -0.12402112 -0.14362362 -0.0029378412 0.03207714 0.099164896 -0.000465155
-0.0047208886 -0.00618857 0.2567122 -0.0037406418 0.24269587 -0.0033701255 -0.02297827 0.10086143
0.009138011 -0.097778924 -0.020486824 0.121871985 -0.025382506 0.17299438 -0.0033221385 0.013813768
-0.0064499276 -0.0069811293 -0.101683214 0.0037374895 0.15289494 0.16351037 0.15907283 -0.030148752
00000000: d35e 5cbc 6ffb 1f3d 1a7f 62bb e88b 903d
00000010: 8d4c 5e3d 72e2 deba f0f0 193b 6f96 773c
00000020: ff35 eebd 072d 7fbb 8853 d93d 32e7 043c
00000030: ac98 1e3d 6e13 2c3e 41c5 ae3b a17c 113d
00000040: f6a0 833c 9db7 fcbb 1d07 f5bc 8bb1 63bd
00000050: 3037 27bc 3b63 363e 6c96 b2bd 350e 46bc
00000060: a9fb 81bd 593e 21bb 464c d53d b3d1 97ba
00000070: 5bb5 313d 5522 b83c 713a ac3d adc5 783c
00000080: a91f babc 3076 683c c9fe fdbd 1212 13be
00000090: cc88 40bb 5263 033d f716 cb3d 0ce0 f3b9
000000a0: afb1 9abb 7dc9 cabb c86f 833e 8e25 75bb
000000b0: 4485 783e 53dd 5cbb ed3c bcbc 7090 ce3d
000000c0: 99b7 153c 5140 c8bd fcd3 a7bc 0598 f93d
000000d0: f9ee cfbc 7025 313e 3cb8 59bb 2453 623c
000000e0: ea59 d3bb f5c1 e4bb 4a3f d0bd abf0 743b
000000f0: 7e90 1c3e 436f 273e fde3 223e 84fa f6bc

arith.constant1 f4 [64, 128]
-0.026871787 -0.005030006 -0.17264962 0.034697287 -0.08011255 -0.10915004 -0.049772207 0.19426209
-0.14244153 0.0059766117 -0.12098476 -0.18769234 -0.026021963 0.10361719 0.08551985 0.16552359
0.027845414 -0.21861748 -0.18484487 -0.078378856 0.075193055 0.098879986 -0.09769369 -0.008558923
0.00892636 0.019354181 0.16014539 -0.18046027 -0.04155336 -0.10551074 -0.022052811 -0.06507212
0.013631149 0.07833566 -0.19943541 0.17320637 -0.010278269 0.06991647 -0.20357233 -0.12391094
0.13981998 0.088354036 0.08173106 0.089143574 0.13788709 0.061509848 -0.015011145 -0.043456007
-0.028460313 -0.18612655 0.17289515 -0.111229375 0.016373469 -0.1728164 0.09272844 0.09658508
0.035167687 0.06960562 -0.039297137 -0.13915731 0.0855907 -0.0017074522 -0.09410691 -0.1690438
-0.008353038 0.019878786 0.12298323 -0.025941133 0.008910984 0.10109218 -0.09739521 0.068169706
0.07658843 0.009212343 0.0083906995 -0.09612396 0.07728971 -0.13506958 -0.00093060697 -0.14001852
-0.018515462 0.11676905 0.11729102 -0.06267322 -0.04221902 -0.08283399 0.024906158 0.09794162
-0.13575673 -0.025664225 0.012989044 0.0060022394 -0.15890379 -0.3479319 0.14184539 -0.13198043
-0.2078369 0.15429644 0.022935532 0.028288584 -0.09519419 0.059135813 0.08879017 0.10938285
0.03499516 0.109976314 -0.13559727 -0.029934658 -0.1567854 0.17595033 -0.11577841 -0.06905793
0.120261446 0.094477184 -0.13310933 0.121967554 -0.16191253 0.097461775 -0.021069929 0.050285958
-0.12288748 0.12149095 -0.10214011 -0.16013268 0.134 -0.14192839 -0.14767423 0.08531143
0.0042865425 -0.061389547 0.21342196 -0.0016777887 0.12326419 -0.12558791 -0.031593543 -0.14096671
-0.14108822 -0.033570793 -0.008208737 -0.016847737 0.104885906 0.12746908 -0.06993281 0.0010138478
-0.017445194 -0.18284225 -0.12100625 0.12612762 -0.18407138 0.07028706 -0.14401172 0.13620842
0.09380081 0.1380096 0.16324823 -0.073941216 0.05828294 -0.07890301 -0.20625351 -0.11475158
-0.119260035 0.108553536 -0.14587067 -0.120350555 0.05791592 -0.052576378 0.0052819178 0.05206849
0.07474577 -0.09050627 -0.2134863 -0.30852115 -0.171122 0.07819037 -0.14742073 -0.12796032
-0.2117052 -0.0527543 0.009768172 0.002665072 -0.040067658 -0.075316235 -0.00927265 0.13258198
-0.19384299 -0.109158926 0.07154477 0.047384743 -0.00601534 -0.09859075 0.10646786 -0.15351205
0.090703234 -0.033433825 -0.051904716 -0.028651671 0.07592865 0.1140936 -0.030892953 -0.2070567
-0.003196339 -0.022683138 0.07686655 -0.053641513 0.0064786 0.101814814 -0.06425329 0.1312225
-0.10437231 -0.055358365 -0.0140107125 0.11970175 0.1320036 0.12035174 0.12559928 0.013570279
-0.041705057 0.08495055 -0.00886501 -0.088472344 -0.07075169 -0.08456551 -0.10795879 0.059137344
-0.17095944 -0.112246834 -0.06652174 -0.16903213 0.14442591 0.17414278 -0.02098113 -0.16534954
-0.18012428 0.13847259 0.075993806 0.012696901 -0.104864165 0.01650754 -0.06409431 0.09419178
-0.11919439 0.1027332 -0.10903063 0.016539052 0.05468655 -0.04042742 -0.11519466 -0.1672816
-0.14099108 -0.23253483 -0.09300997 0.108698264 0.045143012 -0.0024198699 0.07418923 0.015604386
00000000: 3922 dcbc c0d2 a4bb 10cb 30be be1e 0e3d
00000010: 0c12 a4bd 0e8a dfbd f1dd 4bbd a4ec 463e
00000020: 31dc 11be 74d7 c33b dcc6 f7bd 6c32 40be
00000030: 032c d5bc 4035 d43d 0825 af3d 047f 293e
00000040: 111c e43c 43dd 5fbe f947 3dbe 1885 a0bd
00000050: d1fe 993d 9781 ca3d a113 c8bd ba3a 0cbc
00000060: de3f 123c a98c 9e3c 27fd 233e 94ca 38be
00000070: db33 2abd 0416 d8bd 19a8 b4bc 8844 85bd
00000080: 2f55 5f3c 726e a03d cc38 4cbe 035d 313e
00000090: 2f66 28bc 5e30 8f3d 4475 50be 05c5 fdbd
000000a0: f82c 0f3e f6f2 b43d 9d62 a73d e890 b63d
000000b0: 4632 0d3e c0f1 7b3d 4ef1 75bc edfe 31bd
000000c0: 9a25 e9bc f597 3ebe 6d0b 313e 3acc e3bd
000000d0: a721 863c c8f6 30be 69e8 bd3d 66ce c53d
000000e0: fe0b 103d 648d 8e3d 09f6 20bd 417f 0ebe
000000f0: 2d4a af3d 97cc dfba 20bb c0bd d119 2dbe
00000100: 2edb 08bc d6d8 a23c a2de fb3d 8082 d4bc
00000110: 60ff 113c 6b09 cf3d 2477 c7bd 8f9c 8b3d
00000120: 65da 9c3d 5eef 163c 2579 093c a4dc c4bd
00000130: 114a 9e3d ae4f 0abe faf3 73ba 0461 0fbe
00000140: bdad 97bc 9d24 ef3d 4636 f03d d15a 80bd
00000150: daed 2cbd dea4 a9bd 0008 cc3c 9e95 c83d
00000160: d003 0bbe c83d d2bc 00d0 543c 6fae c43b
00000170: adb7 22be 2124 b2be eb3f 113e e125 07be
00000180: 32d3 54be e3ff 1d3e 4ce3 bb3c 76bd e73c
00000190: 2cf5 c2bd 6538 723d 9fd7 b53d 1e04 e03d
000001a0: 1657 0f3d 433b e13d 03da 0abe 8739 f5bc
000001b0: 5a8c 20be 532c 343e 3b1d edbd 3e6e 8dbd
000001c0: a24b f63d 417d c13d d04d 08be 20ca f93d
000001d0: 66cc 25be 0a9a c73d d89a acbc a6f8 4d3d
000001e0: 6eac fbbd 3fd0 f83d d62e d1bd d2f9 23be
000001f0: 4c37 093e ad55 11be ea37 17be c2b7 ae3d
00000200: 2076 8c3b 9b73 7bbd 498b 5a3e 3fe9 dbba
00000210: f071 fc3d 1e9a 00be 3b68 01bd 9459 10be
00000220: 6e79 10be 8781 09bd f07d 06bc 4404 8abc
00000230: 6cce d63d 4187 023e ef38 8fbd 16e3 843a
00000240: 39e9 8ebc 003b 3bbe 20d2 f7bd 9927 013e
00000250: 357d 3cbe aaf2 8f3d cf77 13be 387a 0b3e
00000260: a41a c03d 6352 0d3e 8b2a 273e 7e6e 97bd
00000270: 18ba 6e3d e797 a1bd 1f34 53be e002 ebbd
00000280: 9b3e f4bd 5151 de3d 1f5f 15be 5a7a f6bd
00000290: 3e39 6d3d 545a 57bd f013 ad3b c545 553d
000002a0: 4f14 993d 5a5b b9bd 279c 5abe 7cf6 9dbe
000002b0: 9b3a 2fbe 4622 a03d 76f5 16be 0808 03be
000002c0: 3fc9 58be e514 58bd af0a 203c 7da8 2e3b
000002d0: fc1d 24bd 663f 9abd 50ec 17bc 92c3 073e
000002e0: c77e 46be b78e dfbd 1086 923d 8116 423d
000002f0: 541c c5bb f2e9 c9bd d20b da3d 4332 1dbe
00000300: 9ec2 b93d e8f1 08bd 0a9a 54bd e9b6 eabc
00000310: 7b80 9b3d e8a9 e93d 3813 fdbc ac06 54be
00000320: ab79 51bb fdd1 b9bc 366c 9d3d 34b7 5bbd
00000330: 704a d43b 4984 d03d 3b97 83bd 315f 063e
00000340: 26c1 d5bd 74bf 62bd 308d 65bc 3126 f53d
00000350: f42b 073e f97a f63d 199d 003e e055 5e3c
00000360: ecd2 2abd 8efa ad3d 8c3e 11bc fd30 b5bd
00000370: 43e6 90bd af30 adbd 8019 ddbd 003a 723d
00000380: fe0f 2fbe abe1 e5bd 8d3c 88bd c216 2dbe
00000390: 63e4 133e 7c52 323e 9ee0 abbc 6451 29be
000003a0: 8072 38be c2cb 0d3e a4a2 9b3d aa06 503c
000003b0: 06c3 d6bd d23a 873c e143 83bd 9fe7 c03d
000003c0: 301c f4bd c965 d23d 734b dfbd e87c 873c
000003d0: 01ff 5f3d 3997 25bd 2eeb ebbd de4b 2bbe
000003e0: f75f 10be 9c1d 6ebe 037c bebd 329d de3d
000003f0: e1e7 383d ae96 1ebb 86f0 973d 8aa9 7f3c

arith.constant2 f4 [128, 256]
-0.15817446 -0.080008656 -0.04326129 0.073819526 0.120506614 -0.10970718 -0.00020641685 0.0035822443
-0.06958196 0.043485258 -0.094247766 -0.05138069 -0.09584594 -0.1271271 -0.04323238 0.08789336
0.073856324 -0.14551899 -0.16074184 0.0069905915 -0.060265183 0.0043126047 0.094071195 -0.038880747
-0.12639469 -0.07100853 -0.1049411 0.03895496 0.065981716 -0.016978884 0.07661408 -0.10361719
-0.08496715 -0.1439244 0.016427528 0.075629584 -0.08879409 -0.042927958 -0.12089798 -0.10328754
0.0019938052 0.0278003 0.023230093 -0.020763397 -0.14765869 -0.07746825 0.039305177 0.006619054
0.008003369 -0.11811292 -0.003472778 -0.00797984 0.012429565 -0.07757435 -0.0056066215 0.0619525
0.014478716 0.012158512 0.12818803 0.05296439 -0.015128881 -0.17323598 -0.00035406442 -0.07351058
-0.044946313 0.10037568 -0.09394612 0.093253046 0.060774483 -0.02171472 -0.110482216 -0.06122756
0.044412374 -0.01751923 -0.09276738 -0.07949829 0.007594646 -0.079562955 0.010376345 -0.03438299
0.09452242 -0.017759241 -0.09499413 -0.121612534 -0.13364401 -0.1340057 -0.04441907 -0.15327984
0.0612323 0.014845368 -0.070067115 -0.0058172047 0.11975145 -0.06733676 -0.065307826 -0.076978475
0.027796835 -0.018458145 -0.06464869 -0.048310947 -0.029428517 -0.04194378 0.06392174 -0.122989774
-0.042433616 0.020069718 -0.049790725 -0.011469686 -0.043286555 0.030101568 0.087996304 0.08628127
-0.12169557 -0.08545893 -0.02864024 -0.054158717 -0.11862332 -0.14748788 -0.047352575 0.025792291
-0.11788893 -0.10570306 -0.14939243 -0.054767165 -0.07115884 -0.03301063 0.010363311 0.06396347
-0.1372294 -0.0035607882 0.05159318 0.022733295 -0.013089269 -0.029631585 -0.049101006 0.03467272
-0.020978168 -0.15188517 0.11992279 -0.03457135 -0.100397676 -0.15784186 -0.010151714 -0.08286247
-0.0586123 0.025919126 -0.0864653 0.05343783 0.11075913 -0.11445859 0.103064895 0.124941714
-0.090855986 -0.11173871 -0.014359067 -0.040848732 0.016975634 -0.017175166 0.047005773 -0.088617355
0.03848217 -0.14431903 -0.019293388 0.04318759 0.07005513 -0.07579729 0.029752666 0.0322724
-0.02785863 -0.03296292 -0.093138754 0.09004617 -0.11908597 -0.15430015 0.018493325 -0.117706
-0.090111054 0.032578856 -0.10687774 -0.07522179 -0.00359807 0.03937784 -0.027723849 -0.0022321343
0.07312903 0.118101 -0.05260852 0.06958839 0.03493337 0.03272564 -0.0371255 0.026678592
0.13784148 -0.09450598 -0.009038388 0.031670302 -0.06978616 0.026825279 0.040431082 0.057045147
-0.09650141 -0.0940032 0.0357159 -0.048084706 -0.01936075 -0.030144509 0.10929829 -0.054608196
0.050075233 -0.042074576 0.06546697 0.09158185 0.01819609 0.10431074 0.033105467 -0.0379536
0.07506884 -0.01054278 -0.09114778 -0.03423871 0.10585198 -0.033111423 -0.12746018 0.03522286
-0.035027836 0.053553224 0.035495214 -0.032787826 -0.011078578 -0.087784246 0.08484948 -0.18374647
0.09684536 -0.05931108 -0.116282284 -0.051032722 -0.07946446 -0.053725198 -0.0004197105 0.003644184
-0.058100082 -0.0965864 -0.10587183 -0.017240524 0.023878574 -0.10197083 -0.11681354 0.14745243
-0.040580004 0.07325225 -0.03959486 -0.09146947 0.02869542 -0.033079028 0.03908351 0.045202076
00000000: 7cf8 21be 94db a3bd c032 31bd b12e 973d
00000010: 2ccc f63d 28ae e0bd 9a71 58b9 16c4 6a3b
00000020: fd80 8ebd 991d 323d f904 c1bd 8f74 52bd
00000030: e04a c4bd 9b2d 02be 7014 31bd 6f01 b43d
00000040: fc41 973d ee02 15be 8299 24be 5511 e53b
00000050: a0d8 76bd c050 8d3b 66a8 c03d 6b41 1fbd
00000060: 9c6d 01be ec6c 91bd 5ceb d6bd 3c8f 1f3d
00000070: 6c21 873d 4d17 8bbc d8e7 9c3d 4035 d4bd
00000080: 4203 aebd eb60 13be 0693 863c afe3 9a3d
00000090: add9 b5bd 3ad5 2fbd 5c99 f7bd 6b88 d3bd
000000a0: 80aa 023b 74bd e33c 094d be3c 0018 aabc
000000b0: d733 17be ada7 9ebd 77fe 203d a6e4 d83b
000000c0: 9020 033c 30e5 f1bd 8c97 63bb e0bd 02bc
000000d0: 60a5 4b3c 4ddf 9ebd c0b7 b7bb e8c1 7d3d
000000e0: 2338 6d3c 7f34 473c b943 033e 30f1 583d
000000f0: 20df 77bc c664 31be b9a1 b9b9 b78c 96bd
00000100: a019 38bd c491 cd3d d366 c0bd 74fb be3d
00000110: aaee 783d 12e3 b1bc 8044 e2bd c0c9 7abd
00000120: c0e9 353d 7d84 8fbc d3fc bdbd 00d0 a2bd
00000130: 82dc f83b e7f1 a2bd 8c01 2a3c 2ed5 0cbd
00000140: f894 c13d d47b 91bc 488c c2bd fe0f f9bd
00000150: fad9 08be ca38 09be c5f0 35bd 64f5 1cbe
00000160: b8ce 7a3d fd39 733c 597f 8fbd 409e bebb
00000170: 4040 f53d dbe7 89bd 1cc0 85bd e4a6 9dbd
00000180: 30b6 e33c 8935 97bc 8866 84bd b3e1 45bd
00000190: 1314 f1bc 3ecd 2bbd 67e9 823d 10e2 fbbd
000001a0: dfce 2dbd 4069 a43c 5cf1 4bbd 5aeb 3bbc
000001b0: 3e4d 31bd 9097 f63c 6837 b43d 3cb4 b03d
000001c0: 873b f9bd 1705 afbd f09e eabc 88d5 5dbd
000001d0: c8f0 f2bd 1007 17be c6f4 41bd 5b4a d33c
000001e0: c06f f1bd d97a d8bd 54fa 18be 8953 60bd
000001f0: babb 91bd 2836 07bd e0ca 293c 48ff 823d
00000200: dd85 0cbe 1d5c 69bb 5f53 533d 2d3b ba3c
00000210: 6074 56bc f0bd f2bc 231e 49bd fb04 0e3d
00000220: 68da abbc c987 1bbe 149a f53d b09a 0dbd
00000230: 4c9d cdbd 4ca1 21be 6053 26bc ccb3 a9bd
00000240: 7313 70bd 5954 d43c b814 b1bd a0e1 5a3d
00000250: afd5 e23d 4469 eabd b013 d33d 71e1 ff3d
00000260: b412 babd 44d7 e4bd 4b42 6bbc 0051 27bd
00000270: 7c10 8b3c efb2 8cbc 2089 403d 047d b5bd
00000280: 7b9f 1d3d 5ec8 13be 2b0d 9ebc 78e5 303d
00000290: 1079 8f3d 9c3b 9bbd ddbb f33c 1030 043d
000002a0: c837 e4bc 2004 07bd 88bf bebd 206a b83d
000002b0: 58e3 f3bd dc00 1ebe 507f 973c d80f f1bd
000002c0: 258c b8bd 6871 053d b7e2 dabd e20d 9abd
000002d0: 99cd 6bbb a84a 213d 201d e3bc 0049 12bb
000002e0: acc4 953d f0de f13d 087c 57bd 5c84 8e3d
000002f0: 4b16 0f3d 520b 063d e910 18bd 108d da3c
00000300: 5126 0d3e 5a8c c1bd bf15 14bc b8b8 013d
00000310: 0cec 8ebd b0c0 db3c 109b 253d 2ca8 693d
00000320: 88a2 c5bd c084 c0bd d64a 123d 78f4 44bd
00000330: 709a 9ebc 9ef1 f6bc c8d7 df3d d8ac 5fbd
00000340: b01b 4d3d 6456 2cbd 8c13 863d 448f bb3d
00000350: f70f 953c dfa0 d53d 9999 073d 3c75 1bbd
00000360: b1bd 993d a0bb 2cbc b0ab babd e43d 0cbd
00000370: ecc8 d83d d89f 07bd ec84 02be d845 103d
00000380: 5979 0fbd a05a 5b3d 6e63 113d 874c 06bd
00000390: ed82 35bc 3ac8 b3bd 90c5 ad3d 0928 3cbe
000003a0: dc56 c63d 2df0 72bd 6825 eebd b007 51bd
000003b0: 43be a2bd f40e 5cbd 970c dcb9 43d3 6e3b
000003c0: 5afa 6dbd 17cf c5bd 54d3 d8bd 003c 8dbc
000003d0: 009d c33c 15d6 d0bd f03b efbd c5fd 163e
000003e0: 3837 26bd 4705 963d 382e 22bd 5854 bbbd
000003f0: a812 eb3c e07d 07bd 0816 203d d025 393d

arith.constant3 f4 [256, 128]
-0.033166107 0.08622732 -0.10049383 -0.055403765 -0.06222751 -0.08994498 -0.2775041 -0.11166775
0.030530503 -0.13375555 -0.14921743 -0.033252824 0.0055843964 -0.053484485 -0.28328666 -0.13297753
-0.04320538 -0.102213055 -0.050476193 -0.0194008 -0.086894624 0.24314761 -0.03231007 0.014619162
0.061442215 0.12347665 0.027707823 -0.016036196 0.12763107 -0.072952636 0.116607174 0.114441134
0.03366236 -0.11460398 -0.16336694 0.104848385 -0.069294065 0.024679463 -0.0154124405 0.13102336
-0.022491092 0.13610378 0.03592248 -0.062171113 0.025011027 -0.005058875 -0.014282774 -0.0050450913
0.049960278 -0.06133905 -0.20693012 -0.09926429 -0.14473997 -0.09625719 0.08374548 0.047016755
0.078609586 -0.08683544 -0.046666533 0.06499028 0.016595269 -0.0022000703 0.030342877 -0.051369607
0.08704323 -0.07938385 0.020001978 -0.100466006 -0.15614103 0.09047662 -0.08442333 -0.025568318
0.029671282 -0.035212487 -0.2908817 -0.06022858 0.050872374 -0.11453933 -0.066709876 -0.22326672
-0.1355683 -0.010919287 -0.13504106 0.022399664 0.015448805 0.107277095 -0.09657007 0.103180654
-0.014234867 -0.13517514 0.034661483 0.092468314 0.108029366 -0.009318653 -0.048183475 -0.016690113
-0.11718113 0.0730312 -0.11661926 -0.10086366 -0.07451894 0.025903247 0.12450692 -0.0075631537
-0.096377045 -0.10795155 0.07649819 0.046985194 -0.13437958 -0.12514809 0.09527629 0.030150678
-0.09674852 0.026423534 0.027250767 -0.05970949 -0.04827226 -0.2128705 0.008486352 -0.05048594
0.042716898 -0.019730723 -0.07279195 -0.066799946 -0.0041036364 -0.010126504 0.011709938 0.06731003
-0.011854008 -0.11705112 -0.008891705 -0.02579084 -0.005305229 0.056996644 -0.15919623 -0.16723558
-0.1487834 -0.11753374 -0.03809686 -0.2749599 0.07177234 0.11249465 -0.13820916 0.06327498
0.041241255 -0.18444413 -0.011864245 -0.074962564 -0.011364625 -0.0420198 -0.089582264 -0.1731393
-0.05283212 0.0760068 0.07214955 -0.1880094 -0.10356066 -0.032475077 -0.06943929 -0.07232469
-0.34950283 -0.058013827 0.050422605 0.09180489 0.036431137 0.007981512 -0.05391835 -0.009167194
-0.16116132 0.068376034 0.06089464 -0.20337252 0.033920158 -0.31979918 0.010306109 -0.12641205
-0.10916785 -0.012183288 -0.1262428 0.0031646227 -0.12692676 -0.08201369 -0.13021323 -0.026715558
-0.17560937 -0.10433164 -0.09934762 -0.10177354 0.016038477 0.020278618 0.10083897 0.053647615
-0.30618322 0.025403412 -0.023861542 -0.038857166 -0.020914296 -0.06466175 -0.035608917 0.087705806
-0.08813003 0.013532342 -0.018985169 -0.05594478 -0.08510566 -0.16133416 0.07443053 -0.0225264
-0.065182745 -0.092219025 0.060208403 -0.03280279 -0.0009050071 -0.004964539 -0.06382609 -0.14821531
-0.02384231 0.051188696 -0.060718853 0.027854322 -0.22090614 -0.24688101 -0.058416296 -0.03583544
-0.0713729 -0.07170753 -0.10775371 -0.04591329 0.047067672 -0.009235094 0.11740196 -0.1501724
-0.08649061 0.039338853 -0.029064707 -0.100268856 -0.17982766 0.058457036 -0.14464402 -0.13132392
-0.052630395 -0.059583858 0.027147412 -0.10407932 -0.07717872 -0.14937356 0.014637142 -0.10030416
-0.1099526 0.11443803 -0.030309394 -0.043851733 -0.1150528 0.07374663 -0.08207215 0.04120974
00000000: 2fd9 07bd f397 b03d b6cf cdbd 0fef 62bd
00000010: 46e2 7ebd 1335 b8bd 0415 8ebe 10b2 e4bd
00000020: 1b1b fa3c 37f7 08be 74cc 18be 1d34 08bd
00000030: 50fd b63b 8c12 5bbd f30a 91be 432b 08be
00000040: 20f8 30bd 1455 d1bd 20c0 4ebd 6dee 9ebc
00000050: cff5 b1bd b0fb 783e 9057 04bd 3685 6f3c
00000060: d5aa 7b3d 53e1 fc3d 84fb e23c 575e 83bc
00000070: b8b1 023e 3168 95bd becf ee3d 1d60 ea3d
00000080: 8be1 093d 7eb5 eabd aa49 27be c0ba d63d
00000090: 0cea 8dbd 962c ca3c 7684 7cbc fd2a 063e
000000a0: 3d3f b8bc ca5e 0b3e 7323 133d 23a7 7ebd
000000b0: ede3 cc3c ebc4 a5bb 4c02 6abc 4b51 a5bb
000000c0: 26a3 4c3d a83e 7bbd 7de5 53be 134b cbbd
000000d0: b736 14be 7d22 c5bd c082 ab3d a494 403d
000000e0: 10fe a03d c7d6 b1bd 6825 3fbd a019 853d
000000f0: cdf2 873c 0e2f 10bb a091 f83c f068 52bd
00000100: b943 b23d 0094 a2bd 30db a33c 1fc1 cdbd
00000110: 6fe3 1fbe ce4b b93d 24e6 acbd a674 d1bc
00000120: 3011 f33c f83a 10bd 72ee 94be 3eb2 76bd
00000130: 8d5f 503d 9993 eabd 309f 88bd 08a0 64be
00000140: 6bd2 0abe cfe6 32bc 3448 0abe 807f b73c
00000150: fc1c 7d3c 18b4 db3d 87c6 c5bd 6150 d33d
00000160: 5c39 69bc 5a6b 0abe 33f9 0d3d 0760 bd3d
00000170: 803e dd3d 43ad 18bc 095c 45bd b4b9 88bc
00000180: a9fc efbd 6291 953d 14d6 eebd 9b91 cebd
00000190: 639d 98bd 0c33 d43c 7cfd fe3d 55d4 f7bb
000001a0: 5461 c5bd b415 ddbd 15ab 9c3d 8c73 403d
000001b0: cd9a 09be d226 00be 3720 c33d 8efe f63c
000001c0: 1724 c6bd 2b76 d83c 003d df3c f091 74bd
000001d0: 22b9 45bd b9fa 59be 570a 0b3c 58ca 4ebd
000001e0: eaf7 2e3d 53a2 a1bc f213 95bd 69ce 88bd
000001f0: cc77 86bb a3e9 25bc 0adb 3f3c d7d9 893d
00000200: 5037 42bc 7fb8 efbd 84ae 11bc 5047 d3bc
00000210: 7dd7 adbb 5075 693d 5604 23be ce3f 2bbe
00000220: ad5a 18be 88b5 f0bd 740b 1cbd 8bc7 8cbe
00000230: 60fd 923d 9863 e63d b486 0dbe 5096 813d
00000240: 97ec 283d ecde 3cbe 4062 42bc f985 99bd
00000250: b132 3abc f41c 2cbd e876 b7bd 6e4b 31be
00000260: 7e66 58bd 74a9 9b3d 25c3 933d 8985 40be
00000270: 9c17 d4bd 9604 05bd 3036 8ebd f81e 94bd
00000280: 09f2 b2be e89f 6dbd ef87 4e3d 3404 bc3d
00000290: d138 153d e3c4 023c 7dd9 5cbd 0032 16bc
000002a0: 7907 25be bc08 8c3d a86c 793d e340 50be
000002b0: ddef 0a3d b8bc a3be f4da 283c 2972 01be
000002c0: 6593 dfbd 6a9c 47bc cb45 01be 8f65 4f3b
000002d0: 17f9 01be cbf6 a7bd 9e56 05be 96da dabc
000002e0: f1d2 33be d4ab d5bd c476 cbbd a56e d0bd
000002f0: 2063 833c 581f a63c a984 ce3d 9abd 5b3d
00000300: 0cc4 9cbe d11a d03c 4879 c3bc b128 1fbd
00000310: 7554 abbc 616d 84bd a8da 11bd 1a9f b33d
00000320: 847d b4bd c2b6 5d3c c986 9bbc 5b26 65bd
00000330: e04b aebd c834 25be 096f 983d 4989 b8bc
00000340: 887e 85bd 54dd bcbd 169d 763d 385c 06bd
00000350: 003e 6dba 92ad a2bb 41b7 82bd c1c5 17be
00000360: f350 c3bc 3dab 513d 55b4 78bd bf2e e43c
00000370: 3835 62be 60ce 7cbe ed45 6fbd 2fc8 12bd
00000380: f42b 92bd 66db 92bd faad dcbd 930f 3cbd
00000390: 08ca 403d cb4e 17bc 7070 f03d cbc6 19be
000003a0: fd21 b1bd c721 213d 1c19 eebc c259 cdbd
000003b0: be24 38be a570 6f3d 901d 14be c779 06be
000003c0: f892 57bd 340e 74bd 4064 de3c 8a27 d5bd
000003d0: e00f 9ebd 62f5 18be a0d0 6f3c 446c cdbd
000003e0: d42e e1bd 7c5e ea3d 684b f8bc e09d 33bd
000003f0: cda0 ebbd 7908 973d 7215 a8bd 8bcb 283d

arith.constant4 f4 [128, 64]
-0.023460288 0.10524542 0.022550534 0.20774166 0.10604663 0.10098036 0.021463256 0.06124876
-0.033397365 0.1734077 -0.10276662 -0.0055689323 0.052475434 0.03528188 0.17505608 -0.15249123
0.06945611 0.16715865 -0.3421574 0.04248857 -0.05525389 0.044967286 -0.1748514 -0.00785359
-0.07736711 -0.12684773 0.012470752 0.18054232 0.11042169 0.11851613 0.11606318 -0.40903163
-0.17467839 -0.0065837735 0.12899806 -0.047605917 -0.062160168 0.13382423 -0.19297388 -0.093449146
0.11554195 -0.014984446 -0.016028568 -0.11375099 0.006846378 -0.111623056 0.16155349 0.105637096
-0.27052155 0.032708276 -0.08999151 0.009418923 -0.09995997 -0.08431965 0.189856 -0.08988549
-0.043596953 -0.25859696 -0.14446242 0.064064845 -0.102687 0.11436193 0.09363942 -0.07105832
0.08728201 -0.06254529 0.03960729 -0.19641937 0.012997585 0.16442497 -0.06274616 0.09323004
0.077336214 0.12177194 0.06576512 -0.11021961 0.004456613 -0.12500313 -0.22235589 -0.07941837
-0.019865498 0.05591372 -0.07718424 -0.058409534 0.041282102 0.11218426 -0.07851582 -0.15779325
-0.08943646 0.030544085 0.15862934 -0.15754165 -0.13201198 -0.11044413 0.0938991 0.06928992
-0.15684645 -0.013958524 -0.16008048 -0.15694444 0.08277453 0.1020042 -0.14063692 -0.06775717
-0.060683694 0.08640755 -0.12067291 -0.2441278 -0.1728104 0.04515535 0.042337462 -0.21411565
0.12827109 0.008531609 -0.03262603 -0.20981245 -0.12269697 0.03441449 0.061698887 -0.15654111
-0.105644226 -0.068905115 -0.09315953 0.08522539 0.14707647 -0.06449634 0.08895956 -0.13891585
0.029603165 -0.049331456 0.15183574 -0.04819588 -0.15805474 0.1734189 -0.139271 -0.098013885
0.0029431363 -0.11018842 0.087003 0.09132232 -0.09658627 0.1387243 -0.105319776 -0.05942812
-0.15937515 -0.22780958 -0.086409755 0.14932002 -0.14442898 -0.030012105 -0.0067285337 -0.0135499565
-0.04739524 0.05184727 0.09716116 -0.0511998 -0.05448281 0.103905186 0.017015563 -0.0042809825
-0.4052781 0.062654495 -0.07428753 0.11204875 0.10013128 -0.19485399 -0.19523488 0.072130986
-0.07600643 -0.08554547 -0.14153796 -0.05572232 -0.08200046 0.05606048 -0.022980202 -0.1362103
0.06308309 -0.0062179626 0.13594678 -0.15800151 -0.1948298 0.12866731 0.14163758 -0.16196665
-0.14682761 -0.1339827 0.081512295 -0.13028824 0.06186019 -0.013879329 -0.18865539 0.07332657
0.026426882 0.07718163 -0.08398833 -0.30123478 -0.13588044 0.13686712 -0.13548955 -0.1982574
0.12543343 0.09138809 -0.14951146 -0.14937992 -0.022480238 -0.09018022 -0.31672138 -0.01410023
-0.013446361 -0.07962994 -0.028194219 -0.30780238 -0.13944453 -0.16369484 0.12039321 0.13283746
-0.036261216 -0.062355585 0.16329573 -0.034235355 -0.16053152 -0.05616556 0.02502838 0.120928645
-0.043462217 0.038499724 -0.15263502 0.018910915 0.05016347 -0.08017106 0.07309712 0.07257757
-0.002092097 -0.08741172 0.16537209 -0.07320706 -0.0072889538 -0.07050351 0.026564661 -0.026607657
-0.14781591 -0.09493954 0.07576154 -0.053451538 -0.0222891 0.15914744 -0.050530665 -0.089237034
0.039917774 -0.10729946 0.09107741 -0.0025750343 -0.10564677 0.13324726 0.039941344 0.094008535
00000000: ca2f c0bc e98a d73d e6bb b83c 3bba 543e
00000010: fa2e d93d cace ce3d b6d3 af3c fbdf 7a3d
00000020: adcb 08bd ca91 313e 4e77 d2bd 977b b6bb
00000030: 7bf0 563d bc83 103d e741 333e a926 1cbe
00000040: 013f 8e3d a32b 2b3e 412f afbe 7f08 2e3d
00000050: e751 62bd 9e2f 383d 3f0c 33be 58ac 00bc
00000060: a672 9ebd 5fe4 01be 2052 4c3c 16e0 383e
00000070: c424 e23d 96b8 f23d 88b2 ed3d 986c d1be
00000080: e4de 32be b2bc d7bb 1118 043e 6cfe 42bd
00000090: a99b 7ebd 3809 093e f29a 45be 4462 bfbd
000000a0: 42a1 ec3d 5281 75bc 584e 83bc 47f6 e8bd
000000b0: 9557 e03b a19a e4bd 476e 253e 4358 d83d
000000c0: cd81 8abe 1df9 053d 784d b8bd d451 1a3c
000000d0: d0b7 ccbd c8af acbd 9c69 423e e215 b8bd
000000e0: b892 32bd d266 84be f5ed 13be 6e34 833d
000000f0: 904d d2bd 9636 ea3d 06c6 bf3d 0687 91bd
00000100: e9c0 b23d bf17 80bd 413b 223d 2922 49be
00000110: d3f3 543c 055f 283e 0f81 80bd 64ef be3d
00000120: 7362 9e3d 9163 f93d ddaf 863d d2ba e1bd
00000130: c808 923b d200 00be 43b1 63be 19a6 a2bd
00000140: f8bc a2bc c905 653d c512 9ebd d63e 6fbd
00000150: 6c17 293d dcc0 e53d e7cc a0bd 8e94 21be
00000160: 762a b7bd 9737 fa3c bb6f 223e 9952 21be
00000170: 262e 07be 8830 e2bd 2c4e c03d e0e7 8d3d
00000180: 5b9c 20be 4bb2 64bc 23ec 23be 0bb6 20be
00000190: b185 a93d 94e7 d03d 2003 10be 45c4 8abd
000001a0: 778f 78bd 71f6 b03d 5c23 f7bd a3fc 79be
000001b0: 36f5 30be d1f4 383d 0c6a 2d3d 2241 5bbe
000001c0: 7f59 033e 29c8 0b3c dfa2 05bd 13d9 56be
000001d0: 8d48 fbbd 35f6 0c3d f9b7 7c3d 504c 20be
000001e0: 005c d8bd 201e 8dbd 6cca bebd a68a ae3d
000001f0: 379b 163e a816 84bd 6e30 b63d f53f 0ebe
00000200: 5682 f23c c80f 4abd d47a 1b3e 0b69 45bd
00000210: 1ad9 21be b994 313e 0f9d 0ebe 81bb c8bd
00000220: a2e1 403b 77aa e1bd a12e b23d 3207 bb3d
00000230: 06cf c5bd be0d 0e3e e5b1 d7bd e66a 73bd
00000240: 3d33 23be ea46 69be 99f7 b0bd 59e7 183e
00000250: 31e5 13be f2db f5bc 087b dcbb a300 5ebc
00000260: 8321 42bd ce5d 543d 6efc c63d e2b6 51bd
00000270: 5e29 5fbd 3ecc d43d 3964 8b3c 7c47 8cbb
00000280: 9c80 cfbe 0051 803d 0f24 98bd d179 e53d
00000290: a111 cd3d ce87 47be a7eb 47be 69b9 933d
000002a0: 42a9 9bbd 7732 afbd 54ef 10be 163d 64bd
000002b0: dbef a7bd ad9f 653d fa40 bcbc b67a 0bbe
000002c0: b531 813d 0dc0 cbbb a235 0b3e 26cb 21be
000002d0: 7781 47be 5dc1 033e 7109 113e 96da 25be
000002e0: fa59 16be c332 09be ebef a63d 486a 05be
000002f0: 1c61 7d3d 2066 63bc e12e 41be 3e2c 963d
00000300: 307d d83c 6711 9e3d 1302 acbd 723b 9abe
00000310: 3e24 0bbe e526 0c3e c6bd 0abe fd03 4bbe
00000320: 9f71 003e ae29 bb3d 8819 19be 0df7 18be
00000330: 7a28 b8bc 68b0 b8bd 4e29 a2be a704 67bc
00000340: 204e 5cbc 0615 a3bd 90f7 e6bc 4698 9dbe
00000350: 8cca 0ebe 9f9f 27be b790 f63d 8b06 083e
00000360: a486 14bd 9268 7fbd ff36 273e 5f3a 0cbd
00000370: 6062 24be dc0d 66bd 5108 cd3c 70a9 f73d
00000380: 7005 32bd e3b1 1d3d 5b4c 1cbe 10eb 9a3c
00000390: 3678 4d3d ba30 a4bd f1b3 953d 8da3 943d
000003a0: 901b 09bb ea04 b3bd 4d57 293e 95ed 95bd
000003b0: 2dd8 eebb 2564 90bd 229e d93c 4df8 d9bc
000003c0: 0e5d 17be a96f c2bd de28 9b3d 00f0 5abd
000003d0: a197 b6bc 8cf7 223e 3ef9 4ebd e8c1 b6bd
000003e0: d280 233d d2bf dbbd cb86 ba3d e8c1 28bb
000003f0: 555d d8bd f871 083e 8999 233d 8c87 c03d

functional_68_1/controlmodel_1/BiasAdd/ReadVariableOp f4 [64]
-0.010361026 -0.037454408 -0.059806745 0.09539145 -0.07477173 0.0 -0.058292173 -0.08671233
-0.034428626 -0.047734663 -0.13071336 -0.053247366 -0.10457392 -0.019655988 -0.059698973 -0.034947835
-0.013829542 -0.10601403 0.08207761 -0.05424204 -0.0029488548 -0.11769276 -0.065612085 -0.011421913
-0.030568328 -0.028628888 0.0 -0.060022958 -0.029985093 0.0 -0.041892678 -0.121585354
0.0037393386 0.045702904 0.0 0.00032989707 -0.008641489 0.01606762 -0.04264824 -0.10519401
-0.10460901 -0.021865344 0.0 -0.032341473 -0.034895476 -0.10682905 0.0048021832 -0.09001326
-0.04545089 -0.03548714 -0.036079735 -0.1278292 -0.03125779 -0.05684979 -0.014733387 -0.037420828
-0.02097687 -0.11719543 -0.092795685 -0.052459046 0.0 -0.07459874 -0.05126206 -0.059643295
00000000: 4bc1 29bc cb69 19bd ebf7 74bd 985c c33d
00000010: ec21 99bd 0000 0000 c6c3 6ebd 3c96 b1bd
00000020: 0805 0dbd 6c85 43bd b9d9 05be e919 5abd
00000030: da2a d6bd 9805 a1bc e986 74bd 7625 0fbd
00000040: 4e95 62bc e21d d9bd 4e18 a83d e72c 5ebd
00000050: 9341 41bb e708 f1bd a15f 86bd fa22 3bbc
00000060: 6e6a fabc 2187 eabc 0000 0000 a2da 75bd
00000070: 4ca3 f5bc 0000 0000 a897 2bbd be01 f9bd
00000080: b10f 753b f832 3b3d 0000 0000 09f6 ac39
00000090: 0895 0dbc 3ea0 833c ecaf 2ebd f56f d7bd
000000a0: 403d d6bd f31e b3bc 0000 0000 7e78 04bd
000000b0: 8fee 0ebd 30c9 dabd a25b 9d3b df58 b8bd
000000c0: b62a 3abd f75a 11bd 58c8 13bd a8e5 02be
000000d0: 2b08 00bd 53db 68bd 4e64 71bc 9546 19bd
000000e0: afd7 abbc 2804 f0bd aa0b bebd 4cdf 56bd
000000f0: 0000 0000 39c7 98bd 2af8 51bd 874c 74bd

functional_68_1/l1_1/BiasAdd/ReadVariableOp f4 [128]
-0.13137464 -0.16816579 -0.051292025 -0.13519429 -0.08715249 0.031577453 -0.11155511 -0.10329413
-0.00899639 0.068838194 -0.13763511 0.0014086893 -0.11564305 0.04960869 -0.009455839 -0.048310917
-0.12371757 -0.11303629 -0.053729907 -0.10986135 -0.17155296 0.1102074 -0.10028128 -0.16012135
-0.098579615 -0.18873948 -0.108462475 0.044548314 -0.24747682 -0.14614506 -0.062175333 -0.17462185
0.07463758 -0.09609533 0.013251425 -0.08874889 -0.7488709 -0.0606404 -0.1651518 -0.15187836
-0.11356059 -0.113336004 -0.108697645 -0.21740213 -0.22481272 -0.09792809 -0.027601048 -0.023441022
0.04607426 -0.12246086 -0.05347087 -0.110481426 -0.2686344 -0.09164931 -0.13056423 -0.0063042073
-0.14708169 0.04932918 -0.20716423 -0.07341484 -0.061295737 0.050172765 -0.03821261 -0.049207248
0.005204943 -0.17478602 -0.08468832 -0.042935595 -0.05976813 -0.09117541 -0.15228927 -0.09283279
-0.12378109 0.01924865 -0.072603054 0.04897042 -0.10277332 0.08888129 -0.03567307 -0.062182024
-0.07672829 -0.1642662 -0.08671569 -0.09040165 -0.1026623 -0.1770197 -0.086603194 -0.15417787
0.041715655 0.013169395 -0.044989325 -0.1492096 -0.018863022 0.07087114 0.055528425 -0.09404163
-0.118268214 0.10282432 -0.096704826 -0.090801924 -0.086182676 0.082725644 -0.07111557 -0.13812193
-0.05951857 -0.11925834 -0.11369531 -0.059884075 -0.044145435 -0.08948809 -0.097648725 -0.102426164
-0.033974778 -0.11540201 -0.08680518 -0.08670875 -0.1233537 -0.15075618 -0.033458274 -0.18585107
-0.14502314 -0.16641411 -0.19254266 -0.04512735 -0.07189527 -0.16220121 -0.14933614 -0.12758046
00000000: 1387 06be a733 2cbe 9617 52bd 5f70 0abe
00000010: 017d b2bd 5c57 013d 0177 e4bd df8b d3bd
00000020: 9865 13bc 0afb 8c3d 38f0 0cbe c5a3 b83a
00000030: 43d6 ecbd 7b32 4b3d aaec 1abc abe1 45bd
00000040: a35f fdbd 927f e7bd e413 5cbd fdfe e0bd
00000050: 94ab 2fbe 6bb4 e13d 4660 cdbd daf6 23be
00000060: 1ce4 c9bd ec44 41be 9321 debd 4b78 363d
00000070: 906a 7dbe 0da7 15be 90ab 7ebd 12d0 32be
00000080: 96db 983d a1cd c4bd 811c 593c fac1 b5bd
00000090: 01b6 3fbf 1162 78bd 8e1d 29be 0086 1bbe
000000a0: 7492 e8bd b51c e8bd df9c debd aa9e 5ebe
000000b0: 4e35 66be 868e c8bd 981b e2bc 6307 c0bc
000000c0: 5db8 3c3d c2cc fabd 4504 5bbd 1644 e2bd
000000d0: 738a 89be a2b2 bbbd a1b2 05be 8693 cebb
000000e0: 959c 16be 650d 4a3d dc22 54be 855a 96bd
000000f0: 3d11 7bbd f581 4d3d d384 1cbd 8a8d 49bd
00000100: 3a8e aa3b 1bfb 32be 1271 adbd 3cdd 2fbd
00000110: 6dcf 74bd 2cba babd b8f1 1bbe 1e1f bebd
00000120: f180 fdbd 58af 9d3c e9b0 94bd 3595 483d
00000130: d27a d2bd 6507 b63d ed1d 12bd 94b2 7ebd
00000140: b923 9dbd 6635 28be ff97 b1bd 8024 b9bd
00000150: 9d40 d2bd a744 35be 045d b1bd cee0 1dbe
00000160: 09de 2a3d 72c4 573c ba46 38bd 67ca 18be
00000170: a086 9abc e324 913d c671 633d e698 c0bd
00000180: 9b36 f2bd 8f95 d23d 2e0d c6bd 5cf6 b9bd
00000190: 8b80 b0bd 106c a93d 0aa5 91bd d66f 0dbe
000001a0: bec9 73bd b73d f4bd 16d9 e8bd 0149 75bd
000001b0: d8d1 34bd 8845 b7bd 0efc c7bd cfc4 d1bd
000001c0: 2329 0bbd e457 ecbd eac6 b1bd 5b94 b1bd
000001d0: dda0 fcbd d45f 1abe 8b0b 09bd be4f 3ebe
000001e0: f280 14be 7668 2abe e729 45be 75d7 38bd
000001f0: d43d 93bd 1318 26be 93eb 18be 74a4 02be

functional_68_1/l2_1/BiasAdd/ReadVariableOp f4 [256]
0.069298774 -0.22581305 -0.08928556 -0.111496784 -0.1830255 0.13920337 -0.09886311 -0.13796297
-0.22596303 -0.111395605 0.018739628 -0.17200084 -0.03582674 -0.071047366 -0.20883481 -0.19467819
-0.17196256 -0.14515603 -0.06949107 -0.17437631 -0.14524731 -0.15644741 -0.06793312 -0.20879935
-0.1416805 -0.09822854 -0.103371434 -0.025234202 -0.2019614 -0.0020590336 -0.12907995 -0.1647469
-0.0066363933 -0.13734639 -0.10356157 -0.089832686 -0.08831607 -0.15202993 -0.07668894 -0.030116469
-0.05211553 0.0028968481 -0.13827926 -0.20626639 -0.08552593 0.057240404 0.044611346 -0.15130426
0.04302077 -0.17523926 -0.1833154 -0.11114375 -0.13426384 -0.072383754 -0.13018024 -0.09934502
-0.15660444 -0.15460098 -0.046571787 -0.17635572 -0.07173633 -0.16096833 -0.10199777 -0.15362877
-0.09007893 -0.088560976 -0.17692871 -0.2252273 -0.20209934 0.011540891 -0.082935676 -0.058728144
-0.08158568 -0.121549726 -0.032320462 -0.031347446 -0.15966141 -0.15902096 -0.102285855 0.09231664
-0.1579916 -0.109609306 -0.19616096 -0.1752316 -0.22973368 -0.2217355 -0.06635108 0.067860946
-0.21263815 -0.10211817 -0.084535204 -0.14699087 -0.2020081 -0.0007743483 0.14765264 -0.17528614
-0.16205049 -0.0447203 -0.22059084 0.109229095 0.047203146 -0.18412018 0.09523473 0.08498011
-0.1410767 -0.12278395 0.02102985 -0.09549189 -0.050855137 -0.19309966 -0.15729356 -0.068464205
0.07651068 -0.109411955 -0.15072854 -0.029733041 0.04145732 -0.037053924 0.023438586 -0.24823143
-0.18299496 -0.26398104 -0.101713575 -0.056329336 -0.23614985 -0.12187749 -0.058004487 -0.1790035
-0.17808723 -0.008767703 -0.0989605 -0.07108059 -0.1638585 -0.13071562 -0.19234912 0.045803368
-0.17439122 -0.09603848 -0.17432165 -0.10117461 -0.14656125 -0.19768703 -0.0369464 -0.046853513
-0.06209663 0.019073019 -0.1335404 -0.17496395 -0.039154172 -0.21029025 -0.15695591 -0.15264584
-0.19866319 -0.19889535 -0.14985146 -0.07811258 0.22647732 -0.1822179 -0.10926082 -0.16472048
-0.039400447 -0.14739007 -0.1752561 -0.22501227 -0.13973683 -0.102206565 -0.20051953 -0.17161834
-0.11019063 -0.2500045 -0.11869206 -0.20461017 -0.121051036 0.027104817 -0.2793993 -0.049485352
-0.043964267 -0.05366381 -0.070986 -0.1621183 -0.226488 -0.1956136 -0.14164189 -0.13083635
-0.15912765 -0.13809682 -0.11580317 -0.25009003 -0.053350937 -0.038214985 -0.13792285 -0.14108714
-0.24991454 0.0497501 -0.1617377 -0.08380251 -0.17294884 -0.10115969 -0.19385006 -0.17906314
-0.10551593 -0.08406181 -0.23044632 0.006361387 -0.06322369 -0.03357227 -0.10586631 -0.14255875
-0.19727646 0.011599133 -0.1831177 0.020873012 -0.12020057 -0.07586167 -0.14470588 -0.061804097
-0.08429699 -0.18988287 -0.031495307 -0.15672453 -0.093437344 -0.052713566 -0.254338 -0.17383653
-0.18791388 -0.21323808 -0.12508972 -0.16221079 -0.07951795 -0.043259315 -0.24919327 -0.11663925
-0.14440769 -0.052277606 -0.078604296 -0.106827304 -0.09004661 -0.1927266 -0.0032988545 -0.11589106
-0.010674658 -0.12498717 -0.15112118 -0.16507983 -0.1802245 0.042835265 -0.15259667 -0.09456972
-0.17195688 -0.0987655 -0.20445341 -0.17902385 -0.13518518 -0.07715082 -0.08673995 -0.1757189
00000000: 84ec 8d3d 893b 67be 59db b6bd 6d58 e4bd
00000010: 096b 3bbe 548b 0e3e be78 cabd 2a46 0dbe
00000020: da62 67be 6123 e4bd d983 993c fd20 30be
00000030: 0fbf 12bd 4881 91bd cbd8 55be b859 47be
00000040: f416 30be c8a3 14be 5651 8ebd b48f 32be
00000050: b6bb 14be c033 20be 8520 8bbd 7fcf 55be
00000060: b114 11be 0b2c c9bd 67b4 d3bd f5b7 cebc
00000070: f8ce 4ebe daf0 06bb 892d 04be 69b3 28be
00000080: 1a76 d9bb 88a4 0cbe 1718 d4bd 33fa b7bd
00000090: 0edf b4bd bcad 1bbe 170f 9dbd d0b6 f6bc
000000a0: 1877 55bd 0cd9 3d3b 1499 0dbe 7f37 53be
000000b0: 3828 afbd ea74 6a3d 63ba 363d 81ef 1abe
000000c0: 8c36 303d ec71 33be 08b7 3bbe 569f e3bd
000000d0: 767c 09be ef3d 94bd f84d 05be 6775 cbbd
000000e0: ea5c 20be b84f 1ebe 0fc2 3ebd 9896 34be
000000f0: 7fea 92bd e2d4 24be 35e4 d0bd dc50 1dbe
00000100: 4d7b b8bd 755f b5bd cd2c 35be fca1 66be
00000110: 21f3 4ebe 0116 3d3c 2eda a9bd ec8c 70bd
00000120: 6516 a7bd 10ef f8bd 7662 04bd 2e66 00bd
00000130: 487e 23be 64d6 22be 3f7b d1bd 8210 bd3d
00000140: 8dc8 21be d87a e0bd 6bde 48be ea6f 33be
00000150: 4e3f 6bbe a20e 63be 13e3 87bd aefa 8a3d
00000160: d1bd 59be 5523 d1bd cb20 adbd c684 16be
00000170: 36db 4ebe a2fd 4aba 4132 173e 367e 33be
00000180: 90f0 25be a22c 37bd 91e2 61be 81b3 df3d
00000190: 1658 413d 008a 3cbe 6d0a c33d 0d0a ae3d
000001a0: 6976 10be 2776 fbbd cb46 ac3c 4191 c3bd
000001b0: 7a4d 50bd ebbb 45be 9011 21be f636 8cbd
000001c0: a2b1 9c3d 6013 e0bd 9558 1abe b592 f3bc
000001d0: 27cf 293d dbc5 17bd 4702 c03c 6130 7ebe
000001e0: 0863 3bbe 8628 87be 354f d0bd 97b9 66bd
000001f0: 44d1 71be e89a f9bd 1d96 6dbd b24c 37be
00000200: 805c 36be 69a6 0fbc cdab cabd b392 91bd
00000210: 86ca 27be 51da 05be 2bf7 44be 509c 3b3d
00000220: 9d93 32be d3af c4bd 6081 32be a234 cfbd
00000230: 2714 16be 786e 4abe 1c55 17bd 78e9 3fbd
00000240: 0959 7ebd 053f 9c3c d1be 08be c029 33be
00000250: 2060 20bd 5456 57be 0db9 20be 314f 1cbe
00000260: 5d6e 4bbe 39ab 4bbe a972 19be 7df9 9fbd
00000270: ace9 673e 5497 3abe 23c4 dfbd 7cac 28be
00000280: 5d62 21bd 6ced 16be 5676 33be 9e69 66be
00000290: 2c17 0fbe ad51 d1bd fe54 4dbe b8bc 2fbe
000002a0: a0ab e1bd 9700 80be d314 f3bd 5485 51be
000002b0: 9be9 f7bd ec0a de3c 6d0d 8fbe 27b1 4abd
000002c0: e013 34bd 95ce 5bbd 1c61 91bd 5702 26be
000002d0: 78ec 67be ee4e 48be 920a 11be f7f9 05be
000002e0: 5cf2 22be 4169 0dbe 362a edbd cd0b 80be
000002f0: 8386 5abd 5187 1cbd a63b 0dbe 2679 10be
00000300: 99e9 7fbe c3c6 4b3d 919e 25be a6a0 abbd
00000310: 8019 31be d02c cfbd a180 46be 545c 37be
00000320: bc18 d8bd 9928 acbd 1ffa 6bbe 2f73 d03b
00000330: 6c7b 81bd 1483 09bd 70d0 d8bd ecfa 11be
00000340: d702 4abe 4a0a 3e3c 3583 3bbe e1fd aa3c
00000350: b72b f6bd 5d5d 9bbd c72d 14be 4b26 7dbd
00000360: e6a3 acbd a870 42be 3901 01bd 657c 20be
00000370: 145c bfbd 2eea 57bd 9738 82be 3402 32be
00000380: 7f6c 40be 155b 5abe 8517 00be 961a 26be
00000390: 4fda a2bd ae30 31bd 852c 7fbe 8fe0 eebd
000003a0: 9cdf 13be 0b21 56bd 4afb a0bd 46c8 dabd
000003b0: 5b6a b8bd 1f5a 45be 9831 58bb 4b58 edbd
000003c0: c3e4 2ebc 46f9 ffbd 83bf 1abe b00a 29be
000003d0: c58c 38be 0874 2f3d 4d42 1cbe c5ad c1bd
000003e0: 7715 30be 9145 cabd 3c5c 51be 0752 37be
000003f0: fc6d 0abe 4001 9ebd b7a4 b1bd a8ef 33be

functional_68_1/l3_1/BiasAdd/ReadVariableOp f4 [128]
-0.09031163 -0.12350033 -0.16181946 -0.1123127 -0.2205307 -0.16294937 -0.026278256 -0.12953217
-0.087681934 0.027881727 -0.074669056 0.033364028 -0.107593566 -0.10221714 -0.044808112 -0.11976743
-0.04872312 -0.124361254 0.03303449 -0.09206995 0.22905526 -0.10971372 -0.084508665 -0.001142923
-0.14659545 -0.12950139 -0.09522239 -0.13052897 -0.12351014 -0.21789272 -0.17883618 -0.09344057
-0.14940463 -0.071924515 -0.101075426 -0.20545624 -0.13707386 -0.1608921 -0.15490879 0.045532253
-0.14207697 -0.09401417 -0.1138113 0.17452987 -0.20131348 -0.012851525 -0.14784281 -0.1434905
-0.040438835 -0.16172908 -0.066390924 0.1172508 -0.17307886 -0.07383713 -0.13144313 -0.120416
-0.14247254 -0.16571406 -0.13220839 -0.17185575 -0.18760146 -0.1544945 -0.13645615 -0.14233437
-0.15023859 -0.10896031 -0.07987499 -0.10370284 -0.11409144 -0.09266811 0.2453835 -0.15203418
-0.13368544 -0.11469204 -0.14914009 -0.10486967 -0.016332965 -0.16785331 -0.08768166 -0.14662157
-0.13119511 -0.15382802 -0.05940048 -0.089898035 -0.11868494 -0.14404511 -0.05690428 -0.1062306
-0.15620267 -0.083708234 -0.07814961 -0.07317553 -0.03571248 -0.20172018 -0.12998432 -0.042346437
-0.14059201 -0.13041644 -0.038842198 -0.10146119 -0.1293826 0.07075469 -0.07861033 -0.11024621
-0.09316736 -0.17141548 -0.13381813 -0.1300841 -0.10567834 -0.10691633 -0.13550791 -0.065300874
-0.1261906 -0.033759028 -0.07855551 -0.17180037 -0.11703237 -0.0913736 -0.10854795 -0.06017869
-0.09953049 -0.10125704 -0.016206853 -0.2166292 -0.013443302 0.029465986 -0.09048711 -0.07857518
00000000: 4ef5 b8bd beed fcbd 00b4 25be 3304 e6bd
00000010: cdd2 61be 33dc 26be 7f45 d7bc 15a4 04be
00000020: 9692 b3bd 3868 e43c 17ec 98bd b8a8 083d
00000030: 045a dcbd 3857 d1bd b688 37bd a048 f5bd
00000040: e591 47bd 1db1 febd 2c4f 073d 2c8f bcbd
00000050: 768d 6a3e 96b1 e0bd e112 adbd 22ce 95ba
00000060: 1e1d 16be 039c 04be f503 c3bd 63a9 05be
00000070: e2f2 fcbd 451f 5fbe d520 37be c55d bfbd
00000080: 87fd 18be 294d 93bd a200 cfbd 1f63 52be
00000090: 175d 0cbe e6c0 24be 69a0 1ebe 0780 3a3d
000000a0: a07c 11be 808a c0bd e615 e9bd f5b7 323e
000000b0: 1f25 4ebe 348f 52bc 1b64 17be 2cef 12be
000000c0: 31a3 25bd 4f9c 25be f7f7 87bd 3021 f03d
000000d0: 963b 31be ec37 97bd 0799 06be aa9c f6bd
000000e0: 52e4 11be f2b0 29be a361 07be f4fa 2fbe
000000f0: 991a 40be ce33 1ebe 29bb 0bbe 1ac0 11be
00000100: 25d8 19be 9526 dfbd 8095 a3bd 2862 d4bd
00000110: c6a8 e9bd c7c8 bdbd d045 7b3e d9ae 1bbe
00000120: d6e4 08be a9e3 eabd 2eb8 18be e9c5 d6bd
00000130: b6cc 85bc bde1 2bbe 7192 b3bd f723 16be
00000140: 0358 06be 1885 1dbe eb4d 73bd 761c b8bd
00000150: 1711 f3bd 9080 13be 7614 69bd 6e8f d9bd
00000160: 98f3 1fbe 396f abbd e70c a0bd 0ddd 95bd
00000170: 4047 12bd bc8f 4ebe 9c1a 05be 7573 2dbd
00000180: 5af7 0fbe e38b 05be ff18 1fbd e2ca cfbd
00000190: df7c 04be d6e7 903d 74fe a0bd c4c8 e1bd
000001a0: 87ce bebd 8a87 2fbe 9f07 09be c434 05be
000001b0: e36d d8bd f3f6 dabd 96c2 0abe 77bc 85bd
000001c0: 1c38 01be e846 0abd b6e1 a0bd 70ec 2fbe
000001d0: abae efbd 1522 bbbd 634e debd ee7d 76bd
000001e0: a4d6 cbbd da5f cfbd 3cc4 84bc 0cd4 5dbe
000001f0: 4c41 5cbc a762 f13c 4e51 b9bd 06ec a0bd

functional_68_1/l4_1/BiasAdd/ReadVariableOp f4 [64]
-0.13112651 -0.1564285 -0.1056404 -0.004577504 0.0051211156 0.04781234 -0.1332053 -0.30946273
-0.22070873 0.028091712 -0.059324615 -0.22015592 -0.53159255 0.3614626 -0.29295993 -0.19619408
-0.18747456 -0.2342637 -0.33515963 -0.21188082 -0.24997629 -0.21224695 -0.27833572 -0.04069985
-0.2009779 -0.16888393 0.1390804 -0.00022601486 -0.2149154 -0.13214013 0.0022253643 -0.21634345
-0.33523968 -0.12892261 -0.34486738 -0.056518175 0.042368326 0.1712008 -0.15755948 0.017302003
-0.022870325 -0.1471146 0.39017013 -0.13039614 -0.62834615 -0.2040107 -0.13622591 -0.022924792
-0.29963374 -0.2441173 -0.13377316 -0.038248852 -0.1133104 -0.19777957 -0.056004535 -0.12610939
-0.2396749 -0.29490787 0.009755277 0.05874141 0.27068347 -0.26562762 -0.19257411 -0.2130418
00000000: 0746 06be cb2e 20be fe59 d8bd e3fe 95bb
00000010: 08cf a73b dfd6 433d f866 08be e671 9ebe
00000020: 7801 62be 9720 e63c 5efe 72bd 8e70 61be
00000030: 7316 08bf a011 b93e d8fe 95be 1ae7 48be
00000040: 55f9 3fbe d3e2 6fbe 0b9a abbe 49f7 58be
00000050: c9f9 7fbe 4457 59be 0582 8ebe e3b4 26bd
00000060: 27cd 4dbe e9ef 2cbe 186b 0e3e 67fe 6cb9
00000070: c812 5cbe be4f 07be 6bd7 113b 2389 5dbe
00000080: 89a4 abbe 4a04 04be 7592 b0be 9a7f 67bd
00000090: 698a 2d3d 434f 2f3e 4657 21be eebc 8d3c
000000a0: 8c5a bbbc 36a5 16be 61c4 c73e 9186 05be
000000b0: 4bdb 20bf 2ee8 50be ce7e 0bbe c6cc bbbc
000000c0: 9869 99be e3f9 79be d5fb 08be d4aa 1cbd
000000d0: 480f e8bd ba86 4abe 0365 65bd d222 01be
000000e0: 566d 75be 2afe 96be 99d4 1f3c d59a 703d
000000f0: 0697 8a3e 5800 88be 2632 45be a127 5abe

functional_68_1/controlmodel_1/MatMul f4 [64, 32]
0.12353593 -0.019530289 -0.04455535 -0.00805366 -0.10604462 -0.13073732 -0.15921538 0.027271368
-0.23020774 -0.0686889 -0.23877335 -0.2162816 0.22303319 0.12307431 -0.19205256 -0.05253342
0.038221557 -0.08289915 -0.008397953 -0.20320095 -0.037481755 0.15652084 -0.028341554 0.03212307
-0.035037875 -0.2467254 0.16175419 0.1543361 0.017877184 -0.1528833 -0.22527689 -0.06436717
-0.058169946 0.13903522 -0.21638672 -0.0557549 -0.077763274 -0.17060998 0.080806255 0.08012316
0.03567505 -0.027598947 -0.06852227 -0.00034864442 -0.22036624 -0.23784691 -0.18646441 0.00714235
-0.010504177 -0.054879904 0.18849291 -0.19025157 0.020963345 -0.1409179 -0.18634793 -0.113891184
-0.000902038 0.067678 -0.2407217 -0.06651467 -0.18417583 -0.23536414 -0.07745111 0.21242125
-0.012856424 0.048405074 -0.08426219 0.22842538 -0.23265867 0.032942202 0.020881658 0.057426944
-0.17369938 -0.007769555 0.19934626 0.036970794 -0.10138001 0.029388692 0.112833165 -0.13271628
-0.23208538 0.124002874 -0.10744269 0.13571134 0.04999948 0.14039963 -0.1431324 -0.18526793
-0.08090654 -0.26738608 -0.21304351 0.15935475 -0.00020607068 0.16570185 0.19142073 -0.1625427
-0.14002106 -0.196048 0.023308014 -0.22822368 0.10820768 -0.25332502 -0.16235569 -0.06275045
-0.1875647 -0.1873042 -0.073739246 0.21613562 0.15273944 0.067438185 0.31065983 0.16938238
0.24386986 0.21867496 0.15467794 -0.45792335 -0.16674592 -0.06256682 0.16042596 0.11676383
-0.2546073 -0.098309554 -0.14205086 0.022185326 0.09051246 0.036216587 0.09975815 0.20327072
0.008885872 0.30083194 -0.12747712 0.20967394 -0.17732228 0.27027312 -0.12786905 0.2356732
-0.047445063 -0.050187327 -0.19605093 -0.22653593 -0.2666863 -0.35852054 -0.18188015 -0.041196264
0.16111487 -0.12293577 -0.0032316511 0.09212541 -0.14484563 0.23091972 0.12808284 -0.0010057057
-0.066742584 0.05448545 0.15924048 -0.062265277 -0.006026012 0.04618322 0.18136275 -0.29918286
-0.21553457 0.022800446 -0.019478798 0.045538545 0.04639876 0.04802394 0.0064472556 -0.13871825
-0.015416563 0.027055144 0.103307545 -0.13802987 -0.04769838 -0.16724318 -0.101689816 0.12044722
-0.11056155 -0.22855484 -0.22321665 -0.17172575 -0.21886021 -0.23323882 0.11894077 -0.05988407
-0.030519068 -0.23764199 0.15506864 -0.10173166 -0.10379362 0.06818259 0.13276923 -0.060398817
-0.11061573 -0.2176217 0.11515436 0.15471041 -0.12837696 -0.31112152 -0.045854557 0.21839082
-0.16770405 0.025817316 0.22762811 0.22278166 -0.112987265 -0.3063289 0.06599215 -0.21364556
-0.1535629 0.0013212562 -0.2684608 -0.006404357 0.15489791 -0.23897773 -0.14919767 -0.022347331
-0.13674955 0.014725487 0.21853489 0.09357351 -0.022122214 0.13419491 -0.14461249 -0.12621784
-0.15481186 -0.28858963 0.030167826 -0.010353565 0.029261723 -0.12007108 0.18130767 0.10997083
0.15290877 -0.11876806 0.186432 -0.15366805 0.096862376 -0.22122769 -0.023547338 0.103056006
-0.06637455 0.13872337 0.1149405 -0.038189497 0.12989643 -0.22835445 0.027582856 -0.24336758
0.072967 -0.29135865 0.229568 -0.07797772 -0.1679608 0.060729325 -0.21886754 -0.0351615
00000000: 6800 fd3d fcfd 9fbc ac7f 36bd 80f3 03bc
00000010: ec2d d9bd 01e0 05be 5b09 23be 3468 df3c
00000020: 94bb 6bbe c4ac 8cbd 0081 74be ec78 5dbe
00000030: d062 643e 620e fc3d 6da9 44be 492d 57bd
00000040: 358e 1c3d 08c7 a9bd 9197 09bc e913 50be
00000050: 7886 19bd 0047 203e 8c2c e8bc 7b93 033d
00000060: e083 0fbd 95a5 7cbe e4a2 253e 480a 1e3e
00000070: 2c73 923c 718d 1cbe fcae 66be efd2 83bd
00000080: 9c43 6ebd 405f 0e3e 7b94 5dbe 405f 64bd
00000090: 5a42 9fbd 62b4 2ebe c07d a53d 9c17 a43d
000000a0: 0020 123d 3017 e2bc 6755 8cbd 43ca b6b9
000000b0: b0a7 61be 248e 73be 87f0 3ebe 600a ea3b
000000c0: b619 2cbc c0c9 60bd 4904 413e 4fd1 42be
000000d0: 52bb ab3c c84c 10be fed1 3ebe c83f e9bd
000000e0: bf76 6cba c39a 8a3d c07f 76be d838 88bd
000000f0: 9798 3cbe 4c03 71be b09e 9ebd f584 593e
00000100: c0a3 52bc 6644 463d a891 acbd 58e8 693e
00000110: 133e 6ebe 67ee 063d 0310 ab3c 8438 6b3d
00000120: 40de 31be c097 febb 6d21 4c3e b06e 173d
00000130: 53a0 cfbd 8ec0 f03c 1315 e73d c7e6 07be
00000140: caa7 6dbe 38f5 fd3d ea0a dcbd eaf7 0a3e
00000150: 41cc 4c3d ecc4 0f3e 4d91 12be e0b6 3dbe
00000160: 54b2 a5bd d4e6 88be 1428 5abe e42d 233e
00000170: ad14 58b9 bfad 293e cc03 443e 9871 26be
00000180: ae61 0fbe cfc0 48be 73f0 be3c 78b3 69be
00000190: fd9b dd3d d1b3 81be 9240 26be 4f83 80bd
000001a0: f610 40be accc 3fbe 9a04 97bd a852 5d3e
000001b0: ba67 1c3e 081d 8a3d ce0e 9f3e 9372 2d3e
000001c0: 05b9 793e 54ec 5f3e e563 1e3e ee74 eabe
000001d0: 71bf 2abe 0823 80bd b446 243e e021 ef3d
000001e0: e35b 82be 8556 c9bd c875 11be 00be b53c
000001f0: 995e b93d d857 143d 004e cc3d 3326 503e
00000200: 0c96 113c a506 9a3e 5d89 02be c4b4 563e
00000210: f993 35be 3d61 8a3e 1bf0 02be 5154 713e
00000220: c155 42bd 3a91 4dbd 93c1 48be 09f9 67be
00000230: 1b8b 88be 0190 b7be ca3e 3abe 6abd 28bd
00000240: 4cfb 243e c0c5 fbbd 1cca 53bb 3fac bc3d
00000250: 6a52 14be 3876 6c3e 2628 033e e2d1 83ba
00000260: 56b0 88bd 232c 5f3d f00f 233e e009 7fbd
00000270: da75 c5bb 9e2a 3d3d 28b7 393e 7f2e 99be
00000280: 18b5 5cbe 00c8 ba3c 0092 9fbc a086 3a3d
00000290: a00c 3e3d c0b4 443d 8043 d33b 280c 0ebe
000002a0: c095 7cbc c0a2 dd3c e892 d33d b457 0dbe
000002b0: 605f 43bd cc41 2bbe c042 d0bd 08ad f63d
000002c0: 186e e2bd 480a 6abe e892 64be e0d8 2fbe
000002d0: e41c 60be 28d6 6ebe 3897 f33d 0049 75bd
000002e0: 2003 fabc 6c58 73be 50ca 1e3e b058 d0bd
000002f0: c091 d4bd 50a3 8b3d a8f4 073e c064 77bd
00000300: 808a e2bd 39d8 5ebe 0dd6 eb3d 686c 1e3e
00000310: 4075 03be 524b 9fbe fdd1 3bbd d8a1 5f3e
00000320: 9cba 2bbe d67e d33c 5817 693e e020 643e
00000330: de65 e7bd 24d7 9cbe e426 873d e7c5 5abe
00000340: 983f 1dbe 002e ad3a b273 89be a4db d1bb
00000350: 8f9d 1e3e 94b6 74be 46c7 18be c011 b7bc
00000360: 1308 0cbe 2b43 713c 9cc7 5f3e 78a3 bf3d
00000370: a539 b5bc 646a 093e 4c15 14be 403f 01be
00000380: 0087 1ebe 05c2 93be 8422 f73c 00a2 29bc
00000390: 48b6 ef3c d4e7 f5bd b8a8 393e 6338 e13d
000003a0: 1e94 1c3e ab3c f3bd 08e8 3e3e 285b 1dbe
000003b0: c85f c63d 8389 62be 59e6 c0bc 070f d33d
000003c0: 61ef 87bd 800d 0e3e ed65 eb3d 976c 1cbd
000003d0: 9203 053e c0d5 69be 71f5 e13c 5a35 79be
000003e0: b96f 953d f62c 95be e013 6b3e c8b2 9fbd
000003f0: eafd 2bbe 50bf 783d d01e 60be 8105 10bd
