deployment/models/edge_modelS3.tflite (tflite, 15468 bytes, 5 tensors)

arith.constant f4 [1, 32]
00000000: cad4 b13e 9cd1 223b 9a77 13bd bd46 b53e
00000010: b7c1 96be 9099 503d ac3b 59be 795f 563d
00000020: 4fc8 a1bd 80e2 9a3e 8fe2 8dbe 7479 1cbe
00000030: 6788 80be df87 a4be 9815 2e3e 66fb f3bb
00000040: c052 bf3e 7f06 81be c6d1 88bc 6f1a 8bba
00000050: a40a 29be 8446 91bd 9f96 263c cefb b93c
00000060: 3ef8 893c 546a 40bb 2831 5bbe 2ac4 a83e
00000070: a93b dcbc a726 52bc ed0d bdbd 4913 89bb
0.34732658 0.0024844175 -0.036002733 0.35405532 -0.29444668 0.0509277 -0.2121417 0.052337144
-0.07899534 0.3025093 -0.27711913 -0.15280706 -0.25104067 -0.3213491 0.17000425 -0.0074457405
0.3736782 -0.2520027 -0.01670159 -0.0010612736 -0.16507965 -0.07093528 0.010167747 0.022703078
0.016842004 -0.0029360252 -0.2140547 0.3296216 -0.026883917 -0.012826598 -0.09231172 -0.004183207

arith.constant1 f4 [32, 64]
00000000: 909d 79bd 74be 713e ec0b 5abe 60e3 bfbd
00000010: f45b 6abe 70f5 623d 9826 1fbe 5055 eebd
00000020: 504d dfbd 2029 ce3d 78d6 eebd 4800 0c3e
00000030: 2000 8fbc 809d 563c 109d b03d 005c 343c
00000040: c0a3 71bc 581f 63be 80e5 b23b 2836 b1bd
00000050: 8831 90bd 8824 913d 102d 403d 107a 83bd
00000060: 3832 52be 488a 22be 80ed f03b f46c 15be
00000070: d0d9 343d 80f1 193d 8831 46be 6ca5 1b3e
00000080: c4d1 773e 88d0 6fbe 6899 1fbe d072 573d
00000090: 4095 cfbd f049 8ebd 7896 6a3e 0010 21bc
000000a0: 6879 99bd c0bb c9bd b44e 3bbe 10bc ddbd
000000b0: b0a0 fa3d 3891 73be 944a 26be 7c15 1cbe
000000c0: a80c 4dbe 401b 82bd b87c a43d d077 083d
000000d0: f00b 653e 6088 b63c cca8 45be 5072 6f3d
000000e0: 4c23 413e b025 f43d 600f 7dbd a0a1 2abd
000000f0: 307f 593d 006d f03b c4e2 13be 58f0 85bd
00000100: 3f30 f9be c5d5 2abe 1b5b 8cbe c11f a1be
00000110: cbd9 923e 337b 82bd 78b6 e5bd 8644 e6bc
00000120: 1d0e 443e 9a1c 6c3e 35d7 4cbe 0fc3 a2bc
00000130: 99bb 81be 3014 34bd 0bff a4bc b081 0e3e
00000140: b0f8 703d 901f a83d 84df 40be 5583 0dbe
00000150: 1271 b4be 844f 4e3b 1245 47bd f38c 313d
00000160: ac53 393e 2d31 063e 3d3e 8a3c 7f7b 5ebe
00000170: 6de7 01be 9873 3cbe c41d ad3d 2afd 0e3c
00000180: aafa 80be 1a26 8d3d 5285 d6bd 7962 79bd
00000190: c198 8cbc 3e24 2d3e eaaf 3b3d 5269 dabe
000001a0: 107c 283d 307e 753e 8f18 3dbf 5a55 a23d
000001b0: d01b 243e 8623 65bd b21c 83bd 2a27 a5bd
000001c0: fdad aa3d a2ef 003f ea1a 57be 176a 76bd
000001d0: 2d10 c73d 407a 03bd cb35 b23d 4124 493d
000001e0: 80ce cf3b 3f3e 58be 56e6 cd3d 9731 3c3e
000001f0: 7e3f 773d 50ed f1bd 9780 993d 6c9f c4be
00000200: 2d8e 463e c319 93bd 1b2a 22be d369 1f3e
00000210: 75f2 523e 2ba7 1f3e ecec 063e 7791 4f3e
00000220: 3a79 e6bc a086 f53d 1fbd 18be 0e30 72be
00000230: 65b4 00be 3097 29bd 156d 603e 688e cb3d
00000240: a709 b93d d426 55be 98e9 9c3d 3328 e33d
00000250: 0b30 353e 30a2 07bd e065 38be 0b20 76bc
00000260: 5f00 563e ae87 eebc 232a 26be 8a71 94bd
00000270: f5ba 79bd c4f7 3b3e ecd1 493e ccd1 3ebe
00000280: 60fc 93bc a899 2a3e b00c 13be a2f5 7dbd
00000290: eac1 c23d f8c8 383e 986b e43d 738e 76be
000002a0: b8e0 8c3d 7b7d 303e 512e d1bd d8c3 a2bc
000002b0: c146 f03d 981d 833c 9701 02be 5994 9e3d
000002c0: 23f3 9cbd c0be 48be 7c6c b33d 257b c53d
000002d0: 570a 2cbe 705b 293d d8d4 ef3c ed6e f53d
000002e0: 60e3 ff3c c758 59be add1 3cbe 20e1 e3bc
000002f0: 9590 77be e5f1 0dbe 2aed 3cbe b2aa 6dbe
00000300: 285a cabd f8dc 663c 7b64 f6bd a04f f1bc
00000310: e4f0 ffbc 7a9b 56be a861 ec3d 3473 7fbe
00000320: 3087 48be 38a7 05be 5cf8 2b3e c00b e23d
00000330: 234e 6abb ec65 7ebe 2076 e9bd 64c3 383e
00000340: 60e0 b73d e08d 6d3d 00c0 75bc f25f 8ebc
00000350: 0627 073e d060 c2bd 447c 4abe 6076 563e
00000360: d00f 4b3d 60c7 ad3d d0cb 723d c3c9 02be
00000370: 98d0 47be 688a ebbd 6abf 523e fccd 1abe
00000380: 140d 11be 4c83 6cbe 6825 193e 2049 44be
00000390: f41f 8fbe 80aa f6bd 78f0 a9bd 4df7 51be
000003a0: 90c2 50bd a08f cf3d f339 bdbd 782a 143e
000003b0: 45fd a5bd 705b 773e fc6b 40be 50cd 143d
000003c0: 6caa 2abd 1bdb e5bd db65 cc3d 8000 053e
000003d0: 5477 65be 5089 dc3d 12a3 8fbe 98fc a3bd
000003e0: 5823 e9bd b085 06be 0cf4 7cbd 8cad 49be
000003f0: a033 ec3c aa44 c4bd b6bc 413e f05a 2f3d
-0.06094128 0.23607808 -0.2129361 -0.0936954 -0.2288664 0.05540985 -0.15542066 -0.11637366
-0.10903418 0.10066438 -0.116620004 0.13671982 -0.017456114 0.013099074 0.08623707 0.011008263
-0.014748514 -0.22179925 0.0054594874 -0.086529076 -0.07040697 0.07087046 0.046917975 -0.06419766
-0.2052697 -0.15873063 0.007352531 -0.14592344 0.044153035 0.037583828 -0.19354832 0.15199822
0.24201113 -0.23419392 -0.15585864 0.052599728 -0.10135889 -0.06947696 0.22908962 -0.009830475
-0.074938595 -0.098502636 -0.18291742 -0.10826886 0.1223768 -0.23785865 -0.16239387 -0.1524257
-0.20024359 -0.06352854 0.08031601 0.033317387 0.22367835 0.022281826 -0.19302672 0.058458626
0.18861121 0.11921251 -0.06178224 -0.041658044 0.05309981 0.0073372126 -0.14441973 -0.065399826
-0.4866962 -0.16683109 -0.27413258 -0.3146954 0.28681788 -0.06371155 -0.11216444 -0.028108846
0.19146009 0.23057786 -0.2000397 -0.019868402 -0.25338438 -0.043964565 -0.020141145 0.1391666
0.058830917 0.08209145 -0.18835264 -0.1381963 -0.35242516 0.00314805 -0.048649855 0.04334731
0.18098325 0.13104697 0.01687538 -0.21726798 -0.12685938 -0.1840347 0.08452943 0.008727351
-0.25191242 0.06892033 -0.104746476 -0.060884926 -0.017162682 0.16908357 0.04582206 -0.42658478
0.04113394 0.23973918 -0.738656 0.07926436 0.16026235 -0.05594208 -0.064019576 -0.080641106
0.08333967 0.5036565 -0.2100636 -0.06015977 0.09719882 -0.03209901 0.087016664 0.04910684
0.0063417554 -0.21117495 0.10053699 0.18378292 0.060363285 -0.11812842 0.0749523 -0.3840288
0.19390173 -0.07182648 -0.15836374 0.15567712 0.20600303 0.15591113 0.13176316 0.20270334
-0.028133977 0.11988568 -0.14915894 -0.23651144 -0.12568815 -0.04140395 0.21916611 0.09939271
0.09035044 -0.20815593 0.07661742 0.11091652 0.17694108 -0.03311366 -0.18007612 -0.015022288
0.20898579 -0.029117431 -0.16227011 -0.07248218 -0.06096931 0.18356234 0.19708985 -0.18634719
-0.018064678 0.16660178 -0.14360309 -0.06200183 0.095096424 0.18045413 0.111533344 -0.24077778
0.06878799 0.17235367 -0.10213912 -0.019868776 0.11732245 0.016005322 -0.12695919 0.07743139
-0.07663562 -0.19604015 0.08760926 0.096426286 -0.1680082 0.041346967 0.029276296 0.11984048
0.03123635 -0.21225272 -0.1843936 -0.027817309 -0.24176247 -0.13861807 -0.18449846 -0.23209646
-0.09880477 0.014090769 -0.12030884 -0.029456913 -0.031242795 -0.20957747 0.11542064 -0.2494629
-0.1958282 -0.1305207 0.1679396 0.110373974 -0.003575214 -0.24843568 -0.11399484 0.18043286
0.08978343 0.05799663 -0.01499939 -0.017379735 0.1319848 -0.09491122 -0.19773966 0.20943594
0.049575627 0.084852934 0.059276402 -0.12772278 -0.19513166 -0.11501008 0.20580831 -0.1511764
-0.14165145 -0.23096961 0.14955676 -0.1916852 -0.27954066 -0.12044239 -0.08297819 -0.20504494
-0.0509668 0.10134816 -0.092395686 0.14469326 -0.08104948 0.24155974 -0.18791193 0.036328614
-0.041666433 -0.11223432 0.09980365 0.12988472 -0.22408801 0.10768378 -0.280541 -0.08007163
-0.113836944 -0.13136935 -0.06175618 -0.19695109 0.02883321 -0.09583409 0.18919644 0.042811334

functional_15_1/e1_1/BiasAdd/ReadVariableOp f4 [64]
00000000: e554 b93b 478e 0dbd 7522 1ebd 1652 053d
00000010: 0ce1 bbbd 9f99 973c 0000 0000 bfaa 2ebc
00000020: 80e0 40be 2ed2 89bd 4970 4ebd b13d 72bc
00000030: 492e 0b3e 4caa 673b 986b 55bd 0000 0000
00000040: da80 73bd 0000 0000 0000 0000 4bbe 6ebd
00000050: 069c 813c 7675 813c 1268 123c 66a4 06bd
00000060: 0738 4bbd 4deb 14bd 4f42 913c 8e16 b93c
00000070: 5a4b 24bd acec 8fbc 8b49 24bd f366 8fbc
00000080: 461b 08be a5a3 5ebd f12b 32bc 527c 3ebd
00000090: 49dc e5bc de65 8ebd 9520 66bc 2d4b 6d3d
000000a0: 0000 0000 0e6d e4bd 1005 b23d 288b 09be
000000b0: 5581 94bd c73a 1abe 3187 313d 4b22 e0bd
000000c0: 8754 00bd 7c7f 653e b913 06bd 07b8 00bd
000000d0: 51fa 51bc 0000 0000 fb7e 4cbd 071c 5fbd
000000e0: 0000 0000 f090 a6bd 684b 5bbd 3dc9 e5bc
000000f0: dc36 9bbd 5739 c63b 9818 1abd 9884 70bd
0.005655872 -0.034559514 -0.03860708 0.032548986 -0.09173784 0.01850587 0.0 -0.010660826
-0.1883564 -0.06729542 -0.050400052 -0.014785216 0.13591875 0.0035349308 -0.052104563 0.0
-0.059449054 0.0 0.0 -0.058286946 0.015821468 0.01580308 0.008935945 -0.032871626
-0.04961398 -0.036357213 0.017731814 0.022593763 -0.040110923 -0.017568909 -0.0401092 -0.017505145
-0.13291654 -0.054355282 -0.010874734 -0.04650528 -0.028059142 -0.069530234 -0.014045854 0.05793302
0.0 -0.11153613 0.08692372 -0.1343199 -0.072512306 -0.15061484 0.04334182 -0.10944041
-0.03133061 0.22411913 -0.032733653 -0.031425502 -0.012816028 0.0 -0.049925786 -0.05447009
0.0 -0.081331134 -0.05353871 -0.02805006 -0.07578823 0.006049316 -0.03762111 -0.0587202

functional_15_1/e3_1/BiasAdd/ReadVariableOp f4 [32]
00000000: 0000 0000 4980 3fbd 1440 babc 5d1b 02bd
00000010: 5ca2 90bc 0000 0000 d766 08bd a323 41bd
00000020: aba8 01bd 0000 0000 9ffe 26bd 0000 0000
00000030: 3740 44bd c775 6ebd 0000 0000 f597 e1bd
00000040: 0000 0000 0e1e 8abd ef2a fcbc b558 24bd
00000050: bf0c 8dbc 0000 0000 f26b 7cbd 6521 bdbc
00000060: 79a8 0dbd 6669 6bbc edf9 a4bd 4017 02bd
00000070: 08bf d4bc 8168 03be 456f 07bd f2aa f8bc
0.0 -0.0467532 -0.022735633 -0.031764377 -0.017655544 0.0 -0.0333012 -0.047153126
-0.031654995 0.0 -0.04077017 0.0 -0.047912803 -0.05821779 0.0 -0.11015312
0.0 -0.06744014 -0.030782191 -0.04012366 -0.017217992 0.0 -0.061626382 -0.023087213
-0.034584496 -0.014368391 -0.08055482 -0.031760454 -0.025969997 -0.12832834 -0.0330651 -0.03035495

functional_15_1/e1_1/MatMul f4 [64, 19]
00000000: eb81 9e40 ed5e 29be 13b6 dcbe 58a6 c1bd
00000010: aa99 ebbe 39bc a7be 3d9c 873b 6d18 0e3e
00000020: 9026 653e ad93 3a3e 8d06 86be 7731 413e
00000030: f7a5 e6bd dafb debe 1b0d 0d3d f1f4 fc3e
00000040: a0a0 39be dd1f 3ebe 8536 f8bd 35c3 afc0
00000050: 1065 853e 7ae0 b9bd 6194 213f 282f 50be
00000060: ae21 88bd 84c9 ab3d 188c c33d 907f 23be
00000070: 1190 09be f87d 53be c5bd 3f3e 1fa3 b53d
00000080: 6255 083f e3fe c13e 6133 5ebf d941 9d3e
00000090: cdde 513e d29b 1dbe 3d59 f33e 6201 1f3f
000000a0: fbaf 0cbd f1d4 113e 6461 223e 0a76 8bbe
000000b0: 8dee a1bd b0f5 1ebd f0f7 14bd e114 0d3e
000000c0: c378 2abd 95f4 203e 1a67 293d 76b2 a2be
000000d0: 0e1f 4fbe fff1 223d 28e8 0a3d f202 733e
000000e0: cbd7 c13d 35be ba40 88c8 593f 47a3 943e
000000f0: 82d9 d13e 5124 743e 9c31 e13d 7fdb 953e
00000100: dbbe 193e 24b4 ac3e 878c 023e 63c0 443e
00000110: 9065 ca3d 935c ca3e f1ef fabe dc1f 5ebe
00000120: 7a9c 793f d8b9 13be 6faf 4abc 2ee6 01be
00000130: 893a 2ebe 098f 90be c3b2 7dbd 3a42 4b3b
00000140: cef7 80be f0ab 1dbe fd77 82be 921e 3abe
00000150: fde0 93bd 174b 21be 76eb e7be 896e 6fbd
00000160: 4eec 533e ef40 973d d34d 07be 4f5d 473e
00000170: 64b4 e2be b8ac b43c 9426 b43d 3756 ce3f
00000180: bd07 873f 1365 4ebe 86e4 853f 4e13 7ebd
00000190: 72f7 173d 414e 46be 69a4 aa3d be6a 823e
000001a0: dd9e c3bd d24b d5be cf0c dd3d 66f3 04bd
000001b0: 3376 a1be 906a 32be b6a1 95be 4523 993d
000001c0: 1462 703e 3480 c7bc a29e 20be bcac abbd
000001d0: 7ee9 8fbd 3494 733e 9033 403e a065 bdbc
000001e0: 3ec8 25be fff3 17be f08e dfbd 40cf c8bc
000001f0: 0068 1f3a 7a54 38be ca9c ccbd 7246 ebbd
00000200: 145e 46be d63c 3a3e 22c4 18be 9291 57be
00000210: 980f 5abe 9958 e740 be92 393f 15b4 ae3e
00000220: 7884 163f 48a7 a53d 7437 8a3d dd2a 51be
00000230: 6973 90bd 64bc 083d 7ca7 17be 811d 90be
00000240: e6ce 7f3e 0849 5fbe 3625 eebe 5d6b d5be
00000250: c562 943f 5f39 423e c928 103d c4e5 413e
00000260: 6ceb 27bf 51a4 93be 329e 723d a52a 723e
00000270: 7d30 e5be 2a57 78be 162c bebc ff0d debd
00000280: a84c 093d cc76 eabd 98d7 073e 9e4d 12be
00000290: 371f abbe 6101 65bd 0950 c2be a523 c1be
000002a0: e5bc ccbb e8cc 6cbe b679 8bbe 1f97 3cbe
000002b0: ce66 c4be 7cf9 9b3d 20bc 48be 5e95 9abe
000002c0: 0025 cabd d659 a7bd b611 90be e8ac a0be
000002d0: 4b8d 04be ee6a 353e b4ea 6cbe ed06 d43d
000002e0: 5152 7d3e fd0b 1a3e 7828 083e 9816 213b
000002f0: 661b b73d 08e1 d6bd 5993 873d 14de 093e
00000300: 3cef a8bd bc4f 6c3e d1a0 3d3d 63a3 98be
00000310: a281 173d d0c6 9fbe 16ff 22be cd98 073e
00000320: 218b a3be 8de9 223e e1f9 a8be 2145 bc3d
00000330: e9dd 62be 94ad 4d3e 6b17 e3bd f568 2d3e
00000340: 3e5c 53bd 960d f73d 970a 2dbe d182 763d
00000350: e940 623e 91ce 773d 1f4e 203e 93e1 293e
00000360: 252f 953d 44a8 41be 2bee 11be 5d17 0bbc
00000370: 74b2 2b3d ad05 5dbe a0af 64be 217b 57be
00000380: 6e13 35be 0c9c ffbb 78d6 523e 8b87 443d
00000390: 9c91 c440 f637 3c3f 39fd 33be 977d 1b3f
000003a0: afbe 65be 794b ed3c 3ec4 4b3e 7d16 a63e
000003b0: 8672 c73d 921b eabb 082f 0dbf cd02 9ebd
000003c0: e30d e23e c3f5 4cbf 836d 21bf 45d7 6d3f
000003d0: 8676 c5bc 0f03 593e 3e3e c4be a8ff c840
000003e0: 5873 21be 81b0 833e 558b 903e 273f fc3d
000003f0: 5792 a4bd 1c84 28be a576 a1be 6e01 f1bd
4.953359 -0.16540118 -0.43107662 -0.09455556 -0.46015674 -0.3276079 0.004138498 0.13876505
0.22377992 0.18220396 -0.26176873 0.18866526 -0.11262124 -0.43551522 0.034436326 0.49405625
-0.1812768 -0.18566842 -0.12119774 -5.492579 0.26053667 -0.09076019 0.63117033 -0.20330489
-0.06647049 0.083880454 0.09548205 -0.1596663 -0.13433863 -0.20653522 0.18724735 0.088690035
0.53255284 0.37889776 -0.8679715 0.307143 0.20495148 -0.15391472 0.4752902 0.62111485
-0.034347516 0.14241387 0.15857464 -0.27238494 -0.07906828 -0.038808525 -0.036369264 0.13777496
-0.041619074 0.157183 0.04135809 -0.3177678 -0.2022669 0.039781567 0.033912808 0.23731592
0.09464987 5.8357186 0.8507161 0.2903082 0.40986258 0.23841979 0.1099579 0.29269025
0.15014212 0.33731186 0.1274892 0.19214015 0.09882653 0.39523754 -0.49011186 -0.21691841
0.9750439 -0.14426363 -0.012370928 -0.12685463 -0.17014517 -0.28234127 -0.06193806 0.0031014816
-0.2518906 -0.1539762 -0.2548217 -0.18175724 -0.072206475 -0.15751301 -0.4529683 -0.058455024
0.20695612 0.07385432 -0.13213281 0.19469188 -0.44278252 0.022055015 0.08796421 1.6120061
1.0549237 -0.20155744 1.0460365 -0.06203013 0.037101217 -0.19365789 0.0833214 0.25472063
-0.09551785 -0.4165941 0.10793459 -0.032458685 -0.3153549 -0.17423463 -0.29224938 0.0747743
0.23474914 -0.024353124 -0.15685514 -0.08382556 -0.07026957 0.23787004 0.1876967 -0.023119748
-0.16189668 -0.14839171 -0.10915935 -0.024512887 0.0006080866 -0.18000975 -0.09990843 -0.11488046
-0.19371825 0.1818727 -0.14918569 -0.21051624 -0.21295011 7.229565 0.72489536 0.34121767
0.5879588 0.08088547 0.06748858 -0.20426507 -0.07053263 0.03338279 -0.14809984 -0.2814751
0.24981269 -0.21805203 -0.46512765 -0.41683474 1.1592642 0.18967198 0.035195146 0.18935305
-0.655936 -0.288363 0.059232898 0.2364908 -0.44763556 -0.24252 -0.023214381 -0.10842513
0.03352037 -0.1144844 0.13265836 -0.14287421 -0.33422253 -0.05590952 -0.37951687 -0.37722507
-0.006248104 -0.2312504 -0.27241296 -0.18417023 -0.38359684 0.07615945 -0.19603014 -0.30192083
-0.098703384 -0.08171432 -0.28138512 -0.31381917 -0.12944524 0.17716572 -0.23136407 0.103528835
0.24738432 0.15043636 0.13296688 0.0024580117 0.08940773 -0.1049214 0.06619901 0.13463622
-0.08248755 0.23077291 0.046295945 -0.29812154 0.03698886 -0.3120637 -0.1591762 0.13241883
-0.31942084 0.15909405 -0.33003142 0.09192873 -0.22154965 0.20085746 -0.11088451 0.16934569
-0.05160164 0.12063138 -0.16898571 0.06018335 0.22095074 0.06049973 0.15654801 0.16589956
0.07284383 -0.18911844 -0.1425101 -0.008489457 0.041918233 -0.21584196 -0.2233262 -0.21043064
-0.17683193 -0.0078005847 0.20589626 0.047980826 6.1427746 0.7352289 -0.17577066 0.6073851
-0.22436021 0.028966652 0.19899079 0.32439032 0.097386405 -0.0071444 -0.5514989 -0.07715378
0.4415122 -0.800625 -0.63057727 0.929066 -0.024104368 0.21192573 -0.38328737 6.281208
-0.15766656 0.257206 0.28231302 0.12316733 -0.080357246 -0.16456646 -0.3153583 -0.11767851
