deployment/models/edge_modelS3.tflite (tflite, 15468 bytes, 5 tensors)

arith.constant f4 [1, 32]
0.028374417 0.10469265 -0.13669696 0.01575011 -0.025981866 0.07885474 0.05011091 0.024157686
0.17622542 -0.15698276 0.011902861 0.0061563086 0.00070363143 -0.22221184 0.29590425 -0.2040679
0.10362965 0.22999169 -0.3178454 -0.0004388535 -0.019119905 0.05234934 0.09245532 -0.034109812
-0.015067508 0.194902 0.18416123 -0.15066707 -0.31070822 0.1071088 0.11361495 0.23335373
00000000: 7771 e83c 1a69 d63d 4afa 0bbe 6006 813c
00000010: ecd7 d4bc 987e a13d 1941 4d3d 57e6 c53c
00000020: 7074 343e 17c0 20be 3804 433c dcba c93b
00000030: e873 383a 808b 63be c380 973e 2df7 50be
00000040: c83b d43d f182 6b3e a2bc a2be eb15 e6b9
00000050: 59a1 9cbc 436c 563d 3759 bd3d bbb6 0bbd
00000060: b6dd 76bc 6494 473e c394 3c3e 7848 1abe
00000070: 2615 9fbe dc5b db3d f4ae e83d 48f4 6e3e

arith.constant1 f4 [32, 64]
0.45337686 0.14866835 0.0827272 -0.2953585 -0.20767748 -0.27678612 0.080653004 0.037098646
-0.19491869 0.017622402 -0.05679667 0.27240822 0.10802821 0.067788355 -0.02071931 -0.23954551
0.3202224 -0.06254642 -0.08363673 -0.054138735 -0.05934037 -0.30832267 0.18399791 0.08926938
0.16005595 0.18944323 -0.1276917 0.24870087 -0.25328913 0.042126723 -0.5685667 -0.20243031
0.07699832 -0.22942345 -0.15081328 0.09657073 0.09166845 0.11188772 0.008238311 -0.23091461
-0.2668301 -0.16364717 -0.13729745 -0.11618469 -0.14276011 -0.09631594 0.0997894 0.020886235
0.059852898 -0.04007918 -0.01946567 -0.026380625 0.139839 0.193371 -0.11946015 0.24379301
-0.1444685 -0.03458437 -0.08252629 0.02745681 -0.23512548 -0.036473036 -0.058202922 0.15533435
-0.06037508 -0.18997937 -0.062299732 -0.1505796 0.20183533 0.09130442 0.19991696 -0.18079811
0.2410261 -0.057048023 0.108508706 -0.19493103 -0.18504328 0.09922522 0.19898522 -0.1590879
0.0027880054 -0.24514404 0.14839333 0.13468826 -0.18569362 0.08028269 -0.1315929 0.08904708
0.02095586 -0.15770125 -0.062857985 -0.18902355 0.14099777 -0.21537414 -0.15625736 0.08210766
0.20954916 -0.1457619 0.18512338 0.15918225 0.050136685 -0.1263346 -0.15556937 -0.18178421
-0.018670848 0.025024593 0.112880796 0.12609547 0.22912091 0.08461456 -0.24578959 0.0034031868
0.024680912 -0.16137268 -0.2335803 -0.23892093 -0.02614088 -0.00034850836 -0.10514885 0.17756248
0.06547922 0.017125249 -0.13689746 0.051960625 -0.15818292 -0.13609004 -0.23609108 -0.17686683
-0.10849722 -0.07216471 0.14212072 -0.25349897 -0.044447824 -0.04880209 0.08265907 -0.098683566
-0.02330488 -0.22766002 0.046313882 -0.30167496 -0.14827093 0.018845625 -0.14022852 0.21499412
0.173009 0.02815588 -0.122569814 -0.16988161 0.09219567 -0.037598457 -0.22083414 -0.18644133
-0.17776339 -0.05644697 -0.26490065 -0.12851049 0.24679065 0.07741073 -0.06852263 -0.16544831
0.1034328 0.24605612 -0.18579173 0.17085266 0.0016257279 -0.07605386 0.25903302 0.02162564
0.10728722 0.17630585 0.009062406 0.15364835 -0.122820824 0.029580776 0.040706895 -0.024500476
0.2457245 -0.11424718 -0.0010726345 0.21604204 0.11199728 0.08647382 -0.22454512 -0.07634133
-0.18670437 0.16660002 0.028226694 0.18759128 -0.023534477 -0.037342507 0.19933343 0.10393176
0.20292433 0.2760027 0.08928608 -0.032017954 0.15482447 0.24547744 0.016726945 -0.12699458
-0.103780806 0.16926578 0.10265505 0.17139237 -0.017813815 0.12718044 0.1133525 -0.023892004
0.010801026 0.004403615 -0.057818804 0.030477423 0.13013655 0.17531113 0.2924172 -0.015948566
-0.023139773 -0.22803092 0.031024074 -0.04669926 -0.035277348 0.18966842 -0.4113832 0.21831876
-0.23205727 0.15426956 -0.1503596 -0.053252816 -0.28904045 0.1485918 -0.21046518 0.02609699
-0.0045130514 0.25791234 -0.092931755 0.018761355 0.18204954 0.1441597 0.04042099 -0.13088648
0.21781462 -0.01812552 0.076359116 0.08265848 0.15429518 -0.032781184 -0.10681116 0.15097386
-0.037653513 0.0010139077 -0.18495679 0.1368962 0.14680576 -0.0603605 -0.07405692 -0.017747503
00000000: 0321 e83e 843c 183e e16c a93d 3b39 97be
00000010: 68a9 54be e9b6 8dbe 672d a53d c0f4 173d
00000020: c498 47be db5c 903c a0a3 68bd 1779 8b3e
00000030: e53d dd3d 9fd4 8a3d 8bbb a9bc 6b4b 75be
00000040: 31f4 a33e 5618 80bd bc49 abbd 94c0 5dbd
00000050: e30e 73bd 78dc 9dbe f369 3c3e ddd2 b63d
00000060: b5e5 233e 68fd 413e 9dc1 02be 71ab 7e3e
00000070: 1daf 81be 128d 2c3d 968d 11bf e449 4fbe
00000080: 4cb1 9d3d fbed 6abe cc6e 1abe e0c6 c53d
00000090: abbc bb3d 6425 e53d fbf9 063c e174 6cbe
000000a0: f49d 88be 2093 27be b497 0cbe 3df2 edbd
000000b0: b52f 12be 4b41 c5bd 635e cc3d 9c19 ab3c
000000c0: 5028 753d 112a 24bd 7876 9fbc 2e1c d8bc
000000d0: f431 0f3e 0c03 463e 86a7 f4bd e0a4 793e
000000e0: 8def 13be 57a8 0dbd 8b03 a9bd 1bed e03c
000000f0: bcc4 70be c064 15bd 3066 6ebd f80f 1f3e
00000100: dc4b 77bd f489 42be 012e 7fbd 8a31 1abe
00000110: ecad 4e3e d0fd ba3d 08b7 4c3e 2423 39be
00000120: 8ccf 763e 30ab 69bd d039 de3d 009c 47be
00000130: fc7b 3dbe 9836 cb3d c8c2 4b3e f0e7 22be
00000140: f8b6 363b 0a07 7bbe 6cf4 173e b8eb 093e
00000150: 7826 3ebe 406b a43d 4ac0 06be 515e b63d
00000160: a0ab ab3c 707c 21be b0bb 80bd 648f 41be
00000170: b861 103e 0a8b 5cbe ee01 20be 1028 a83d
00000180: 0e94 563e 9c42 15be fc90 3d3e ac00 233e
00000190: 205c 4d3d db5d 01be 944d 1fbe a425 3abe
000001a0: 9bf3 98bc 6000 cd3c 0c2e e73d 2c1f 013e
000001b0: ac9e 6a3e 664a ad3d 44b0 7bbe 0008 5f3b
000001c0: a02f ca3c e13e 25be ad2f 6fbe b0a7 74be
000001d0: 6625 d6bc 00b8 b6b9 4858 d7bd f0d2 353e
000001e0: f819 863d 404a 8c3c d92e 0cbe aad4 543d
000001f0: b4fa 21be 305b 0bbe dcc1 71be 941c 35be
00000200: ca33 debd 17cb 93bd 1888 113e 9eca 81be
00000210: ec0e 36bd b3e4 47bd 2949 a93d 9c1a cabd
00000220: e0e9 bebc b51f 69be a0b3 3d3d 2475 9abe
00000230: 56d4 17be 2462 9a3c 1198 0fbe 6b27 5c3e
00000240: 4529 313e 29a7 e63c e205 fbbd 72f5 2dbe
00000250: 15d1 bc3d d700 1abd 5822 62be 7aea 3ebe
00000260: 9b07 36be f034 67bd 0fa1 87be 4198 03be
00000270: b0b6 7c3e 8489 9e3d 9855 8cbd 486b 29be
00000280: 93d4 d33d 23f6 7b3e 3040 3ebe 00f4 2e3e
00000290: 6016 d53a 20c2 9bbd fa9f 843e 4128 b13c
000002a0: 67b9 db3d 8589 343e 7c7a 143c fe55 1d3e
000002b0: 7c89 fbbd 6253 f23c 46bc 263d 39b5 c8bc
000002c0: 349f 7b3e 6dfa e9bd a497 8cba 203a 5d3e
000002d0: d45e e53d 3019 b13d 28ef 65be d858 9cbd
000002e0: 6e2f 3fbe 3299 2a3e ab3b e73c ee17 403e
000002f0: 60cb c0bc 75f4 18bd 101e 4c3e 2dda d43d
00000300: 65cb 4f3e 3a50 8d3e 9fdb b63d 4225 03bd
00000310: 4e8a 1e3e 705e 7b3e f206 893c de0a 02be
00000320: 088b d4bd 0254 2d3e d03c d23d 7b81 2f3e
00000330: 47ee 91bc 973b 023e 5b25 e83d 2ab9 c3bc
00000340: c9f6 303c 334c 903b 69d3 6cbd caab f93c
00000350: 8442 053e c384 333e b5b7 953e 91a6 82bc
00000360: 9f8f bdbc f080 69be 3326 fe3c b947 3fbd
00000370: fb7e 10bd 7038 423e d2a0 d2be f48e 5f3e
00000380: 6ca0 6dbe d7f8 1d3e def7 19be a01f 5abd
00000390: 1cfd 93be 7328 183e 2f84 57be 5bc9 d53c
000003a0: 38e2 93bb 160d 843e 0153 bebd 6ab1 993c
000003b0: 326b 3a3e 9a9e 133e 7b90 253d 1b07 06be
000003c0: cc0a 5f3e f87b 94bc 2b62 9c3d d948 a93d
000003d0: 8eff 1d3e 9045 06bd cfbf dabd e498 1a3e
000003e0: 923a 1abd 19e5 843a 5065 3dbe 842e 0c3e
000003f0: 4054 163e 923c 77bd 28ab 97bd 3663 91bc

functional_10_1/e1_1/BiasAdd/ReadVariableOp f4 [64]
-0.117544115 -0.009052714 -0.107094504 -0.013209518 -0.064811714 -0.094726935 -0.2488546 -0.05546694
0.0 -0.17858544 0.0 -0.11559131 -0.05635757 -0.11743513 -0.0877849 -0.098836765
-0.06297256 -0.004006404 -0.027232407 -0.19074808 -0.018825237 -0.20593818 -0.027078815 -0.11921222
-0.16139707 0.0 -0.1788788 -0.23322089 -0.0558729 -0.22451454 -0.03625615 0.0
-0.024491759 -0.18804058 -0.07857695 0.0 -0.17747295 -0.074928425 -0.13044748 -0.12619689
-0.07727 -0.12914877 0.15433227 -0.031383533 -0.07620435 -0.10120298 0.007871682 -0.07538876
0.0 -0.03462915 -0.07447749 -0.060247466 0.004650257 0.0 -0.0469919 0.0
0.009454164 -0.2110692 -0.10357477 -0.18146598 0.0 -0.10017709 0.0 -0.14285298
00000000: f8ba f0bd d651 14bc 5d54 dbbd bc6c 58bc
00000010: 01bc 84bd 3200 c2bd bed3 7ebe 4d31 63bd
00000020: 0000 0000 1adf 36be 0000 0000 23bb ecbd
00000030: 32d7 66bd d481 f0bd 92c8 b3bd ee6a cabd
00000040: c2f7 80bd 2748 83bb 7f16 dfbc 7753 43be
00000050: 6237 9abc 75e1 52be 64d4 ddbc 8925 f4bd
00000060: 4645 25be 0000 0000 012c 37be 75d1 6ebe
00000070: fbda 64bd 24e7 65be 5481 14bd 0000 0000
00000080: f1a2 c8bc b68d 40be f4ec a0bd 0000 0000
00000090: 78bb 35be 1374 99bd 0694 05be c239 01be
000000a0: bc3f 9ebd 933f 04be 4709 1e3e 058c 00bd
000000b0: 0711 9cbd 8243 cfbd 3af8 003c 6c65 9abd
000000c0: 0000 0000 4cd7 0dbd a787 98bd 0cc6 76bd
000000d0: 2f61 983b 0000 0000 947a 40bd 0000 0000
000000e0: a3e5 1a3c 8622 58be 021f d4bd 38d2 39be
000000f0: 0000 0000 a529 cdbd 0000 0000 0d48 12be

functional_10_1/e3_1/BiasAdd/ReadVariableOp f4 [32]
0.017323159 -0.056869484 0.029526988 -0.04696674 0.021479571 0.0 -0.031577088 -0.16761711
0.0 0.029214649 -0.117338434 -0.041352894 -0.06745801 0.032268696 -0.048298106 -0.03940424
-0.050225426 -0.012662224 0.0 0.06602209 -0.079781085 0.0041009886 -0.078785375 0.019810418
-0.032790266 -0.008558969 -0.05114511 0.0 -0.021982094 -0.05691372 -0.059261825 -0.045171626
00000000: 4ce9 8d3c faef 68bd 95e2 f13c 3260 40bd
00000010: edf5 af3c 0000 0000 fa56 01bd d2a3 2bbe
00000020: 0000 0000 8f53 ef3c 224f f0bd a761 29bd
00000030: 6d27 8abd 2e2c 043d 3cd4 45bd 5766 21bd
00000040: 2db9 4dbd 3775 4fbc 0000 0000 9736 873d
00000050: 4464 a3bd 9661 863b 3a5a a1bd 7549 a23c
00000060: 164f 06bd eb3a 0cbc 897d 51bd 0000 0000
00000070: cb13 b4bc 5c1e 69bd 87bc 72bd e205 39bd

functional_10_1/e1_1/MatMul f4 [64, 19]
1.5856811 0.49242875 0.046077102 0.24880275 -0.23979408 -0.15140234 -0.088232085 -0.25475615
0.15497516 -0.25318158 -0.46226844 -0.298176 -0.046030253 -0.69771475 -0.37961483 0.021961171
-0.03758662 -0.03573514 -0.13251148 -0.004598862 0.14666554 -0.24633224 -0.14182869 0.13590401
0.24844003 0.06371145 0.060599163 -0.21102934 0.19261082 0.108293094 -0.2539904 0.2238539
0.060329437 0.27895653 -0.2922656 -0.01718395 0.09266827 -0.10065085 0.22940052 0.20148769
0.08278338 -0.074641824 -0.30210298 0.051774055 -0.25886065 -0.051275477 -0.16306768 -0.25676972
-0.45505643 -0.1552955 -0.17457715 -0.27514276 0.18448155 -0.313625 0.03425164 -0.053235844
-0.092568286 0.12815219 -0.4537882 -0.0220024 -0.56433034 0.033874515 -0.32403898 0.09708734
-0.082761295 0.17001866 0.039723523 0.06785333 -0.20496894 -0.29993972 -0.19053903 -0.11226988
0.6970579 -0.12893383 0.18739243 -0.19059673 -0.25200367 0.13242964 -0.014791673 0.0425761
-0.15978669 -0.0138316825 -0.1814764 -0.24150926 -0.2825286 0.071036585 -0.10569118 0.036761653
0.15829375 -0.09387048 0.17529275 -0.05400329 0.01888637 -0.07888114 0.20793797 0.09645561
0.20483072 -0.39296523 -0.0841651 0.038737524 -0.17754994 0.122480795 -0.059011325 -0.35116357
0.007954007 -0.01930165 0.03481187 0.09823992 -0.044318184 0.06147804 -0.18396492 0.0033980776
-0.36266717 0.124423526 -0.08815481 -0.0024919736 -0.37392673 -0.037247036 -0.3771408 0.029291347
-0.46511194 -0.21574798 -0.039272014 -0.29868853 -0.12893707 -0.4327533 -0.39660758 -0.31503814
-0.31910723 -0.0025392445 -0.11697944 0.12199962 -0.5769393 -0.13393117 0.11790626 -0.17426677
0.3313338 -0.2701649 -0.17970847 0.19511327 -0.02100561 -0.0007578131 0.2102061 -0.2353336
0.20475079 -0.09848316 -0.12279841 0.15403166 -0.03811796 -0.0075297337 -0.00027908492 0.022738272
0.032650173 -0.2262077 -0.17964149 0.21352953 0.07509112 0.15447173 -0.14523965 0.006475389
-0.15512732 0.051919818 -0.15779886 0.18671995 0.26346606 -0.2554128 0.041042745 0.26217288
-0.25407094 -0.023145393 -0.21860826 0.05190022 0.29130438 -0.035633676 0.3309565 -0.12427743
-0.3195144 -0.4695322 -0.13593313 0.052514628 -0.37063846 -0.44805157 -0.28007835 0.061834034
-0.3051586 -0.32056886 0.21572557 -0.23281924 -0.3621089 -0.39196166 -0.24248077 -0.1831097
0.25053096 -0.26439705 -0.24641013 -0.16005392 0.023946017 0.019654483 -0.0879682 0.2569998
0.0638555 -0.023521677 0.23564696 -0.05824651 -0.14193015 0.13152531 -0.23731774 -0.06986584
0.21113509 -0.23895286 -0.19791462 -0.07336692 -0.26347178 -0.2636332 -0.11112884 -0.37677747
-0.18024679 0.026506647 -0.049736585 -0.2931021 -0.1501668 -0.3670723 -0.3660807 0.008603806
0.253296 -0.15809742 0.019397901 -0.36694568 -0.18698756 -0.028118785 0.08232299 -0.3084517
0.005943503 0.034914065 -0.016900912 0.023127886 -0.1374543 -0.11971424 -0.3410057 -0.11679656
0.07704168 -0.029722642 0.17365645 -0.061982427 -0.27460262 0.10232968 0.2071754 -0.69624126
-0.5461537 -0.24449728 -0.28867114 -0.053834327 -0.00094745704 -0.23092444 -0.26079318 0.030340748
00000000: 99f7 ca3f 9f1f fc3e 58bb 3c3d 26c6 7e3e
00000010: 948c 75be 3709 1bbe 06b3 b4bd 666f 82be
00000020: cfb1 1e3e 04a1 81be 73ae ecbe 86aa 98be
00000030: 388a 3cbd 6f9d 32bf e05c c2be eae7 b33c
00000040: 6df4 19bd 035f 12bd 17b1 07be 0db2 96bb
00000050: 7e2f 163e 853e 7cbe 8a3b 11be 6c2a 0b3e
00000060: 1067 7e3e 267b 823d d436 783d 1318 58be
00000070: c53b 453e c5c8 dd3d 080b 82be f539 653e
00000080: 001c 773d 64d3 8e3e d6a3 95be 5bc5 8cbc
00000090: ddc8 bd3d 0822 cebd f8e7 6a3e ca52 4e3e
000000a0: 558a a93d d0dd 98bd 3ead 9abe 0811 543d
000000b0: 6289 84be 3c06 52bd 37fb 26be 5277 83be
000000c0: 28fd e8be c905 1fbe 5ac4 32be 83df 8cbe
000000d0: bbe8 3c3e 7593 a0be 734b 0c3d d40d 5abd
000000e0: 7194 bdbd 543a 033e ed56 e8be 613e b4bc
000000f0: f477 10bf 01c0 0a3d 70e8 a5be bad5 c63d
00000100: c17e a9bd 5f19 2e3e 22b5 223d b0f6 8a3d
00000110: 61e3 51be b391 99be aa1c 43be c0ed e5bd
00000120: 6372 323f 3b07 04be cde3 3f3e ca2b 43be
00000130: a006 81be a39b 073e c658 72bc 4764 2e3d
00000140: 1f9f 23be 489e 62bc f3d4 39be 344e 77be
00000150: 97a7 90be a17b 913d 9e74 d8bd 6393 163d
00000160: c217 223e 2b3f c0bd f17f 333e 8e32 5dbd
00000170: 97b7 9a3c 6f8c a1bd b1ed 543e 858a c53d
00000180: 25bf 513e bd32 c9be c05e acbd 3dab 1e3d
00000190: a7cf 35be 36d7 fa3d dcb5 71bd b6cb b3be
000001a0: 8651 023c 7e1e 9ebc e496 0e3d 0332 c93d
000001b0: fc86 35bd 66d0 7b3d 4d61 3cbe 48b2 5e3b
000001c0: 83af b9be c3d1 fe3d 828a b4bd 6150 23bb
000001d0: 5373 bfbe 5990 18bd 9918 c1be 68f4 ef3c
000001e0: 2723 eebe 0aed 5cbe b1db 20bd b4ed 98be
000001f0: 1408 04be d791 ddbe 2610 cbbe ae4c a1be
00000200: 0662 a3be 7469 26bb eb92 efbd f0da f93d
00000210: 4bb2 13bf 4125 09be d678 f13d fd72 32be
00000220: 95a4 a93e 0e53 8abe 7f05 38be c6cb 473e
00000230: f513 acbc faa7 46ba 4540 573e 4bfb 70be
00000240: 31aa 513e 8ab1 c9bd bc7d fbbd 7aba 1d3e
00000250: 9421 1cbd fcbb f6bb 2552 92b9 9d45 ba3c
00000260: 30bc 053d fea2 67be f0f3 37be 7ca7 5a3e
00000270: 60c9 993d d62d 1e3e b4b9 14be 802f d43b
00000280: b2d9 1ebe e0a9 543d 0696 21be 8433 3f3e
00000290: 06e5 863e 77c5 82be 701c 283d 863b 863e
000002a0: 9615 82be 689b bdbc d8da 5fbe 5395 543d
000002b0: d925 953e 9ef4 11bd 2173 a93e 2a85 febd
000002c0: 6497 a3be 8666 f0be 0e32 0bbe 9419 573d
000002d0: 53c4 bdbe 0467 e5be 6e66 8fbe af45 7d3d
000002e0: bf3d 9cbe 9a21 a4be 2ae7 5c3e 2b68 6ebe
000002f0: 5666 b9be 33af c8be e14c 78be 1c81 3bbe
00000300: 9845 803e 0d5f 87be f052 7cbe 2de5 23be
00000310: 702a c43c 7002 a13c ac28 b4bd 7a95 833e
00000320: acc6 823d 88b0 c0bc 704d 713e e493 6ebd
00000330: 2356 11be 92ae 063e 6c03 73be d215 8fbd
00000340: cc33 583e 0fb0 74be 21aa 4abe 6541 96bd
00000350: c6e5 86be eefa 86be 8497 e3bd fae8 c0be
00000360: 9d92 38be 7824 d93c 97b8 4bbd 7a11 96be
00000370: 53c5 19be e7f0 bbbe ee6e bbbe faf6 0c3c
00000380: 03b0 813e 4ae4 21be 59e8 9e3c 4ee0 bbbe
00000390: ab79 3fbe 5e59 e6bc f598 a83d 62ed 9dbe
000003a0: b8c1 c23b 0d02 0f3d c873 8abc b176 bd3c
000003b0: d2c0 0cbe bd2c f5bd 4d98 aebe 0933 efbd
000003c0: 07c8 9d3d e67c f3bc ffd2 313e 49e1 7dbd
000003d0: b798 8cbe 3992 d13d ca25 543e de3c 32bf
000003e0: bbd0 0bbf 7f5d 7abe b4cc 93be 6281 5cbd
000003f0: c45e 78ba 7577 6cbe af86 85be 298d f83c
