deployment/models/edge_modelS5.tflite (tflite, 124036 bytes, 9 tensors)

arith.constant f4 [1, 32]
0	0xbe82dd1f	-0.25559327
1	0x3e10e87e	0.14151189
2	0x3cc8cf1b	0.024512818
3	0xbc520f7b	-0.012821074
4	0xbe8c9b92	-0.2746244
5	0x3e962865	0.29327694
6	0x3e4e17fa	0.20126334
7	0x3c187702	0.009305717
8	0x3e90c2be	0.28273576
9	0xbe4e6bb9	-0.2015828
10	0xbe16a106	-0.14709863
11	0xbc9e0385	-0.019288788
12	0xbdadebd7	-0.084922485
13	0x3eb16add	0.34651843
14	0x3caa7821	0.020809235
15	0xbe99e913	-0.30060634
16	0x3c36ff64	0.011169288
17	0x3ec61f82	0.38695914
18	0xbe493f4a	-0.19653049
19	0xbe62fb28	-0.22166121
20	0xbe8a36d0	-0.26994944
21	0x3dddbcd4	0.10827032
22	0x3eacf4e5	0.3378059
23	0x3e2f8c2f	0.1714332
24	0x3e3f277a	0.18667403
25	0xbe90c4a6	-0.2827503
26	0x3d8d12dd	0.068883635
27	0x3e9cc40b	0.3061832
28	0x3ea727fc	0.32647693
29	0xbd701ac8	-0.05861929
30	0xbe8c2b5f	-0.2737684
31	0x3d8f4471	0.06995476

arith.constant1 f4 [32, 256]
0	0xbe030d4b	-0.1279804
1	0xbe0635d8	-0.13106477
2	0x3e465cba	0.1937131
3	0xbc84cce8	-0.016210988
4	0x3d44be17	0.048032846
5	0xbd729a3c	-0.05922912
6	0x3c56f66c	0.013120275
7	0xbe00b5ba	-0.12569323
8	0xbe209efa	-0.15685645
9	0xbd82e88d	-0.06392012
10	0xbe04ecc8	-0.1298095
11	0xbc6072a7	-0.01369921
12	0xbe6a12ac	-0.22858685
13	0xbcd018b8	-0.025402412
14	0x3d645c77	0.055752244
15	0x3d1a68c3	0.037697565
16	0x3d4ed7cb	0.050498765
17	0xbe0dcd72	-0.13847902
18	0xbdea27d0	-0.11433375
19	0xbcee8687	-0.029116882
20	0x3d05a3b1	0.03262681
21	0x3d0598a0	0.032616258
22	0xbcb1539d	-0.021646315
23	0x3c933b39	0.017972576
24	0x3d048e24	0.03236212
25	0x3d1ba598	0.03799972
26	0xbd960096	-0.073243305
27	0x3d84a46f	0.06476676
28	0x3e0db932	0.13840178
29	0x3d45e0b4	0.048309997
30	0x3d43a74d	0.047766972
31	0xbd09487a	-0.033516385
32	0x3dc3f262	0.09567715
33	0xbc507bfe	-0.012724875
34	0x3d80fc7b	0.06298157
35	0x3d2ab1d6	0.041673504
36	0xbe24eb84	-0.16105467
37	0xbd792a93	-0.060831618
38	0xbcb246cd	-0.021762276
39	0xbd48bf51	-0.04901058
40	0xbcc1b2e8	-0.02364488
41	0x3ded23f8	0.11579126
42	0x3cd6b7cb	0.026210686
43	0x3def32ab	0.11679586
44	0xbc28efc5	-0.010311072
45	0x3d441bfc	0.04787825
46	0xbdbebdab	-0.0931352
47	0xbd2cf079	-0.04222152
48	0x3bb135e8	0.0054080375
49	0xbcb277cf	-0.021785645
50	0xbc1014f6	-0.00879406
51	0xbd1c5638	-0.038168162
52	0x3db97fc4	0.090575725
53	0xbdd5d84f	-0.10441648
54	0xbdd52f60	-0.10409427
55	0xbcfc1890	-0.030773431
56	0x3df74b8c	0.12074956
57	0xbd11218a	-0.035432376
58	0xbdec87ee	-0.11549364
59	0xbce3d1e3	-0.027810043
60	0xbe09b6df	-0.13448666
61	0xbd036e69	-0.032087717
62	0x3df88871	0.12135399
63	0xbd979e50	-0.074032426
64	0xbdcf92e4	-0.10135439
65	0x3d93e56b	0.072214924
66	0xbc44226f	-0.0119711
67	0xbd60d698	-0.054892153
68	0x3db7c74d	0.089735605
69	0xbd2f21c9	-0.04275683
70	0xbcd72ffc	-0.026267998
71	0x3d4ebdb1	0.050473873
72	0x3daf6b8f	0.08565437
73	0xbe0d44a1	-0.13795711
74	0x3b9751b7	0.0046178955
75	0x3d114bbf	0.035472628
76	0xbc02d2fa	-0.007984871
77	0x3d7ea662	0.062170394
78	0xbd76e80b	-0.060279887
79	0xbd6c940b	-0.057758372
80	0xbe33c284	-0.1755467
81	0xbdd0751f	-0.10178589
82	0xbc5ed9b9	-0.013601714
83	0xbd87e8bc	-0.066361874
84	0x3d770fac	0.06031768
85	0x3d65c461	0.056095485
86	0xbe0c4dda	-0.13701573
87	0x3c4f655a	0.012658441
88	0x3cc8f61f	0.024531422
89	0xbe21f438	-0.15815818
90	0xbd4f1736	-0.050559245
91	0xbd818342	-0.063238636
92	0xbdbaf438	-0.09128612
93	0xbd2dd56d	-0.042439867
94	0x3e5e18d6	0.21689162
95	0x3dbbc617	0.09168642
96	0x3b8133be	0.0039429357
97	0xbe5fdbb6	-0.21861157
98	0xbe099f2e	-0.13439628
99	0xbd9daeb6	-0.07699339
100	0x3de761dc	0.11297962
101	0xbc9938dc	-0.01870387
102	0x3dc84aea	0.09779914
103	0xbb3dd555	-0.0028966267
104	0xbd798fb5	-0.060928065
105	0xbe0b3792	-0.13595417
106	0xbbd0259d	-0.00635214
107	0x3b619853	0.0034423068
108	0xbd810d5f	-0.063013785
109	0xbd88a133	-0.06671371
110	0xbdf9dae5	-0.12199954
111	0xbcf03dfa	-0.029326428
112	0x3d93521f	0.07193398
113	0xbba96097	-0.005168985
114	0xbdf9e438	-0.122017324
115	0x3dd13369	0.10214884
116	0xbd70cc02	-0.058788307
117	0xbda8cf67	-0.08242684
118	0xbce37bfa	-0.027769078
119	0xbe0c0165	-0.13672407
120	0x3e0245ae	0.12721893
121	0xbe008cb4	-0.12553674
122	0xbaeb0fd0	-0.001793379
123	0xbddb4b1b	-0.107076846
124	0x3af5b3a2	0.0018745551
125	0xbe368536	-0.17824253
126	0xbddab9c8	-0.10679966
127	0x3d0227af	0.031776126
128	0x3d8a4561	0.06751514
129	0x3cd53740	0.026027322
130	0xbd964643	-0.0733762
131	0xbd7f105f	-0.062271472
132	0x3cb5a8df	0.02217525
133	0xbdc620d4	-0.0967423
134	0x3da7cb02	0.081930175
135	0x3d533789	0.051566634
136	0xbced259b	-0.028948596
137	0xbe0d732d	-0.13813467
138	0x3e08d365	0.1336189
139	0xbd89c2eb	-0.06726631
140	0x3d9a596b	0.075365864
141	0xbc6ccddc	-0.014453378
142	0x3dce4eca	0.100736216
143	0x3d339431	0.0438425
144	0x3dfc2b3f	0.12312936
145	0xbd2e5327	-0.04255977
146	0x3dca8df8	0.0989036
147	0xbdae6b9e	-0.0851662
148	0xbe317456	-0.17329535
149	0x3d7125ab	0.058873814
150	0x3c245795	0.010030647
151	0xbdc38141	-0.095461376
152	0xbde0d9e9	-0.10979063
153	0x3df5287a	0.11970611
154	0x3ca04f53	0.019569075
155	0xbddfa56b	-0.10920223
156	0x3dba0f1b	0.090849124
157	0x3d72c0e1	0.059265975
158	0x3d4d7364	0.050158873
159	0x3d317f47	0.04333427
160	0x3d75ee2b	0.060041588
161	0xbcf15f9a	-0.029464532
162	0x3d985dd2	0.0743977
163	0x3d8eac4c	0.06966457
164	0xbd09a81c	-0.033607587
165	0xbd8fb8fe	-0.07017706
166	0xbccd5936	-0.025066953
167	0xbe2b8a47	-0.16751967
168	0x3cf024db	0.029314449
169	0x3a80c9fb	0.000982582
170	0x3d751312	0.05983264
171	0x3c898e11	0.016791375
172	0xbcc7135f	-0.024301229
173	0x3da60032	0.08105506
174	0xbd9b0d87	-0.075709395
175	0x3cdf1a87	0.027234329
176	0x3dc2f292	0.09518923
177	0xbdd4c358	-0.10388821
178	0x3b9f3bc2	0.0048594186
179	0x3d944f7d	0.07241724
180	0x3d04aed0	0.032393277
181	0xbe050f09	-0.12994017
182	0xbe0b7b55	-0.13621266
183	0x3ca9d4c2	0.020731334
184	0x3d53f5ec	0.0517482
185	0x3d7cecc0	0.06174922
186	0x3d8a0563	0.06739309
187	0xbe659084	-0.2241841
188	0xbdd443d4	-0.103645
189	0x3e2faf85	0.17156799
190	0x3e3f9b60	0.18711615
191	0x3d2ea189	0.04263452
192	0x3d3d7d88	0.046262294
193	0xbce9bd3e	-0.02853262
194	0x3d42973a	0.047507502
195	0x3d8c74a9	0.06858189
196	0xbd8f82ae	-0.07007347
197	0x3d0dfa51	0.03466255
198	0xbd210d17	-0.039319124
199	0x3d8ea697	0.06965368
200	0xbddd6700	-0.10810661
201	0xbd7598f5	-0.059960324
202	0x3e5425e7	0.20717584
203	0xbdd03386	-0.10166077
204	0x3c3b3495	0.011426111
205	0xbd9fb634	-0.07798424
206	0x3dfde759	0.12397642
207	0xbc3a2539	-0.011361414
208	0x3d809717	0.06278818
209	0x3cc0c98e	0.023533609
210	0xbdb6b156	-0.08920543
211	0xbe19ce60	-0.15020132
212	0x3d072456	0.032993637
213	0x3dd82d6e	0.1055554
214	0xbc027eab	-0.00796477
215	0xbdd197f6	-0.102340624
216	0xba3e3547	-0.0007255864
217	0xbd99a5fe	-0.075023636
218	0xbdf3f387	-0.119116835
219	0x3ac54f7d	0.0015053597
220	0xbd80f69e	-0.062970385
221	0x3d6cf47a	0.05785034
222	0x3ddfdd1b	0.109308444
223	0xbd35d97f	-0.044396874
224	0xbe1f3639	-0.15548028
225	0x3c16b82e	0.009199185
226	0xbdf2419e	-0.11828922
227	0xbd85a49c	-0.06525537
228	0xbdf39b33	-0.11894836
229	0xbe05b1de	-0.13056132
230	0xbe16617f	-0.1468563
231	0x3e0b6d30	0.1361587
232	0xbd6f2a5b	-0.058390003
233	0x3dc32ca6	0.095300004
234	0x3e1ffa16	0.15622744
235	0xbdf5fb08	-0.12010771
236	0x3e0348c7	0.12820731
237	0xbe090309	-0.13380064
238	0x3dc26497	0.09491842
239	0x3be36e71	0.006940656
240	0xbcb9027b	-0.02258419
241	0xbe6f7138	-0.23383033
242	0xbd8bdfe8	-0.06829816
243	0xbe328723	-0.17434363
244	0x3c8e05fa	0.017336834
245	0xbca3782b	-0.019954761
246	0x3d999dd7	0.07500809
247	0xbd9cdfc2	-0.07659866
248	0x3e083617	0.13301884
249	0xbc2271b6	-0.009914806
250	0x3d92e3c7	0.07172351
251	0x3d8f1c3f	0.069878094
252	0x3c23e4b4	0.010003258
253	0xbd9a7fd0	-0.075439095
254	0xbd19e848	-0.037575036
255	0xbcbee535	-0.023302654

arith.constant2 f4 [256, 64]
0	0x3e2375a1	0.1596284
1	0x3c23235e	0.009957163
2	0xbe004d3c	-0.12529463
3	0x3dc38f40	0.09548807
4	0xbd4e7ba6	-0.05041089
5	0xbc6188e2	-0.013765546
6	0x3d1c41f0	0.03814882
7	0xbddfdd9e	-0.10930942
8	0x3d668341	0.056277517
9	0xbd82de8c	-0.06390104
10	0xbdf2e1f4	-0.118595034
11	0x3c736441	0.014855445
12	0xbe050a5b	-0.12992232
13	0x3d1bb5d2	0.038015194
14	0x3d7d382d	0.06182115
15	0xbceb95c3	-0.028757935
16	0x3cf3ed60	0.029776275
17	0x3dd8bfff	0.10583495
18	0xbdfb1a18	-0.12260836
19	0xbe64d3cb	-0.22346418
20	0xbd097eba	-0.03356812
21	0xbb5f8446	-0.003410594
22	0xbb27ec9b	-0.0025623206
23	0xbe049f03	-0.12951283
24	0xbddc961d	-0.10770819
25	0x3da21c45	0.07915548
26	0x3e0bcfba	0.1365346
27	0xbd9dd55d	-0.077067114
28	0xbdd6d38e	-0.104895696
29	0x3cbd94ca	0.023142237
30	0x3d61eebb	0.05515931
31	0xbcea6774	-0.028613783
32	0xbe0276d2	-0.12740639
33	0xbdb6f78e	-0.08933936
34	0xbd89e4ed	-0.06733117
35	0xbd63f973	-0.055657815
36	0xbdf06e0c	-0.1173974
37	0x3e02cefa	0.12774268
38	0xbd966465	-0.073433675
39	0x3d098fbf	0.033584353
40	0x3d7f3873	0.062309694
41	0x3e15ee06	0.1464158
42	0xbba771d5	-0.0051100054
43	0xbdb75066	-0.08950882
44	0xbe107189	-0.1410581
45	0xbe10c9ec	-0.14139527
46	0xbe083813	-0.1330264
47	0xbe090f9a	-0.13384858
48	0x3dbdc6f5	0.09266464
49	0xbdc6d99c	-0.097094744
50	0xbe027a71	-0.1274202
51	0xbe0ab003	-0.13543706
52	0x3e1209da	0.1426157
53	0x3d6b59d8	0.05745873
54	0xbdc02568	-0.09382135
55	0x3d051bd8	0.032497257
56	0xbaba6100	-0.0014219582
57	0x3d3e4605	0.046453495
58	0x3cbfbad7	0.023404522
59	0xbe16ca4a	-0.14725605
60	0x3d052639	0.032507155
61	0x3df0dc77	0.117608
62	0x3da6e59f	0.081492655
63	0x3dc69cbe	0.09697865
64	0xbd28b15d	-0.04118477
65	0xbd124e30	-0.035719097
66	0x3dfdf6af	0.12400567
67	0x3c895f5a	0.0167691
68	0xbd884f8f	-0.066557996
69	0xbd777868	-0.060417563
70	0x3d8cfada	0.06883784
71	0x3c3eaf80	0.011638522
72	0x3dd5dfa2	0.10443045
73	0xbe04c7bc	-0.12966818
74	0xbe300f97	-0.17193447
75	0x3cce55b6	0.025187355
76	0xbd34377e	-0.043998234
77	0xbd93bb95	-0.07213513
78	0x3cff4e0c	0.031165145
79	0x3d700ec6	0.05860784
80	0xbd97535a	-0.07388945
81	0x3ddd6fc4	0.10812333
82	0x3c940b32	0.018071745
83	0x3c18f6ab	0.009336154
84	0xbd8671a5	-0.06564645
85	0x3e0cc1ed	0.13745852
86	0x3d4a8fb4	0.049453452
87	0xbd21635f	-0.03940141
88	0xbe09b413	-0.13447599
89	0x3dd4355c	0.1036174
90	0x3d9098b4	0.07060376
91	0xbd31ca4e	-0.043405823
92	0xbde42ab8	-0.111409605
93	0xbde4e7d0	-0.11177027
94	0x3ce4202d	0.027847374
95	0xbdb2a56a	-0.087229565
96	0xbd380b33	-0.044932555
97	0xbdcbc6db	-0.09950038
98	0xbd5e9bcc	-0.0543478
99	0x3e0d2bcf	0.13786243
100	0x3df16ffd	0.11788938
101	0x3bd48039	0.006485012
102	0x3e19b9a1	0.15012218
103	0x3dbde25d	0.09271691
104	0x3d1c28d3	0.03812487
105	0x3d84ef70	0.064909816
106	0xbe007aed	-0.12546892
107	0xbd4052c3	-0.046953928
108	0xbd8fb3c8	-0.070167124
109	0xbdbaec65	-0.0912712
110	0x3c8cf719	0.01720767
111	0xbd1056ad	-0.03523891
112	0x3dd313c9	0.10306508
113	0xbc8d3337	-0.017236335
114	0x3d1b6fd8	0.03794846
115	0x3d456b46	0.048198007
116	0x3d9bf813	0.07615676
117	0x3d5f1fe3	0.05447377
118	0xbd755334	-0.0598938
119	0x3b04ad40	0.0020244867
120	0x3da04dea	0.07827361
121	0xbdd41d65	-0.10357169
122	0xbd04cd18	-0.032422155
123	0x3df86860	0.12129283
124	0x3e0b3779	0.1359538
125	0x3dd39cfa	0.10332675
126	0x3d385b15	0.045008738
127	0x3e006455	0.12538274
128	0x3d1626d9	0.03665814
129	0x3d7ae324	0.061251774
130	0x3d23009a	0.039795496
131	0xbc8204b0	-0.015871376
132	0xbdf59736	-0.11991732
133	0x3c0954b0	0.0083820075
134	0xbd543dbc	-0.051816687
135	0xbca9c134	-0.02072201
136	0xbd84a7b5	-0.064773
137	0xbc77ace8	-0.015116908
138	0x3c268805	0.0101642655
139	0x3e0a0b48	0.13480866
140	0xbd562827	-0.052284386
141	0xbde5be9f	-0.11217999
142	0xbd834611	-0.064098485
143	0x3dbadab0	0.091237426
144	0xbd7ca814	-0.06168373
145	0xbd28c6b5	-0.041205127
146	0xbd729de4	-0.059232607
147	0xbe418b2b	-0.18900745
148	0x3e02bb5c	0.12766784
149	0x3b822c4c	0.0039725658
150	0x3d87404c	0.066040605
151	0xbd737b2c	-0.059443638
152	0x3d3803b4	0.044925407
153	0x3ce69b05	0.028150091
154	0xbd323540	-0.043507814
155	0xbdb153ea	-0.086585835
156	0x3e002348	0.12513459
157	0x3d9f6d5d	0.07784531
158	0xbc4a2044	-0.012336794
159	0xbdd8c2df	-0.10584044
160	0xbe16be73	-0.14721088
161	0xbde55095	-0.111970104
162	0xbe05e36b	-0.13075034
163	0xbdeacc2c	-0.11464724
164	0xbdaebead	-0.08532462
165	0xbdf15701	-0.11784173
166	0x3dab7651	0.083721764
167	0xbe0c1e70	-0.13683486
168	0x3e183155	0.14862569
169	0x3cf8b21f	0.030358372
170	0xbe03d9b6	-0.12876019
171	0x3da1d254	0.07901445
172	0xbdaae242	-0.083439365
173	0xbd886e21	-0.066616304
174	0xbd28d460	-0.04121816
175	0x3d1fb3f0	0.03898996
176	0xbe03cef9	-0.12871923
177	0xbdb95057	-0.09048527
178	0x3ce14dc8	0.02750291
179	0xbcad0518	-0.021120593
180	0x3dc6c0f9	0.09704775
181	0x3dc449f4	0.09584418
182	0x3dd8f5e4	0.10593775
183	0xbdbacb6a	-0.091208294
184	0x3d4dee77	0.050276246
185	0xbcd14408	-0.025545135
186	0xbe07b10f	-0.13251136
187	0xbddbca05	-0.107318915
188	0xbd99c232	-0.07507743
189	0x3d96ce06	0.073635146
190	0xbde4c840	-0.11171007
191	0xbd094f0e	-0.033522658
192	0x3d0aaa85	0.033854026
193	0x3deedebc	0.11663577
194	0xbdfcec22	-0.12349726
195	0xbbb56f20	-0.005536929
196	0xb9839c00	-0.00025102496
197	0x3dab9608	0.083782256
198	0xbd7e2580	-0.06204748
199	0x3e053522	0.1300855
200	0x3d0632b0	0.032763183
201	0x3decfe48	0.11571938
202	0xba260584	-0.00063332194
203	0x3db3c563	0.08777883
204	0xbadd9fb1	-0.0016908554
205	0xbd3be728	-0.045874745
206	0xbc456dc9	-0.012050101
207	0x3dca85fb	0.09888836
208	0x3d0402c3	0.032229196
209	0xbce82563	-0.02833814
210	0xbd96fbfa	-0.073722795
211	0xbdaf73d6	-0.08567016
212	0xbd29a1e0	-0.04141414
213	0xbdfeab86	-0.12435059
214	0x3cd0c6b9	0.025485383
215	0x3da7bbfe	0.081901535
216	0x3e07c06e	0.13257
217	0xbc2ff100	-0.010738611
218	0xbdc4640a	-0.095893934
219	0xbdfe5da0	-0.12420201
220	0x3c3acd20	0.011401445
221	0xbda58bd0	-0.08083308
222	0xbc882a4e	-0.016621735
223	0xbda85795	-0.0821983
224	0xbdadc207	-0.084842734
225	0xbd44c46a	-0.048038878
226	0x3dffa1e3	0.12482049
227	0xbdd0a577	-0.1018781
228	0x3d9d5cf2	0.076837435
229	0x3c029470	0.007969961
230	0xbd11f3b8	-0.03563282
231	0xbdb94cb4	-0.09047833
232	0xbd468baa	-0.048473038
233	0xbdc896a8	-0.097943604
234	0xbd926f4c	-0.071501344
235	0xbdb2d920	-0.087328196
236	0xbde36ce7	-0.11104756
237	0xbdab7297	-0.08371466
238	0xbd2ec8a1	-0.042671803
239	0x3d85fb87	0.06542116
240	0xbda903b8	-0.082526624
241	0x3dad4de8	0.08462125
242	0xbd747aec	-0.05968754
243	0x3d3330ba	0.04374764
244	0x3df30b4d	0.1186739
245	0xbe010970	-0.12601256
246	0x3d912558	0.07087201
247	0xbd5bc498	-0.053654283
248	0xbd327de4	-0.04357709
249	0xbe0df0ac	-0.1386134
250	0xbd869e9e	-0.065732226
251	0x3dc9acd0	0.098474145
252	0x3d14e7e1	0.03635395
253	0xbdddf00c	-0.10836801
254	0xbdc99a7a	-0.09843917
255	0xbdade56e	-0.08491026

arith.constant3 f4 [64, 64]
0	0x3dfdd90f	0.12394916
1	0xbe0d77c2	-0.13815215
2	0xbda4479e	-0.080214724
3	0xbdfeac11	-0.12435163
4	0xbe5c271e	-0.21499297
5	0x3ca77b68	0.020444587
6	0x3d4633ae	0.04838913
7	0xbdf964e7	-0.12177449
8	0xbd8ac83a	-0.067764714
9	0xbe58e615	-0.2118152
10	0x3dcbcb08	0.099508345
11	0x3e1b3bf8	0.15159595
12	0xbe07c08e	-0.13257048
13	0xbe0b3540	-0.13594532
14	0xbdf7ce71	-0.120999224
15	0x3e3ba5a5	0.18324907
16	0xbe3b34c3	-0.18281846
17	0xbe134568	-0.14381945
18	0xbdb036fb	-0.08604237
19	0xbd637954	-0.05553563
20	0x3d577504	0.05260183
21	0x3e02e778	0.12783611
22	0xbd897df3	-0.06713476
23	0x3db99959	0.09062452
24	0xbe5272d1	-0.20551611
25	0x3e423e33	0.1896904
26	0xbcd89970	-0.026440352
27	0x3e5652ff	0.20930098
28	0xbd8edfc7	-0.06976276
29	0xbd8d9adc	-0.06914303
30	0xbe57c841	-0.21072485
31	0xbd4a2c94	-0.04935892
32	0xbcda5555	-0.026652018
33	0xbd06151a	-0.032734968
34	0x3e422cc8	0.18962395
35	0x3e143680	0.14473915
36	0xbe083c82	-0.13304332
37	0xbe53d421	-0.2068639
38	0x3deed959	0.116625495
39	0x3e21c3e2	0.1579738
40	0xbd03c16c	-0.032166883
41	0xbc1a6969	-0.009424546
42	0xbe3fd70b	-0.18734376
43	0x3e56998d	0.20957012
44	0xbdda5390	-0.106604695
45	0x3d945522	0.072428
46	0xbd76ca11	-0.0602513
47	0xbdaaa6f2	-0.083326235
48	0x3bea2127	0.0071450653
49	0xbe5021b7	-0.20325361
50	0xbe2f5c8b	-0.17125146
51	0xbe737df5	-0.23778518
52	0xbe69dc74	-0.22838002
53	0xbd4f9fa3	-0.05068935
54	0xbded4ba6	-0.115866944
55	0xbd81295f	-0.06306719
56	0x3dff2e6a	0.12460025
57	0x3dd08f50	0.10183585
58	0xbda33e4c	-0.079708666
59	0xbbbb6522	-0.005718843
60	0xbe187617	-0.14888798
61	0xbe2ff60f	-0.17183708
62	0xbdaf4798	-0.08558577
63	0x3e16879e	0.14700171
64	0x3e3ebade	0.18625972
65	0x3dea70aa	0.1144727
66	0xbd9d4a9c	-0.07680246
67	0xbdef8007	-0.11694341
68	0x3ddf20ae	0.10894905
69	0xbc7a3a60	-0.015272707
70	0x3c962085	0.018326053
71	0x3e0ca370	0.13734221
72	0x3d865c75	0.065606035
73	0x3d49d8c4	0.04927899
74	0xbe42b575	-0.19014533
75	0x3d4ce958	0.05002722
76	0x3c74f9e0	0.014952153
77	0xbc810c10	-0.015752822
78	0xbde0bf21	-0.10973955
79	0xbdca7265	-0.098851
80	0xbdee5f27	-0.116392426
81	0x3df3f8c7	0.11912685
82	0xbd34dd2c	-0.04415624
83	0xbd17570c	-0.03694825
84	0xbd71c5dc	-0.059026584
85	0xbd42beac	-0.04754512
86	0xbdb68cd8	-0.089135826
87	0x3c9551cf	0.018227486
88	0xbbe7000d	-0.0070495666
89	0x3dbf9c33	0.093559645
90	0x3dd5c00e	0.10437022
91	0x3c980a18	0.0185595
92	0xbd5a78ea	-0.05333797
93	0xb990e025	-0.0002763282
94	0xbe02fb62	-0.12791207
95	0xbdc79df7	-0.09746926
96	0xbd4056d0	-0.04695779
97	0xbe07790d	-0.13229771
98	0x3d945cc1	0.07244254
99	0x3e4befe9	0.19915737
100	0x3ddae4fe	0.10688208
101	0x3d8186eb	0.06324562
102	0xbd617efc	-0.055052742
103	0xbe629f34	-0.22131044
104	0xbdc37854	-0.09544435
105	0xbc96492b	-0.018345436
106	0x3e5344cd	0.20631714
107	0x3c118790	0.008882418
108	0x3ddc2dce	0.10750924
109	0x3e3b6153	0.18298845
110	0xbd67ad80	-0.056561947
111	0xbc57c4a7	-0.013169444
112	0x3e123cd1	0.14281012
113	0x3db86410	0.090034604
114	0xbd9c67ac	-0.07636961
115	0xbdfbbe09	-0.12292106
116	0x3dda6ae2	0.106649175
117	0xbe0e1240	-0.1387415
118	0x3d72c224	0.05926718
119	0xbe5b83db	-0.21437018
120	0x3ddb4b7a	0.107077554
121	0xbc050aab	-0.008120219
122	0xbcfdadb8	-0.030966625
123	0xbd1aa9ad	-0.03775947
124	0x3e38e35f	0.18055485
125	0x3da68622	0.081310526
126	0x3e5bb647	0.21456252
127	0x3de9ad9a	0.11410065
128	0xbe030df7	-0.12798296
129	0x3db7c73c	0.08973548
130	0xbe8a2954	-0.26984656
131	0xbe060531	-0.13087918
132	0xbe41148c	-0.18855494
133	0x3a946180	0.0011320561
134	0xbe2a7862	-0.16647485
135	0x3dad0baf	0.08449494
136	0xbda2c870	-0.07948387
137	0x3e00bc1f	0.12571763
138	0xbe19e794	-0.15029746
139	0x3dbf0bbe	0.093284115
140	0xbdc9748b	-0.09836682
141	0xbe94e72d	-0.29082623
142	0xbe1caafb	-0.15299599
143	0xbde70131	-0.11279524
144	0x381c5000	3.7267804e-05
145	0x3d6f13b8	0.058368415
146	0x3d8a492d	0.067522384
147	0xbe16623d	-0.14685912
148	0xbd27275e	-0.040809028
149	0xbe721dd8	-0.23644197
150	0x3a339f1e	0.00068520184
151	0x3d8b5409	0.06803138
152	0x3d9f1b27	0.07768851
153	0xbd29053e	-0.041264765
154	0xbd2404b4	-0.040043548
155	0x3dbea21d	0.093082644
156	0xbe7ce568	-0.24696887
157	0x3d819ff8	0.0632934
158	0x3e5176e3	0.20455508
159	0x3c051990	0.00812377
160	0xbe6fa1ae	-0.2340152
161	0xbbc1ce41	-0.00591448
162	0xbdc97c65	-0.098381795
163	0x3d378975	0.044808824
164	0xbe846461	-0.25857833
165	0x3e1a2c9f	0.15056084
166	0xbdc4b17b	-0.09604164
167	0x3df9af06	0.12191586
168	0x3c23c3a0	0.009995371
169	0x3dd465f8	0.103710115
170	0xbe5cc57e	-0.21559712
171	0x3d559d19	0.052151773
172	0xbd93b9e3	-0.072131895
173	0x3e0dd86b	0.13852088
174	0xbd5bd04f	-0.053665455
175	0x3deb17fd	0.11479185
176	0x3d104bd7	0.035228577
177	0xbd74dd30	-0.059781253
178	0xbe9ca77c	-0.3059653
179	0xbcc776fa	-0.024348725
180	0x3e1f0a8e	0.1553137
181	0xbdaef828	-0.08543426
182	0x3dfcc6e6	0.12342624
183	0xbd0f1bcc	-0.03493862
184	0xbd9cb9af	-0.07652604
185	0xbd9014c8	-0.07035214
186	0x3e2c75c5	0.168418
187	0xbd975abf	-0.07390355
188	0xbda5bf61	-0.08093143
189	0xbd2389d3	-0.03992636
190	0xbdb5d2e4	-0.08878115
191	0xbdf6881f	-0.12037682
192	0x3e595dd7	0.21227203
193	0xbd000d6c	-0.0312628
194	0x3dd6c830	0.104874015
195	0x3d6d691a	0.05796156
196	0x3dcc2f46	0.09969954
197	0x3e3ad3d9	0.18244876
198	0xbdc3e11e	-0.09564422
199	0x3d985ce8	0.074395955
200	0xbe075702	-0.13216785
201	0x3ccf2138	0.025284395
202	0xbd963a77	-0.0733537
203	0xbe172876	-0.14761528
204	0xbcb84ee8	-0.022498563
205	0xbda7a410	-0.08185589
206	0xbdd1ce53	-0.10244431
207	0x3bdd6f60	0.0067576617
208	0xbe48a01f	-0.19592331
209	0x3e31439f	0.17310952
210	0x3d84be16	0.064815685
211	0xbd1eb9a4	-0.03875126
212	0x3d068cec	0.032849237
213	0xbe3ff8b0	-0.1874721
214	0xbe49981a	-0.19686928
215	0x3e1c44f5	0.1526068
216	0xbdc2fe1c	-0.09521124
217	0x3e380633	0.17971115
218	0x3e3c421f	0.18384598
219	0x3d3f5abb	0.046717387
220	0x3c4c02d1	0.012451843
221	0xbdadabe8	-0.08480054
222	0x3e0ee0a3	0.1395288
223	0x3bbc1005	0.0057392144
224	0xbd919219	-0.07107944
225	0x3e3e10e1	0.18561126
226	0xbe2734ee	-0.16328785
227	0xbd6f6868	-0.05844918
228	0xbd489fa4	-0.04898037
229	0xbe293b70	-0.1652658
230	0xbe6325fe	-0.22182462
231	0xbe8a7559	-0.27042654
232	0xbe097ae8	-0.13425791
233	0xbd8634c0	-0.0655303
234	0xbe18c07f	-0.14917181
235	0xbce96ae3	-0.02849335
236	0x3c78bc65	0.0151816355
237	0xbc80f0e0	-0.015739858
238	0x3d5bb95d	0.053643573
239	0xbd2f6c0d	-0.042827655
240	0x3d950b4d	0.07277546
241	0xbe0ffbb8	-0.14060867
242	0xbd09d5bc	-0.0336511
243	0xbe198a03	-0.14994054
244	0xbc824d78	-0.01590608
245	0xbdc3d2ed	-0.09561715
246	0x3e0bafd3	0.1364129
247	0xbe224ad8	-0.15848863
248	0xbe7023cd	-0.23451157
249	0xbda66cf1	-0.08126248
250	0x3c383cd0	0.011244968
251	0xbe69f5a8	-0.22847617
252	0xbdd1669e	-0.10224651
253	0xbd70b2f4	-0.058764413
254	0x3d8a9f82	0.06768705
255	0x3dbdf699	0.092755504

functional_16_1/e1_1/BiasAdd/ReadVariableOp f4 [64]
0	0xbeedd275	-0.46449628
1	0x3d81eeb1	0.06344355
2	0x3dce49ba	0.10072656
3	0x3e731dd7	0.23741852
4	0x3e0c89fb	0.1372451
5	0x00000000	0.0
6	0xbedc1526	-0.42984885
7	0xbeb5cefb	-0.35509476
8	0xbdbace30	-0.091213584
9	0x00000000	0.0
10	0xbd013119	-0.031540964
11	0x3cc9c8c3	0.024631863
12	0x00000000	0.0
13	0x3d9e31bb	0.07724329
14	0x3e6763d9	0.22596683
15	0x00000000	0.0
16	0x00000000	0.0
17	0x3d6351ed	0.055498052
18	0xbdfb9c4f	-0.12285673
19	0x00000000	0.0
20	0x3c560d8d	0.013064754
21	0xbe3f8981	-0.18704797
22	0xbe35a988	-0.17740452
23	0xbed4da1a	-0.41572648
24	0xbda9a887	-0.08284097
25	0xbd3af12d	-0.04564016
26	0x00000000	0.0
27	0xbdd77d11	-0.105219014
28	0xbde3766b	-0.11106571
29	0xbee91b24	-0.4552852
30	0x00000000	0.0
31	0x3e06ec98	0.13176191
32	0xbd305a04	-0.043054596
33	0xbe585e24	-0.21129662
34	0xbe8a887b	-0.2705725
35	0xbd1a61b5	-0.037690837
36	0xbf1fb7ad	-0.6238964
37	0xbd9009ee	-0.07033144
38	0x3e73e610	0.2381823
39	0xbce6f8e5	-0.028194854
40	0x00000000	0.0
41	0xbe1a60ea	-0.15076032
42	0x00000000	0.0
43	0xbe01aca8	-0.1266352
44	0x3df6de2f	0.12054097
45	0x00000000	0.0
46	0x3bb0f779	0.005400595
47	0x3d7b7fae	0.06140106
48	0xbdafb8fe	-0.08580206
49	0xbf2d08be	-0.67591465
50	0xbcf8d41d	-0.030374581
51	0xbeb625a7	-0.355756
52	0xbeb34021	-0.35009864
53	0xbd254f0c	-0.040358588
54	0x00000000	0.0
55	0x3a8439ee	0.0010088065
56	0xbe49f58a	-0.19722572
57	0xbddd079b	-0.10792466
58	0x00000000	0.0
59	0xbe3e776b	-0.18600242
60	0x3e435c97	0.19078289
61	0xbf15b38a	-0.5847708
62	0x00000000	0.0
63	0xbada03a5	-0.0016633166

functional_16_1/e3_1/BiasAdd/ReadVariableOp f4 [64]
0	0xbd2bd4b6	-0.041950904
1	0xbc8bf264	-0.017083354
2	0xbda8520d	-0.08218775
3	0xbd537e01	-0.05163384
4	0xbba804f4	-0.0051275436
5	0xbc7dc052	-0.015487747
6	0xbcc0dc77	-0.023542626
7	0x00000000	0.0
8	0xbd59b9a5	-0.05315556
9	0xbcbee87a	-0.023304213
10	0x3d1dde5e	0.038542144
11	0xbd6cf09a	-0.057846643
12	0x3d00568c	0.031332538
13	0xbd627e5d	-0.05529629
14	0xbd4b5913	-0.049645495
15	0xbd082bba	-0.033244826
16	0xbd131783	-0.035911094
17	0xbd6e3a4b	-0.05816106
18	0xbd71f3a3	-0.05907024
19	0x3d055fd2	0.032562084
20	0xbd01b4a2	-0.031666405
21	0xbd21530e	-0.039385848
22	0xbd02041b	-0.031742197
23	0xbc9720bd	-0.018448228
24	0x00000000	0.0
25	0xbcdf98bb	-0.027294507
26	0x00000000	0.0
27	0xbd95e63c	-0.07319304
28	0xbd3d67b9	-0.046241496
29	0xbd80d4e6	-0.06290607
30	0xbd2540a7	-0.04034486
31	0xbcbf3edb	-0.023345402
32	0xbdad9fde	-0.08477758
33	0xbdbb1784	-0.091353446
34	0xbc643d8c	-0.01393069
35	0xbca98d7f	-0.020697353
36	0xbd73e7ba	-0.059547164
37	0xbd376e7d	-0.044783104
38	0xbab56e7c	-0.0013842131
39	0xbd0b69ab	-0.03403632
40	0xbd01df6d	-0.031707216
41	0xbdeea893	-0.11653247
42	0xbd236f04	-0.039900795
43	0xbd722065	-0.059112925
44	0xbd9d38fa	-0.07676883
45	0xbd9b4874	-0.07582179
46	0xbd04178f	-0.03224903
47	0xbc3b138f	-0.011418237
48	0xbcb59373	-0.022165036
49	0xbd7652fc	-0.060137734
50	0x00000000	0.0
51	0xbda6bc98	-0.0814144
52	0xbd98d4d8	-0.07462472
53	0xbd3baad2	-0.045817204
54	0x00000000	0.0
55	0x00000000	0.0
56	0xbd0136cd	-0.031546403
57	0xbdba9bdf	-0.09111761
58	0xbc5c2fa8	-0.0134390965
59	0xbd1931d9	-0.037401054
60	0xbddabdf6	-0.106807634
61	0xbc8d7ca2	-0.017271344
62	0xbc75aa89	-0.014994272
63	0xbd9c44d1	-0.07630313

functional_16_1/e4_1/BiasAdd/ReadVariableOp f4 [256]
0	0x3ec49db7	0.38401577
1	0xbde5bcfc	-0.112176865
2	0xbe350683	-0.17678265
3	0xbe82c00b	-0.25537142
4	0xbe14b34e	-0.14521524
5	0xbe682a9e	-0.22672507
6	0xbd339b90	-0.043849528
7	0x3d9067b2	0.07051028
8	0xbe1ec5b6	-0.15505108
9	0xbe14075e	-0.14455935
10	0xbe8ade7f	-0.27122876
11	0xbd1e8745	-0.03870322
12	0x3eecb381	0.462307
13	0xbcda5b49	-0.026654856
14	0xbb0ba415	-0.0021307517
15	0xbd420375	-0.047366578
16	0x3e748139	0.2387742
17	0x3efa5a9c	0.48897254
18	0xbe48cc5a	-0.19609204
19	0xbe40c65e	-0.18825671
20	0xbe1c0706	-0.15237054
21	0xbcbfa338	-0.023393258
22	0xbe818307	-0.25295278
23	0xbe4192f0	-0.18903708
24	0xbdc1d273	-0.09463968
25	0x3e085a82	0.13315776
26	0xbe54c4fe	-0.20778272
27	0xbe1dc45e	-0.1540694
28	0x3eb674ca	0.35635978
29	0x3dc9d16e	0.09854399
30	0xbd268e0e	-0.040662818
31	0xbde9e7df	-0.11421179
32	0xbe298bd1	-0.16557242
33	0xbc91a4d9	-0.0177788
34	0xbe7157cb	-0.23568647
35	0xbdfd423f	-0.12366151
36	0x3e4cebc9	0.2001182
37	0xbd879b42	-0.0662141
38	0x3d8a831d	0.06763289
39	0xbe0f63c7	-0.14002906
40	0xbec3452f	-0.3813872
41	0x3e8c075f	0.27349374
42	0xbecf3cc5	-0.4047605
43	0xbd93dbec	-0.07219681
44	0xbeb005b7	-0.3437936
45	0xbea7a75e	-0.3274488
46	0xbe2270f8	-0.15863407
47	0xbcf765cb	-0.030199906
48	0x3df5f5c6	0.12009768
49	0xbe143d62	-0.1447654
50	0xbdcf58e7	-0.10124379
51	0xbeb99887	-0.36249182
52	0x3e3b1eac	0.18273419
53	0xbe5ed216	-0.21759829
54	0xbe43e797	-0.19131313
55	0xbdc4af67	-0.09603768
56	0xbab55ce1	-0.0013836884
57	0xbd9fd29e	-0.07803844
58	0x3dabd79f	0.08390736
59	0xbcaf676d	-0.021411622
60	0xbecd8e66	-0.40147704
61	0x3d809e83	0.06280234
62	0xbd05fdd6	-0.03271278
63	0xbebc2146	-0.36744136
64	0xbc1aa4e6	-0.009438729
65	0x3e4a98b5	0.19784816
66	0xbe08e363	-0.13367991
67	0xbd1b31fc	-0.037889466
68	0xbeb9e7c4	-0.36309636
69	0x3df05365	0.11734656
70	0xbda7e478	-0.08197874
71	0xbdab5b57	-0.08367031
72	0xbe6e0895	-0.23245461
73	0xbd08c920	-0.033394933
74	0xbea7e0d4	-0.32788718
75	0x3d14fa91	0.03637177
76	0xbe44527e	-0.19172093
77	0xbc431bf1	-0.011908517
78	0xbdef554f	-0.11686193
79	0xbd808d27	-0.06276923
80	0x3e0c9c38	0.13731468
81	0xbf1b5286	-0.60672796
82	0xbe2a58b7	-0.16635405
83	0xbe1a5c46	-0.15074262
84	0x3d2913b7	0.041278567
85	0xbc23675f	-0.009973376
86	0xbda027a3	-0.0782006
87	0xbc0e569a	-0.00868764
88	0x3dd86567	0.10566216
89	0xbc66d426	-0.014088666
90	0xbca726a7	-0.020404173
91	0x3debc2dd	0.115117766
92	0xbbb0fe54	-0.005401412
93	0xbecc53ab	-0.39907584
94	0x3e44702b	0.19183414
95	0xbe238c03	-0.15971379
96	0xbe28b9dd	-0.16477151
97	0xbda7113e	-0.081575856
98	0xbde91c37	-0.11382335
99	0xbb331906	-0.0027328148
100	0xbb8716f7	-0.0041226107
101	0x3e8c4ce7	0.27402422
102	0xbefac903	-0.48981485
103	0x3e2c0be0	0.16801405
104	0xbd47a7d0	-0.048744023
105	0xbdfc0838	-0.12306255
106	0xbd6e0ded	-0.05811875
107	0xbdf71c41	-0.12065936
108	0xbd204be5	-0.03913488
109	0xbcb8d00e	-0.022560146
110	0xbe5a31d6	-0.21308073
111	0xbd4d83a8	-0.050174385
112	0x3dba313a	0.090914205
113	0x3e0a833a	0.13526621
114	0xbd8b5ef5	-0.06805221
115	0xbd6468ca	-0.055763997
116	0xbd406cd5	-0.04697879
117	0xbc254dd5	-0.010089357
118	0xbb208ce1	-0.0024498033
119	0xbd7d601f	-0.061859246
120	0xbdd31b3d	-0.1030793
121	0xbe355895	-0.17709573
122	0xbaca2fd0	-0.0015425626
123	0xbd92910d	-0.071565725
124	0x3e1cb48a	0.15303245
125	0xbecbeaa1	-0.39827445
126	0xbe08c8d0	-0.13357854
127	0xbe64fdb0	-0.22362399
128	0xbe8a1c8b	-0.26974902
129	0xbee88c61	-0.454196
130	0xbd9b93b7	-0.07596534
131	0x3e60a909	0.21939482
132	0xbeeb27bc	-0.45928752
133	0xbe82e75c	-0.25567138
134	0xbd31db47	-0.04342201
135	0xbd92708b	-0.07150372
136	0xbe09ba42	-0.13449958
137	0xbe68db49	-0.227399
138	0xbe0baaa0	-0.13639307
139	0xbc9f6369	-0.019456582
140	0xbd710d16	-0.05885037
141	0xbdca6031	-0.09881628
142	0xbe2d6613	-0.1693347
143	0xbe8c4578	-0.2739675
144	0xbe8d0d0a	-0.2754901
145	0xbecbe0a4	-0.39819825
146	0xbd8d9b49	-0.06914384
147	0xbe24466a	-0.16042486
148	0xbdc29ebb	-0.09502932
149	0xbd351718	-0.044211477
150	0xbcd30aa2	-0.025761906
151	0xbdfd9e49	-0.12383706
152	0x3e8e4f19	0.27794722
153	0xbe03e9c9	-0.1288215
154	0xbd699918	-0.057030767
155	0xbca8cb55	-0.020604769
156	0x3e18f8de	0.14938685
157	0xbbfde9f8	-0.0077488385
158	0x3e2a7007	0.16644298
159	0xbe1f8f0a	-0.15581909
160	0xbd0b6d13	-0.03403957
161	0xbdc3da5c	-0.09563133
162	0xbea4b678	-0.32170463
163	0xbce8d869	-0.028423505
164	0xbc82c11c	-0.015961222
165	0xbdf7e0a0	-0.12103391
166	0xbe105fab	-0.14098994
167	0xbdb4dc37	-0.08831065
168	0xbe873e6d	-0.26414815
169	0xbd0bc5ad	-0.034124065
170	0xbd759bd4	-0.059963062
171	0xbe1a28b1	-0.15054585
172	0xbeff6ca9	-0.4988759
173	0xbe24f007	-0.16107188
174	0x3e3e4134	0.1857956
175	0xbb6c4a5f	-0.003605507
176	0xbe5baace	-0.21451876
177	0xbe381da2	-0.17980054
178	0xbe15c168	-0.1462456
179	0xbec70429	-0.3887036
180	0xbe6c4650	-0.23073697
181	0xbde683b3	-0.112555884
182	0xbe26c4c6	-0.16286
183	0xbe92e5c6	-0.28690928
184	0xbd29ae4f	-0.041426
185	0x3ea83b31	0.3285766
186	0xbd86ff3a	-0.06591649
187	0x3f4e1e5f	0.8051509
188	0xbeafdf9c	-0.34350288
189	0xbd133b51	-0.03594524
190	0xbe658048	-0.22412217
191	0xbb89e692	-0.0042083943
192	0xbed61164	-0.41810143
193	0xbdcc88d8	-0.099870384
194	0xbe1ef37e	-0.15522572
195	0xbe224cb4	-0.15849572
196	0xbe4e312a	-0.20135942
197	0xbd9aaca6	-0.07552461
198	0xbdbce49a	-0.0922329
199	0xbd39f96b	-0.04540388
200	0xbdf9b662	-0.1219299
201	0xbc5fde05	-0.013663773
202	0x3c2ba0fa	0.0104753915
203	0xbce2da1a	-0.02769189
204	0x3e359d5c	0.17735809
205	0xbe0944fc	-0.13405222
206	0xbd18e10a	-0.03732399
207	0xbc57507c	-0.013141748
208	0xbc145b58	-0.009054981
209	0xbce31c27	-0.027723385
210	0xbec61f4a	-0.38695747
211	0xbe0cc325	-0.13746317
212	0x3d4510d6	0.04811176
213	0xbdbb6b9f	-0.091513865
214	0x3cd1205b	0.025528124
215	0xbda02f1a	-0.07821484
216	0xbda5e0d8	-0.08099526
217	0xbdaf80c2	-0.085694805
218	0xbe0b2d3e	-0.13591477
219	0xbbc413c0	-0.0059837997
220	0xbecbab96	-0.39779347
221	0xbeb5cccb	-0.35507807
222	0x3e1f4aa3	0.15555815
223	0xbe5284f5	-0.20558532
224	0xbed18724	-0.40923417
225	0xbea12b08	-0.31478143
226	0x3ccc0368	0.024903968
227	0xbdf26a52	-0.11836685
228	0xbeaaa89b	-0.3333176
229	0xbd885c20	-0.066581964
230	0xbc897753	-0.016780531
231	0xbe8ffdc0	-0.28123283
232	0xbdde3aba	-0.10851045
233	0xbe2c9145	-0.16852291
234	0xbd0365c7	-0.032079484
235	0xbd0f71aa	-0.035020508
236	0x3f04a2e5	0.5181106
237	0xbd7ffdc7	-0.06249788
238	0xbe14e1f1	-0.14539315
239	0x3e2f6eeb	0.17132156
240	0x3da5be4a	0.080929354
241	0xbdfd1949	-0.123583384
242	0xbe15c43b	-0.14625637
243	0xbc436492	-0.011925833
244	0xbf113971	-0.56728274
245	0x3e9f5a8e	0.31123775
246	0xbe9ef637	-0.31047222
247	0xbdc85b13	-0.09782996
248	0x3df8d382	0.12149717
249	0xbe1850cc	-0.14874572
250	0xbdbaa7d3	-0.09114041
251	0x3d41624a	0.047212876
252	0xbeec423d	-0.46144286
253	0xbe4f1a5a	-0.20224896
254	0xbdaea17f	-0.08526897
255	0xbe0eb518	-0.1393627

functional_16_1/e5_1/BiasAdd/ReadVariableOp f4 [32]
0	0xbd9679f8	-0.073474824
1	0xbd04677b	-0.03232525
2	0xbe360b8a	-0.1777784
3	0xbd31426c	-0.043276235
4	0xbe208baf	-0.15678285
5	0x3daf435d	0.085577704
6	0x3cd4e5ab	0.02598842
7	0x3ba59fc1	0.0050544445
8	0xbd614ad2	-0.055002995
9	0xbdcf2b48	-0.10115677
10	0xbe8c049e	-0.27347273
11	0xbc204ae8	-0.009783484
12	0xbddfe631	-0.109325774
13	0xbd69c692	-0.057074137
14	0xbd836460	-0.064156294
15	0xbd27b66e	-0.040945463
16	0xbd3a0374	-0.04541345
17	0xbd6ca14f	-0.057771023
18	0xbe3ce2af	-0.18445848
19	0xbe0a4f34	-0.13506776
20	0x3e6f801e	0.23388717
21	0xbdb3a519	-0.08771724
22	0x3ea1b2e1	0.31581786
23	0xbe24ba56	-0.16086707
24	0x3d57a26f	0.052645143
25	0x3eb5b530	0.35489798
26	0xbd73deaf	-0.05953854
27	0xbdab8292	-0.08374514
28	0x3ec1bfd7	0.37841675
29	0xbd475668	-0.048666388
30	0xbe608ac5	-0.21927936
31	0xbd8487f6	-0.06471245

functional_16_1/e1_1/MatMul f4 [64, 19]
0	0xbeecedfb	-0.46275315
1	0xbf08ebf5	-0.5348504
2	0xbeb425a8	-0.3518498
3	0xbf0bc5e2	-0.5459882
4	0xbee209a4	-0.4414798
5	0xbe09fc60	-0.1347518
6	0xbf1b6cf6	-0.60713136
7	0xbe60940b	-0.21931474
8	0xbf1bd4d7	-0.6087164
9	0xbec70a1b	-0.38874897
10	0xbf0c4f1b	-0.54808205
11	0xbe57e161	-0.21082069
12	0xbe3d1c28	-0.18467772
13	0xbed89a42	-0.4230519
14	0xbe6fb9a6	-0.23410663
15	0x3fb65f16	1.4247768
16	0xbab51aca	-0.0013817188
17	0x3eceb2e7	0.40370867
18	0xbf1a77c3	-0.6033899
19	0x3f29dfcf	0.6635713
20	0x3c76cce1	0.015063495
21	0x3e586a1e	0.2113423
22	0x3de25df4	0.110530764
23	0x3dfe6845	0.124222316
24	0x3e4e359b	0.20137636
25	0x3c516060	0.012779325
26	0x3d071e03	0.032987606
27	0x3df764e5	0.12079791
28	0xbe460e89	-0.19341482
29	0xbe05f05d	-0.13079973
30	0x3dc4f2a9	0.09616596
31	0xbd96f067	-0.07370072
32	0xbd92c69d	-0.07166789
33	0x3e4503de	0.19239756
34	0x3ec3f342	0.38271528
35	0xbe925609	-0.28581265
36	0x3ecfa086	0.40552157
37	0xbe374cc2	-0.17900375
38	0xc0b4cd4a	-5.6500597
39	0xbf24377b	-0.64147156
40	0x3e6dfa91	0.23240115
41	0xbf1d9430	-0.6155424
42	0x3e0d6ef1	0.13811852
43	0xbce23b25	-0.027616093
44	0xbd1fe65a	-0.03903804
45	0x3e19d746	0.15023527
46	0x3e8f8ba6	0.2803623
47	0xbdc4bd3f	-0.09606408
48	0x3f5c2c79	0.8600536
49	0x3e8d497f	0.27595136
50	0x3e115077	0.14190851
51	0x3f6b4ca4	0.9191382
52	0x3ee36d9f	0.44419572
53	0xbef658f2	-0.48114735
54	0xbe0ae999	-0.13565673
55	0xbecc8d97	-0.39951774
56	0x3c00a4f9	0.007851833
57	0x404ecf87	3.2314165
58	0xbcee19b9	-0.029065
59	0xbdd88843	-0.10572865
60	0x3ed2f976	0.4120595
61	0x3ea25833	0.31707916
62	0x3dbb9400	0.09159088
63	0x3e8d96d0	0.27654123
64	0x3e8e02ce	0.27736515
65	0x3ec6ae55	0.3880488
66	0x3e02f65b	0.1278929
67	0x3cc6cd3b	0.024267783
68	0x3edc575c	0.430354
69	0x3ebeea63	0.37288198
70	0x3e2ebff7	0.17065416
71	0x3e4c9ab7	0.19980894
72	0x3f0745ea	0.52841055
73	0x3cb04174	0.021515585
74	0xbed1eef1	-0.4100261
75	0x3dfd0173	0.12353792
76	0x410a90fd	8.660398
77	0x3f82a866	1.0207641
78	0x3e5f2b93	0.21793966
79	0x3f6f7615	0.93539554
80	0xbdeea371	-0.11652268
81	0xbe1564d1	-0.1458924
82	0xbd6495fd	-0.055807102
83	0x3e3a435d	0.1818976
84	0x3ef72075	0.4826695
85	0x3e8aa75e	0.27080816
86	0xbf4753f4	-0.7786248
87	0x3e422a24	0.18961388
88	0x3f08c20c	0.5342109
89	0xbf0bc54a	-0.54597914
90	0xbe258b6b	-0.16166465
91	0x3f40afbc	0.7526815
92	0xbdbf6f3b	-0.093473874
93	0xbf00898a	-0.5020987
94	0x3dd9a879	0.10627837
95	0x3dfdb41c	0.12387869
96	0x3b206d00	0.0024479032
97	0xbe48b16e	-0.19598934
98	0x3e5fcb14	0.21854812
99	0xbe4ae409	-0.19813551
100	0xbe3326b6	-0.17495236
101	0x3e706544	0.2347613
102	0xbda2f674	-0.079571635
103	0xbe2894dc	-0.16463035
104	0x3d18d700	0.037314415
105	0x3d06fa30	0.03295344
106	0x3e4dd39e	0.20100257
107	0x3e6ea1d0	0.23303914
108	0xbe892d37	-0.2679231
109	0x3d216058	0.03939852
110	0xbe37823e	-0.17920777
111	0xbe743ba9	-0.23850884
112	0x3b1b1800	0.0023665428
113	0x3e65c698	0.22439039
114	0xc0d16fb4	-6.5448856
115	0x3e391de4	0.18077809
116	0xbe585da4	-0.21129471
117	0xbed222b4	-0.410421
118	0xbe3486ab	-0.17629497
119	0x3e431343	0.19050317
120	0xbe93d6c3	-0.28874788
121	0xbe91a983	-0.2844964
122	0xbf2e580f	-0.68103117
123	0xbf20606a	-0.62647116
124	0xbf4a1b03	-0.78947467
125	0xbf082e68	-0.5319581
126	0x3de4a445	0.111641444
127	0x401403a2	2.3127217
128	0x3f31e8f5	0.6949609
129	0x3f6cf31b	0.9255845
130	0x3d9d8824	0.076919824
131	0x3ee96c3d	0.45590392
132	0xbef57b9f	-0.47945878
133	0x409c4f08	4.8846474
134	0x3fb1d81d	1.3894078
135	0x3cced400	0.025247574
136	0x3f8b3512	1.0875571
137	0xbe56d516	-0.20979723
138	0xbec69dc7	-0.3879225
139	0xbdc5aa23	-0.09651592
140	0xbefeb923	-0.49750623
141	0xbedfa811	-0.43682912
142	0xbee13c36	-0.4399125
143	0xbfb6449e	-1.423969
144	0xbf1752ab	-0.59110516
145	0xbe0756e7	-0.13216744
146	0xc0004bf0	-2.0046349
147	0xbfdd51e5	-1.7290617
148	0xbd4c4827	-0.049873497
149	0x3e2557a2	0.1614671
150	0x3f1ab1cd	0.6042755
151	0xbf10d44a	-0.5657393
152	0xc01676f8	-2.3510113
153	0xbf18906e	-0.5959538
154	0x3d9d7494	0.07688251
155	0xbf0dbdcc	-0.5536773
156	0x3d501944	0.050805345
157	0x3e1495b0	0.14510226
158	0xbdc5870b	-0.09644898
159	0x3c9ea964	0.019367881
160	0xbe87f906	-0.26557177
161	0xbb1d3e9d	-0.002399362
162	0x3e738c3c	0.23783964
163	0xbe454c7a	-0.19267455
164	0x3ddad797	0.10685652
165	0x3da6fba4	0.081534654
166	0xbe9a72db	-0.30165753
167	0xbf06bfaf	-0.52636236
168	0x3e4c2138	0.19934547
169	0x3ee7c5d7	0.45268127
170	0x3c17b9a1	0.009260566
171	0x3e3016cc	0.17196196
172	0xbd5bdf74	-0.0536799
173	0xbd897534	-0.06711808
174	0x3d791618	0.060812086
175	0x3c25aac0	0.010111511
176	0xbe799c6c	-0.24376076
177	0x3e305cfa	0.17222968
178	0xbe81a9e3	-0.25324926
179	0xbd71af24	-0.059004918
180	0x3d9fa640	0.077953815
181	0xbe100a1b	-0.14066355
182	0x3bb1db00	0.005427718
183	0xbe42641a	-0.18983498
184	0xbc4fbc60	-0.012679189
185	0x3e42c412	0.19020107
186	0xbe24435d	-0.16041322
187	0xbdcbc54c	-0.09949741
188	0xbde1a720	-0.11018205
189	0xbe40269c	-0.18764728
190	0xc0717ea4	-3.7733545
191	0xbf7f594d	-0.9974564
192	0x3e465504	0.19368368
193	0xbf98dd5d	-1.1942555
194	0xbe130456	-0.14357123
195	0xbdc972dc	-0.09836361
196	0xbe4f3aa3	-0.20237212
197	0xbe9012b5	-0.28139272
198	0x3e251fbd	0.16125388
199	0xbe8c44ba	-0.27396184
200	0x3e248b1b	0.1606869
201	0xbe314581	-0.1731167
202	0xbe26bc76	-0.1628283
203	0x3c5a2259	0.013313853
204	0x3dd46e6f	0.10372626
205	0xbf3dcad5	-0.7413762
206	0x3de65d1b	0.11248227
207	0x3eaecf50	0.34142542
208	0x3e41bd52	0.18919876
209	0xbf129f53	-0.5727436
210	0xbe206b6f	-0.15665983
211	0x3e632dff	0.22185515
212	0xbea932f0	-0.33046675
213	0xbe122441	-0.14271642
214	0x3d44db0f	0.048060473
215	0x3d66d8a2	0.05635894
216	0x3d7c44ee	0.061589174
217	0xbe2e1499	-0.17000045
218	0xbd5060ca	-0.050873555
219	0xbda7af1f	-0.081876986
220	0x3e663fa2	0.22485211
221	0xbe804950	-0.25055933
222	0x3f083948	0.53212404
223	0x3eb48171	0.35255006
224	0xbdc5295c	-0.09627029
225	0xbc5fac3c	-0.013651904
226	0xbe8afac1	-0.27144435
227	0xbda97f85	-0.082762755
228	0x3e727598	0.23677671
229	0x3e341978	0.1758784
230	0x3e179e10	0.1480639
231	0xbe009494	-0.12556678
232	0xbe2af23a	-0.16693965
233	0xbd38cb74	-0.045115903
234	0xbe10ad4f	-0.14128612
235	0xbe22b76c	-0.15890282
236	0xbe1ac0b2	-0.1511257
237	0xbe80a709	-0.25127438
238	0x3e53b11e	0.20673034
239	0x3d96bb60	0.07359958
240	0x3dfa3c84	0.12218574
241	0xba5a8200	-0.00083354115
242	0x3dcbad00	0.099451065
243	0x3dfb95f8	0.12284464
244	0xbda3f398	-0.08005446
245	0x3caf3c80	0.021391153
246	0x3dd9f354	0.10642114
247	0x41142868	9.259865
248	0x3fa1563b	1.260444
249	0xbe2ce375	-0.16883643
250	0x3f829622	1.0202067
251	0x3d044852	0.032295533
252	0x3decda44	0.11565068
253	0xbd7b2c66	-0.06132164
254	0xbe3d9a83	-0.18515973
255	0x3eb86a14	0.3601843
