deployment/models/edge_modelS4.tflite (tflite, 32504 bytes, 7 tensors)

arith.constant f4 [1, 32]
0	0xbce2837f	-0.027650593
1	0x3e3724ad	0.17885084
2	0x3d0510c9	0.03248671
3	0xbe09d975	-0.1346186
4	0xbe158a02	-0.14603427
5	0xbea6c59e	-0.32572645
6	0x3da30293	0.07959475
7	0xbe006afc	-0.12540811
8	0xbe29b693	-0.16573553
9	0x3e609388	0.21931279
10	0xbe2f4957	-0.1711782
11	0x3e0ddb0c	0.13853091
12	0x3d6d486a	0.057930388
13	0x3d905532	0.070475
14	0xbda0d70d	-0.07853518
15	0x3b9f1035	0.004854227
16	0xbd37fff2	-0.044921823
17	0xbe28fc5f	-0.16502522
18	0xbe0f22ad	-0.13978072
19	0x3efa8c4b	0.4893516
20	0x3e8ee227	0.27906916
21	0x3e6ca3d5	0.23109372
22	0x3ddaac7a	0.106774285
23	0x3df7c787	0.12098604
24	0xbdf11b45	-0.117727794
25	0xbc98e760	-0.018665016
26	0x3e2e37ce	0.17013475
27	0x3e236b60	0.15958929
28	0xbe2754e3	-0.16340975
29	0xbe07139b	-0.13191073
30	0xbd22865a	-0.03967891
31	0x3e47a736	0.1949738

arith.constant1 f4 [32, 64]
0	0x3e015f8f	0.12634109
1	0xbe273028	-0.16326964
2	0x3e1d1a21	0.15341999
3	0x3d67b23d	0.056566466
4	0x3e255225	0.16144617
5	0xbe6300c8	-0.22168267
6	0xbd61fca0	-0.055172563
7	0xbd25f43e	-0.04051613
8	0xbd565a11	-0.052331988
9	0x3e43fa14	0.19138366
10	0xbdd02248	-0.10162789
11	0xbe36757d	-0.17818256
12	0x3e5a8fa3	0.21343856
13	0xbe768d18	-0.2407726
14	0x3de444e8	0.11145955
15	0x3d2466cf	0.04013711
16	0x3e0ba158	0.13635767
17	0x3d8eb41f	0.06967949
18	0x3e079990	0.13242173
19	0x3e2e9c7d	0.17051883
20	0x3dd67f86	0.10473542
21	0x3dfe8f4e	0.12429677
22	0x3e030922	0.12796453
23	0xbe86ca82	-0.26326376
24	0x3e1666c1	0.14687635
25	0xbd355a78	-0.04427573
26	0xbe09266a	-0.1339356
27	0xbd3e8841	-0.04651666
28	0xbe88d989	-0.26728466
29	0xbe6f30ee	-0.23358509
30	0x3db58ea6	0.08865099
31	0xbb36edfa	-0.0027912841
32	0x3bfb0626	0.007660645
33	0x3e5ce94f	0.21573375
34	0xbd807efc	-0.0627422
35	0xbe914300	-0.2837143
36	0xbdf44598	-0.119273365
37	0x3e51d0ab	0.20489757
38	0xbd374d04	-0.044751182
39	0xbe20ca57	-0.15702187
40	0xbe5f879b	-0.21829073
41	0xbe7759b2	-0.2415531
42	0x3de15a50	0.11003554
43	0x3bb0a980	0.0053912997
44	0xbe4aa170	-0.19788146
45	0x3d5c227f	0.053743836
46	0x3e62e1b8	0.22156417
47	0xbd70a464	-0.058750525
48	0x3c64eceb	0.013972501
49	0xbdb5f610	-0.08884823
50	0xbe262ba4	-0.16227585
51	0x3db03c33	0.08605232
52	0x3e5c63af	0.21522401
53	0xbe4f50c0	-0.20245647
54	0xbe8355cc	-0.25651395
55	0xbbfa6f41	-0.007642657
56	0xbd15fd20	-0.036618352
57	0x3e491d10	0.19639993
58	0x3e7b0354	0.24512988
59	0xbdb43ef9	-0.088010736
60	0xbdead545	-0.11466459
61	0x3d8d38f8	0.068956316
62	0x3dc09cd6	0.09404914
63	0xbe0db450	-0.13838315
64	0xbe67338c	-0.22578257
65	0x3e68e910	0.22745156
66	0x3d40d6db	0.047079902
67	0xbd6f8b74	-0.058482602
68	0xbe26b924	-0.16281563
69	0xbe346f2d	-0.17620535
70	0xbdb27281	-0.08713246
71	0xbb3dd0b4	-0.0028963508
72	0xbcd42225	-0.025895188
73	0x3e1a3481	0.15059091
74	0xbd29017c	-0.04126118
75	0x3ddac134	0.10681382
76	0x3e77fd43	0.24217705
77	0x3e546487	0.20741473
78	0x3dff0768	0.124525845
79	0x3daf113d	0.0854821
80	0xbe4b93cf	-0.19880603
81	0xbe5a590a	-0.21323028
82	0xbda4f054	-0.080536515
83	0x3e081140	0.1328783
84	0xbda1c0f7	-0.07898133
85	0x3d133328	0.03593746
86	0x3e20dbcc	0.15708846
87	0xbccb9953	-0.024853384
88	0x3cc4be63	0.024016565
89	0xbe71f61d	-0.23629041
90	0xbe214c9b	-0.15751879
91	0x3c05476f	0.008134707
92	0x3e042d6d	0.12907954
93	0x3d911553	0.070841454
94	0x3e1b95d7	0.15193878
95	0xbe735b45	-0.23765285
96	0xbbf6782d	-0.0075216503
97	0x3e17772a	0.14791551
98	0xbe8452cb	-0.25844416
99	0xbe86a1f6	-0.2629544
100	0xbe29f560	-0.1659751
101	0x3e69ceef	0.22832845
102	0xbe2fd6c4	-0.1717177
103	0x3dba9913	0.09111228
104	0x3d46f739	0.048575614
105	0xbe46315b	-0.19354765
106	0x3e171a2e	0.1475608
107	0x3dce4d51	0.10073341
108	0x3dfcd946	0.12346129
109	0x3cf63d6f	0.03005859
110	0xbe666ada	-0.22501698
111	0x3e70a9cd	0.23502274
112	0xbdb4dec6	-0.08831553
113	0xbd550d60	-0.05201471
114	0xbe2a6728	-0.16640913
115	0x3e343689	0.17598929
116	0xbd3d4acd	-0.046213914
117	0xbe51f2ac	-0.20502728
118	0xbe09f459	-0.13472117
119	0xbd606e99	-0.054792974
120	0x3e66e458	0.22548044
121	0x3c542138	0.012947373
122	0x3ddde6f8	0.108350694
123	0xbe2b9d2b	-0.16759174
124	0x3df8116c	0.12112698
125	0x3d54849d	0.051884282
126	0xbe2ec858	-0.17068613
127	0x3e27a420	0.16371202
128	0xbc680da5	-0.014163409
129	0x3e495cf4	0.19664365
130	0xbdab3a24	-0.08360699
131	0x3dc37b44	0.095449954
132	0xbe289368	-0.16462481
133	0xbdab04c4	-0.08350518
134	0xbdc3cabc	-0.09560153
135	0xbd855926	-0.06511144
136	0x3de6b436	0.11264841
137	0xbdee395a	-0.11632033
138	0xbd95969f	-0.07304119
139	0xbe6022b5	-0.2188824
140	0x3c29f37f	0.010372995
141	0x3da38194	0.079836994
142	0x3e1e8dac	0.15483731
143	0xbc8517ae	-0.016246643
144	0x3e5da256	0.21643957
145	0xbdc74364	-0.097296506
146	0xbe411a90	-0.18857789
147	0x3e4b5ef7	0.19860445
148	0x3da3db4c	0.08000812
149	0xbe5c63fb	-0.21522515
150	0xbd59ab0c	-0.05314164
151	0xbe0bfdd5	-0.13671048
152	0xbd914637	-0.070934705
153	0x3cbfdea3	0.023421591
154	0xbd0ec1d7	-0.03485283
155	0x3dc6693a	0.09688039
156	0x3e7ce6bb	0.24697392
157	0x3cbfa3be	0.023393508
158	0x3e12ac85	0.14323623
159	0x3e231f5c	0.15929931
160	0x3d9078a4	0.070542604
161	0xbce02022	-0.027359072
162	0x3e3d7863	0.18502955
163	0xbeb14b99	-0.3462799
164	0x3e261e70	0.16222548
165	0xbe4b5456	-0.1985639
166	0xbd000e31	-0.031263534
167	0xbea4d16b	-0.32191023
168	0x3e0b1b10	0.13584542
169	0xbe1bcb3c	-0.15214247
170	0x3ddc8677	0.10767835
171	0x3e5e5bed	0.21714754
172	0xbc718c5a	-0.014742935
173	0xbe599f19	-0.21252097
174	0xbd94ce04	-0.07265857
175	0x3d334c3a	0.043773867
176	0x3c4c56dd	0.012471882
177	0x3c115c80	0.008872151
178	0xbd05806b	-0.032593172
179	0xbcdeecec	-0.027212583
180	0xbe8211f5	-0.25404325
181	0x3e746da4	0.2386995
182	0x3db970b0	0.090546966
183	0xbe310e81	-0.17290689
184	0x3d881ae0	0.06645751
185	0x3da95a7f	0.08269214
186	0xbe14d274	-0.14533406
187	0x3dd2f95a	0.10301466
188	0xbe8dd106	-0.27698535
189	0xbe3b7729	-0.18307175
190	0xbd875e40	-0.06609774
191	0x3e003ae8	0.12522471
192	0x3daa6177	0.08319371
193	0xbe6e5708	-0.23275387
194	0xbe715cf8	-0.23570621
195	0x3e0fa859	0.14029063
196	0x3e2dc1ac	0.16968411
197	0xbe54fd4f	-0.20799755
198	0x3e749600	0.23885345
199	0x3df57634	0.11985436
200	0xbdc99d68	-0.09844476
201	0xbdaa4edc	-0.083158225
202	0xbcffc1cc	-0.03122034
203	0xbd6f2cc1	-0.05839229
204	0x3c28052a	0.010255137
205	0x3c15fc80	0.009154439
206	0x3c2e2c80	0.010630727
207	0x3e536888	0.20645344
208	0x3e3dd900	0.1853981
209	0x3cb5b28f	0.02217987
210	0x3e64bf60	0.22338629
211	0x3e666a93	0.22501592
212	0x3dc4c3d7	0.09607666
213	0x3d17f5e0	0.03709972
214	0x3d931a11	0.07182706
215	0xbe357c81	-0.17723276
216	0x3bda4c39	0.0066619185
217	0x3e78abb8	0.24284256
218	0xbe7141dc	-0.2356028
219	0xbe5409e0	-0.20706892
220	0x3e2c4c17	0.16825901
221	0xbe53bf36	-0.2067841
222	0x3e1bded1	0.15221716
223	0x3cc22eb4	0.02370391
224	0xbca599de	-0.020214971
225	0x3e095d9b	0.13414614
226	0xbd9f3de7	-0.07775479
227	0xbde86df1	-0.11349095
228	0xbe05d970	-0.13071227
229	0x3e651e4a	0.22374836
230	0xbe5f3bef	-0.21800207
231	0xbe608b44	-0.21928126
232	0x3d793c0c	0.06084828
233	0x3e4b4f10	0.19854379
234	0x3d26c786	0.040717624
235	0x3dd09705	0.10185055
236	0xbd415c4e	-0.04720717
237	0x3e1c07f8	0.15237415
238	0xbe044614	-0.12917358
239	0x3db9a3c3	0.09064438
240	0x3df5e6c9	0.120069094
241	0xbe24d9e8	-0.1609875
242	0xbd6a7f1f	-0.05725014
243	0xbd9da15c	-0.076967925
244	0x3ded9180	0.116000175
245	0x3deb6650	0.11494124
246	0xbe24937c	-0.16071886
247	0xbe00aee8	-0.12566721
248	0xbe0c11a4	-0.13678604
249	0x3d79c8b8	0.060982436
250	0x3e58f3e0	0.21186781
251	0xbe720d19	-0.23637809
252	0xbcfd3514	-0.030909099
253	0x3c14ab7c	0.009074088
254	0xbe57b6cc	-0.21065825
255	0x3e3cac6c	0.18425149

arith.constant2 f4 [64, 64]
0	0xbb93ae60	-0.004506871
1	0x3e08eaf4	0.13370878
2	0xbe1314d3	-0.14363413
3	0xbd8e567e	-0.06950091
4	0x3e0b092d	0.13577719
5	0xbe12f69b	-0.14351885
6	0x3df746f2	0.120740786
7	0xbe157b52	-0.14597824
8	0xbe518a76	-0.20462975
9	0x3d4be271	0.0497765
10	0xbe2299a9	-0.15878929
11	0xbe131ec8	-0.14367211
12	0xbe1d18c5	-0.1534148
13	0xbe48aca4	-0.19597107
14	0xbe523675	-0.20528586
15	0xbe5c8148	-0.21533692
16	0x3d1a14b4	0.0376174
17	0xbe435da1	-0.19078685
18	0xbd0e7e31	-0.034788314
19	0xbdcbc6e1	-0.099500425
20	0x3d3cd284	0.0460992
21	0xbe0c20e6	-0.13684425
22	0x3de96c92	0.11397661
23	0xbdb00fe2	-0.085967794
24	0xbd87aa8e	-0.066243276
25	0xbc93d4e0	-0.018045843
26	0xbca9cd10	-0.020727664
27	0x3e14e3a4	0.14539963
28	0x3dc847a3	0.097792886
29	0xbe6a912a	-0.22906938
30	0x3d3d2274	0.046175435
31	0xbdd8366a	-0.10557254
32	0xbe4e3784	-0.20138365
33	0x3ddde1c9	0.10834081
34	0xbd3c2971	-0.04593796
35	0xbe83ea99	-0.2576492
36	0x3d08b0f2	0.033371873
37	0xbe0fe46c	-0.1405198
38	0xbdf39569	-0.11893732
39	0xbd96c8c8	-0.07362515
40	0x3d076e96	0.033064447
41	0xbd0b8cd8	-0.034069866
42	0x3d9ff512	0.07810415
43	0xbe8ec7ce	-0.27886814
44	0xbd656a1c	-0.056009397
45	0xbd63eea0	-0.055647492
46	0x3cdee60a	0.0272093
47	0x3e132968	0.14371264
48	0x3c8ab7f9	0.016933428
49	0x3df0b826	0.117538735
50	0xbce5e281	-0.028062107
51	0xbdf88587	-0.12134843
52	0x3cd8f848	0.026485577
53	0xbe43f8c8	-0.19137871
54	0xbe58f1c4	-0.21185976
55	0x3e0b93e8	0.1363064
56	0x3ddb6aa6	0.10713701
57	0xbda53940	-0.0806756
58	0xbdf8dd06	-0.12151532
59	0x3e3b6933	0.18301849
60	0xbe4f914c	-0.2027027
61	0xbdf5ff33	-0.12011566
62	0xbe4c6690	-0.19961
63	0x3d8e44bb	0.06946703
64	0xbddeaa32	-0.10872306
65	0x3d1f215c	0.038850173
66	0xbd2206d4	-0.039557293
67	0x3dc2e9de	0.09517263
68	0xbd518140	-0.051148653
69	0x3ca60da0	0.020270169
70	0xbe543063	-0.20721583
71	0x3da34c26	0.079735085
72	0xbe7d320c	-0.24726123
73	0xbe035765	-0.12826307
74	0x3e210af9	0.15726842
75	0x3db45366	0.088049695
76	0xbd90c256	-0.07068317
77	0x3bf3c640	0.0074394047
78	0x3d151cbb	0.036404353
79	0xbd3b8000	-0.045776367
80	0xbdea9bac	-0.11455473
81	0xbdb46728	-0.08808738
82	0xbe3ef976	-0.1864985
83	0xbe40ea7a	-0.18839446
84	0x3d0dcd14	0.034619406
85	0xbe0c9b2b	-0.13731067
86	0x3dfeab12	0.12434973
87	0xbdaad21e	-0.08340858
88	0xbc03d4d0	-0.008046344
89	0x3d801e72	0.06255807
90	0xbe16bd14	-0.14720565
91	0x3c3477a4	0.011014853
92	0xbd93cdce	-0.072169885
93	0x3de9149a	0.113808826
94	0x3e1412cf	0.144603
95	0x3d30baf4	0.043147042
96	0x3dc07696	0.093976185
97	0xbd88fab1	-0.066884406
98	0x3d2f3edd	0.04278456
99	0xbe328c6d	-0.1743638
100	0xbe2cb5ec	-0.16866273
101	0x3e5a50b1	0.21319844
102	0xbe2a31fb	-0.16620629
103	0xbbf34460	-0.0074239224
104	0x3db5ab36	0.088705465
105	0xbc339b00	-0.010962248
106	0x3e30e08f	0.17273162
107	0xbe0fb4ef	-0.14033864
108	0xbe0c5bd0	-0.13706899
109	0x3d321364	0.043475524
110	0xbe57d4d0	-0.21077275
111	0x3e3b68f2	0.18301752
112	0x3de30ab2	0.11086024
113	0x3dc554d6	0.09635322
114	0x3e1a8023	0.15087943
115	0xbdda2d27	-0.106531434
116	0xbd8cfece	-0.06884538
117	0xbd813b32	-0.06310119
118	0xbe5448a3	-0.20730834
119	0x3e45e987	0.19327365
120	0x3dc2ad9a	0.09505768
121	0x3dca82d2	0.09888233
122	0x3db0714a	0.08615358
123	0x3e32f10e	0.17474768
124	0xbd100079	-0.0351567
125	0x3dc3a64e	0.095532045
126	0xbe36a063	-0.1783462
127	0xbe4d8372	-0.20069674
128	0xbd345c50	-0.04403335
129	0x3dfd8c6d	0.123803
130	0x3cfa9d18	0.030592486
131	0xbe543d26	-0.20726451
132	0x3cbdbd62	0.023161594
133	0xbd45fc30	-0.048336208
134	0xbd63038f	-0.055423316
135	0xbe2719cc	-0.16318434
136	0xbd3c12ca	-0.045916356
137	0xbd79aca6	-0.060955666
138	0xbc489054	-0.012241442
139	0xbcd679f1	-0.026181193
140	0x3d9b0993	0.075701855
141	0x3e4b6499	0.19862594
142	0xbda4b02a	-0.08041413
143	0x3d6f97dc	0.058494434
144	0x3dad4122	0.08459689
145	0xbdeba942	-0.11506893
146	0xbe12b96a	-0.14328542
147	0xbd33ff0d	-0.043944407
148	0xbc764ba7	-0.015032685
149	0xbd2df310	-0.04246813
150	0xbcdbc840	-0.026828885
151	0x3e2e1de8	0.17003596
152	0xbd946c2c	-0.07247195
153	0xbdb2b449	-0.08725793
154	0xbe000e3a	-0.12505427
155	0x3cf2035f	0.029542623
156	0xbe93791f	-0.28803346
157	0x3de1fa6d	0.11034093
158	0x3e28fba8	0.16502249
159	0xbd07baf1	-0.033137266
160	0x3e4573e7	0.19282494
161	0xbe9825dc	-0.29716384
162	0xbe6c5793	-0.23080282
163	0xbe5ba0d4	-0.2144807
164	0xbdb6b815	-0.089218296
165	0x3bdbd30b	0.006708508
166	0xbe2053b6	-0.15656933
167	0xbdc599ca	-0.096484736
168	0xbe4e8156	-0.20166525
169	0x3e210363	0.15723948
170	0xbdd23949	-0.102648325
171	0x3dd8ad10	0.10579884
172	0xbe4e9b4f	-0.20176433
173	0x3d8ff318	0.07028788
174	0x3e071507	0.13191615
175	0xbca6f970	-0.020382613
176	0x3e41ba65	0.1891876
177	0x3e2b55e4	0.16731983
178	0xbdb1f004	-0.086883575
179	0xbdeff416	-0.117164776
180	0xbd410df5	-0.04713245
181	0xbda24fa8	-0.079253495
182	0xbe25d159	-0.16193141
183	0xbe08077f	-0.1328411
184	0x3cc771f0	0.024346322
185	0xbcfb92c0	-0.030709624
186	0xbe604b17	-0.21903645
187	0x3d6c13b3	0.057635974
188	0x3d4dd66a	0.05025331
189	0xbda76ea9	-0.081754036
190	0x3d419863	0.047264468
191	0xbd8052db	-0.062658034
192	0xbc53e2a6	-0.012932455
193	0xbe2ca0aa	-0.16858163
194	0xbe3ab97b	-0.18234818
195	0xbd132730	-0.035926044
196	0x3d10d88f	0.035362776
197	0xbdba1762	-0.09086491
198	0x3c6e36f9	0.014539474
199	0x3964454b	0.00021769588
200	0xbe801415	-0.2501532
201	0xbd8f34e2	-0.069925085
202	0xbdec5742	-0.115400806
203	0xbd388df3	-0.04505725
204	0xbd0cf5dd	-0.03441416
205	0xbd8b69d7	-0.06807297
206	0xbda0d076	-0.07852261
207	0xbe06a974	-0.13150579
208	0xbe53c9ca	-0.20682445
209	0x3d8b8706	0.06812863
210	0xbdc7f84c	-0.09764156
211	0x3d06bff5	0.03289791
212	0x3db5bbf7	0.08873742
213	0xbd9adf9d	-0.07562182
214	0x3e4b928d	0.19880123
215	0x3d678ce2	0.05653084
216	0x3e1172ba	0.14203921
217	0x3d5c70f7	0.05381867
218	0x3d6252ac	0.055254623
219	0xbe28ffc9	-0.16503824
220	0x3dd1f675	0.10252086
221	0xbe110675	-0.1416262
222	0x3e64a807	0.22329722
223	0xbdc57b10	-0.09642613
224	0x3e58fbfb	0.21189873
225	0xbd862ed1	-0.06551898
226	0x3dbaff91	0.09130777
227	0x3d834a9a	0.064107135
228	0xbd8925f1	-0.0669669
229	0xbdc3ad2a	-0.09554513
230	0xb99545b8	-0.0002847144
231	0x3dfa7bca	0.12230642
232	0x3d53b3c4	0.05168511
233	0x3d1e1937	0.038598265
234	0xbcd9578a	-0.026531
235	0x3de7d1aa	0.11319287
236	0x3e08c619	0.13356818
237	0xbe03778b	-0.12838571
238	0x3daa8799	0.083266445
239	0xbe60af5c	-0.21941894
240	0xbdf3520b	-0.11880883
241	0xbd88f177	-0.06686681
242	0xbdf6d8eb	-0.120530926
243	0xbe83f6a5	-0.25774112
244	0x3d9ca2bb	0.07648226
245	0xbd871e40	-0.065975666
246	0x3d830dda	0.06399126
247	0xbe93f23c	-0.28895748
248	0xbe26e518	-0.1629833
249	0x3da5a41e	0.080879435
250	0xbdaa192a	-0.08305581
251	0xbcc5c741	-0.024142863
252	0xbe30756b	-0.17232291
253	0xbe1223a9	-0.14271416
254	0xbe917b08	-0.28414178
255	0xbe46761e	-0.19380996

functional_13_1/e1_1/BiasAdd/ReadVariableOp f4 [64]
0	0xbce9ee89	-0.028556125
1	0xbe47c068	-0.19506991
2	0xbe8a034b	-0.26955637
3	0xbe5f5157	-0.21808372
4	0x3e15c0b5	0.14624293
5	0x00000000	0.0
6	0xbe111dda	-0.14171544
7	0xbe302fef	-0.17205785
8	0xbc9847a4	-0.018588848
9	0xbe3c843e	-0.18409821
10	0xbd1c3845	-0.0381396
11	0xbe06630f	-0.13123725
12	0xbe3657c5	-0.17806919
13	0xbe975f10	-0.29564714
14	0xbc9423b0	-0.018083423
15	0x00000000	0.0
16	0x00000000	0.0
17	0xbd06ee8c	-0.03294234
18	0xbe209a0e	-0.15683767
19	0xbe01df90	-0.12682939
20	0xbe0c8ba6	-0.13725147
21	0xbdef9637	-0.11698573
22	0x00000000	0.0
23	0xbd5024b0	-0.050816238
24	0xbdd171ac	-0.10226759
25	0xbe18880e	-0.1489565
26	0x00000000	0.0
27	0x3d69db1d	0.05709373
28	0xbe477f8d	-0.1948225
29	0xbdbc6a71	-0.091999896
30	0xbddd620a	-0.10809715
31	0xbdd97d53	-0.10619607
32	0x00000000	0.0
33	0xbe18fa9f	-0.14939354
34	0x3cb8e68b	0.022570869
35	0x3c321dae	0.010871334
36	0xbda8c87a	-0.08241363
37	0xbca1d744	-0.019755967
38	0xbdab2590	-0.08356774
39	0x00000000	0.0
40	0xbd2b54a8	-0.04182878
41	0xbceb7e96	-0.028746884
42	0xbe1725b9	-0.14760484
43	0x3db7417d	0.08948038
44	0x00000000	0.0
45	0x3d3741b4	0.044740394
46	0xbe077777	-0.13229166
47	0x3d3bbfe0	0.045837283
48	0x3e09f100	0.1347084
49	0xbdf0a557	-0.11750286
50	0xbe620e9c	-0.22075886
51	0xbe330fb8	-0.17486465
52	0xbe246d54	-0.1605733
53	0xbc122502	-0.008919956
54	0xbd261dc4	-0.04055573
55	0xbd3aa507	-0.04556754
56	0x00000000	0.0
57	0x00000000	0.0
58	0xbdbf26c5	-0.093335666
59	0xbd905736	-0.07047884
60	0xbd0479a3	-0.032342564
61	0xbe2b0ecb	-0.16704862
62	0x3d5789b7	0.05262157
63	0xbd846988	-0.06465441

functional_13_1/e3_1/BiasAdd/ReadVariableOp f4 [64]
0	0xbd689016	-0.056778036
1	0xbd004438	-0.03131506
2	0xbdd90555	-0.1059672
3	0xbe0b2129	-0.13586868
4	0xbd0209b9	-0.031747553
5	0xbe056c4b	-0.13029592
6	0xbd47b441	-0.048755888
7	0xbdc939b1	-0.09825457
8	0xbd4b5ce0	-0.04964912
9	0xbd8957c7	-0.06706195
10	0xbd46567c	-0.04842232
11	0xbdbac3ba	-0.09119363
12	0xbd7095cd	-0.05873661
13	0xbd533823	-0.051567208
14	0x00000000	0.0
15	0xbd9bee54	-0.07613817
16	0xbd8dd92f	-0.0692619
17	0xbd9a78e8	-0.07542592
18	0xbd9d20ff	-0.07672309
19	0xbc9338b5	-0.017971376
20	0xbda0a286	-0.07843499
21	0xbd5d2d6e	-0.053998403
22	0xbcaba0fc	-0.020950787
23	0xbddc28c8	-0.10749966
24	0x3c6b0b68	0.014345981
25	0xbd448421	-0.04797757
26	0xbcdcd7c1	-0.026958348
27	0xbd2b2387	-0.04178193
28	0xbd40416d	-0.046937395
29	0xbcc81797	-0.024425311
30	0x3c507057	0.012722096
31	0xbd526993	-0.051370215
32	0xbde95191	-0.11392511
33	0xbd30bcf6	-0.043148957
34	0xbddd80ff	-0.1081562
35	0xbdeeb860	-0.116562605
36	0xbce896ec	-0.028392278
37	0xbd53267a	-0.051550366
38	0xbe13a6dd	-0.14419122
39	0xbdf23512	-0.118265286
40	0xbe0653b6	-0.1311787
41	0xbd92feab	-0.0717748
42	0xbd3a0771	-0.045417253
43	0xbd4f83d6	-0.050662838
44	0xbda4b4eb	-0.0804232
45	0xbcc4e394	-0.024034299
46	0xbd3c91f2	-0.04603762
47	0xbdafc9a0	-0.08583379
48	0xbe06756b	-0.13130729
49	0xbce4fc79	-0.02795242
50	0xbda0663d	-0.078320004
51	0xbe00c0d8	-0.12573564
52	0xbe0d513c	-0.1380052
53	0xbd021b13	-0.0317641
54	0xbd12e54f	-0.035863217
55	0x3e3ff636	0.18746266
56	0x00000000	0.0
57	0xbaf6d45e	-0.0018831601
58	0xbd8fadfe	-0.07015608
59	0xbd0c7289	-0.034288917
60	0xbd4fb274	-0.050707296
61	0xbd382915	-0.044961054
62	0xbd483ce6	-0.048886202
63	0xbd22f377	-0.039782967

functional_13_1/e4_1/BiasAdd/ReadVariableOp f4 [32]
0	0xbe93ecd2	-0.28891617
1	0xbe3ebe33	-0.18627243
2	0xbe2d8fa3	-0.16949324
3	0xbdb9c296	-0.090703174
4	0x3e1d2885	0.15347488
5	0x3ee18449	0.44046238
6	0xbe2f4c43	-0.17118935
7	0x3e8c1a63	0.2736388
8	0xbc9e3445	-0.019312033
9	0xbc6f63fd	-0.014611241
10	0xbde4c532	-0.111704245
11	0xbd81af70	-0.0633229
12	0xbe2ae092	-0.1668723
13	0xbe04901d	-0.129456
14	0xbd804598	-0.06263274
15	0xbe0d3b79	-0.13792218
16	0xbf34049b	-0.7031953
17	0xbe2edebb	-0.17077152
18	0xbf3324b4	-0.6997788
19	0x3e4ad741	0.19808675
20	0xbe2cbe31	-0.16869427
21	0xbbc066b0	-0.0058716163
22	0x3d7cf178	0.06175372
23	0xbe7ba9b8	-0.24576461
24	0xbec2be6f	-0.38035914
25	0xbe35557e	-0.17708394
26	0xbe8186ca	-0.25298148
27	0xbe9ee172	-0.31031376
28	0xbd820d3d	-0.06350181
29	0xbe5a7cf3	-0.21336727
30	0xbce39ecd	-0.027785683
31	0xbe9dd81c	-0.3082894

functional_13_1/e1_1/MatMul f4 [64, 19]
0	0xbdd67131	-0.10470808
1	0x3e85b7ac	0.26116693
2	0x3d0df7de	0.034660213
3	0xbd6ed120	-0.058304906
4	0xbe9670b0	-0.2938285
5	0x3df52772	0.11970414
6	0x3e619da9	0.22032799
7	0x3b8c31b6	0.004278387
8	0xbe54750b	-0.20747773
9	0x3e6e3109	0.23260893
10	0x3cb0e8bc	0.021595351
11	0xbc64ba9f	-0.01396051
12	0xbe96b4c6	-0.29434794
13	0xbe4d7b5a	-0.20066586
14	0x3d260591	0.040532652
15	0x3e358e51	0.1773007
16	0xbe97d328	-0.29653287
17	0x3e64d7e7	0.22347985
18	0xbe4ee780	-0.20205498
19	0x40e515ce	7.1589117
20	0x3fba6344	1.4561543
21	0xbe484934	-0.19559175
22	0x3f9475b3	1.1598419
23	0xbe274957	-0.1633657
24	0x3ab45333	0.0013757705
25	0xbd33737d	-0.04381131
26	0xbe02928b	-0.12751214
27	0xbd7b9a69	-0.061426554
28	0xbedf5863	-0.4362212
29	0xbf83439d	-1.0255009
30	0xbdd67767	-0.10471993
31	0x3dfb7d98	0.122798145
32	0xbf46d106	-0.77662694
33	0xbebd3fb2	-0.36962658
34	0x3f8dad1e	1.1068456
35	0x3daa4dda	0.0831563
36	0x3da3d5ab	0.07999738
37	0xbf08b772	-0.53404915
38	0x4029cbbc	2.65306
39	0x3d9cc980	0.076556206
40	0xbe106b77	-0.14103495
41	0x3f0b7af8	0.5448451
42	0x3da8df0a	0.08245666
43	0xbd8982a8	-0.06714374
44	0xbee823fe	-0.4533996
45	0xbed3ca34	-0.41365206
46	0xbee64624	-0.44975388
47	0xbf04513f	-0.5168647
48	0xbe52b488	-0.2057668
49	0xbdbf2bb3	-0.09334507
50	0xbeadfc9e	-0.33981794
51	0xbf5e0741	-0.8672982
52	0xbf0b85f7	-0.5450129
53	0x3eaead1a	0.3411644
54	0x3d8fded2	0.070249215
55	0x3e44995a	0.19199124
56	0xbef24700	-0.47319794
57	0x4111a250	9.102127
58	0x401b3f09	2.4257224
59	0x3dae5135	0.08511583
60	0x3ff4d61c	1.9127841
61	0xbebb7f6d	-0.36620656
62	0xbdb88b4d	-0.090109445
63	0xbe29e563	-0.1659141
64	0xbf04dae8	-0.51896524
65	0xbc8a5926	-0.016888212
66	0xbe5afb75	-0.21384986
67	0xbf911faf	-1.1337794
68	0xbe958a2b	-0.29206976
69	0x3e1f1e46	0.15538892
70	0xbf91389b	-1.13454
71	0xbee7124b	-0.45131144
72	0x3f98a808	1.1926279
73	0x3dc94f21	0.09829546
74	0xbddc6b1a	-0.107626155
75	0xbe20f419	-0.15718116
76	0xc112e714	-9.181416
77	0xc019f582	-2.4056096
78	0xbdad91c1	-0.08475066
79	0xc00d7da4	-2.2107935
80	0x3d669f56	0.0563043
81	0x3dab499f	0.083636515
82	0xbdc6a02f	-0.09698521
83	0x3de51eaf	0.11187493
84	0xbd5e45bf	-0.054265734
85	0xbd1b6a26	-0.037943028
86	0x3f4c5e3c	0.7983129
87	0x3e616006	0.22009286
88	0xbd2dd581	-0.04243994
89	0x3fa5d5cb	1.295587
90	0x3f1fa4ec	0.62361026
91	0xbf84d4d3	-1.0377449
92	0x3d806900	0.06270027
93	0xbe2c3a0c	-0.16819018
94	0x3e91bc13	0.28463802
95	0x3e849252	0.25892884
96	0xbc72c2a0	-0.01481691
97	0x3e08dba6	0.13365039
98	0xbe88e689	-0.26738384
99	0x3e5b20e0	0.2139926
100	0x3e03a790	0.12856889
101	0x3de0d034	0.109772116
102	0x3e72ef60	0.23724127
103	0xbe4b05ba	-0.19826403
104	0x3e4a375c	0.1974768
105	0x3e30d1aa	0.1726748
106	0x3e20004a	0.1562511
107	0x3d45fef8	0.04833886
108	0xbe6294b8	-0.22127044
109	0xbdb1518e	-0.086581334
110	0x3e7c1954	0.24619037
111	0xbe2ef0dc	-0.17084068
112	0xbe25117c	-0.16119951
113	0xbe61d3fe	-0.22053525
114	0xbeb279a8	-0.3485844
115	0x3de8c289	0.1136523
116	0xbe67b0f6	-0.22626099
117	0xbdb2be60	-0.087277174
118	0xbcac1fde	-0.02101129
119	0xbe0cd001	-0.13751222
120	0x3bbcc7df	0.005761131
121	0x3d9e4d72	0.07729615
122	0x3c8889be	0.016667243
123	0xbea66613	-0.3249975
124	0xbe687f83	-0.22704892
125	0x3ce979d8	0.028500482
126	0xbe066f6b	-0.1312844
127	0xbe528f00	-0.20562363
128	0xbdd3a846	-0.1033483
129	0xbe06c360	-0.13160467
130	0xbeae63e1	-0.34060577
131	0xbd51fcab	-0.051266354
132	0xbdf4ef28	-0.11959678
133	0x3c572f9d	0.0131339105
134	0xbc1cb434	-0.009564448
135	0x3d2aefc5	0.04173257
136	0xbda06b13	-0.07832923
137	0xbb978589	-0.004624073
138	0xbe282888	-0.16421711
139	0xbeb4af3e	-0.3528995
140	0xbded49ba	-0.11586328
141	0x3d579d1a	0.052640058
142	0x3da0bcb6	0.07848494
143	0x3e855b04	0.26046002
144	0xbb516a51	-0.0031954239
145	0xbe523243	-0.20526986
146	0xbf2ac893	-0.667123
147	0xbe80a8ef	-0.25128886
148	0xbe997941	-0.29975322
149	0xbe1b21ba	-0.15149584
150	0xbed9482a	-0.4243787
151	0xbba0e73d	-0.0049103783
152	0xc0b5cfea	-5.68163
153	0xc01bbbdf	-2.4333417
154	0xbd2ff2da	-0.04295621
155	0xbfe08e36	-1.7543399
156	0xbe3e326d	-0.18573923
157	0x3d43d13a	0.047806956
158	0xbab42278	-0.0013743183
159	0x3e37eed5	0.17962201
160	0xbcad24ff	-0.021135805
161	0xbe483d3b	-0.19554608
162	0x3f3ca746	0.7369274
163	0x3d8c7810	0.068588376
164	0xbd86f7cd	-0.06590233
165	0x3f633d0f	0.88765043
166	0x3e285d8d	0.16441937
167	0xbf02b598	-0.5105834
168	0x3d7db50c	0.061940238
169	0x3ce7c2b0	0.028291076
170	0x3dd8fb24	0.10594776
171	0x40d53cdc	6.663679
172	0x40065466	2.0989013
173	0xbe3d324c	-0.18476218
174	0x3ff43035	1.9077212
175	0xbe6bb35e	-0.23017642
176	0xbeaed522	-0.34146982
177	0xbe823dc1	-0.2543774
178	0xbe2baac4	-0.1676436
179	0xbdd66012	-0.10467543
180	0x3c34ecd1	0.01104279
181	0xbf706b49	-0.93913704
182	0xbe4ceb1d	-0.20011564
183	0xbdf19f0c	-0.11797914
184	0xbf092322	-0.53569233
185	0xbe320197	-0.17383419
186	0x3f908868	1.1291628
187	0x3daa0f09	0.08303649
188	0x3e6c28e3	0.23062472
189	0xbe90ed72	-0.28306156
190	0x3e4d8957	0.20071922
191	0x3d483759	0.04888091
192	0xbe09fa49	-0.13474382
193	0xbe0a25e4	-0.13491017
194	0xbdf7940f	-0.12088787
195	0x3db66032	0.089050665
196	0x3c9cec5b	0.019155672
197	0x3e17214a	0.14758793
198	0xbda5a701	-0.08088494
199	0x3ddf4601	0.10902024
200	0xbe55eb1f	-0.20890473
201	0xbe95a160	-0.29224682
202	0x3e6dc0c3	0.23218064
203	0x3e047e13	0.12938718
204	0xbdc46378	-0.09589285
205	0xbc511932	-0.012762355
206	0xbe846878	-0.25860953
207	0xbd5dce5f	-0.05415189
208	0xbdb4f45d	-0.08835671
209	0xbd1d4615	-0.038396914
210	0x3ebe45af	0.3716254
211	0xbea72ad2	-0.32649857
212	0x3dd1e5e1	0.10248924
213	0xbe26387f	-0.16232489
214	0xbc034531	-0.008012102
215	0x3d06c7fd	0.032905567
216	0xbd60ec45	-0.054912824
217	0xbc640b2c	-0.013918679
218	0xbe06291d	-0.13101621
219	0x3e3bf54d	0.18355294
220	0xbe08207f	-0.13293646
221	0x3d9f8e71	0.077908404
222	0x3cecfe5b	0.02892988
223	0x3d978fa4	0.07400444
224	0xbe893e6a	-0.2680543
225	0xbe86c49a	-0.2632187
226	0xbe24742f	-0.16059946
227	0xbe3e2f48	-0.18572724
228	0x40e36fe9	7.107411
229	0x3f9cc589	1.2247783
230	0x3e8817c3	0.2658063
231	0x3f6448ed	0.89173776
232	0x3e97d371	0.29653504
233	0xbe5ebcd7	-0.21751724
234	0xbe1b06b5	-0.15139277
235	0xbed2061d	-0.4102029
236	0xbe0e010b	-0.13867585
237	0xbdd1ea2d	-0.102497436
238	0xbf086276	-0.5327524
239	0xbe42745a	-0.18989697
240	0xbdbafc8c	-0.09130201
241	0xbf676f3d	-0.9040411
242	0xbf26cac4	-0.65153146
243	0x3f45dad2	0.7728702
244	0x3d85b818	0.06529254
245	0x3e772005	0.24133308
246	0xbda303ab	-0.07959684
247	0x406e0107	3.7188127
248	0x3f470401	0.77740484
249	0xbd5ef339	-0.054431174
250	0x3f7139d6	0.94228876
251	0x3e542192	0.20715931
252	0xbe2ff577	-0.17183481
253	0xbebd4dab	-0.36973318
254	0xbf01a1a7	-0.50637287
255	0xbef69797	-0.4816253
