deployment/models/edge_modelS1.tflite (tflite, 4184 bytes, 3 tensors)

arith.constant f4 [1, 32]
0	0xbc1ac32f	-0.009445949
1	0x3ea0be40	0.3139515
2	0xbe6b8813	-0.23001127
3	0xbeb7aa20	-0.35871983
4	0xbe567ed5	-0.2094682
5	0xbd4304b9	-0.047611926
6	0x3eab465e	0.33452123
7	0x3c7203ee	0.014771445
8	0xbe5c4aea	-0.21512952
9	0xbdb3b92d	-0.08775554
10	0xbd45f551	-0.048329655
11	0xbc29d7ea	-0.010366419
12	0xbd7c9e36	-0.06167432
13	0x3e6b45cc	0.22975844
14	0xbd5c82b9	-0.053835604
15	0x3e80cffc	0.2515868
16	0x3dd8d29c	0.105870456
17	0xbe922698	-0.2854507
18	0x3c74e720	0.014947683
19	0xbc5c3de3	-0.013442489
20	0x3a8b4c35	0.001062757
21	0xbdb26fab	-0.08712705
22	0x3d6bd90c	0.05758004
23	0x3eb8c575	0.36088148
24	0xbea7c3a2	-0.32766443
25	0x3c1d9ee4	0.009620402
26	0x3eae9692	0.3409925
27	0xbe858685	-0.26079193
28	0x3d607bbf	0.054805513
29	0xbe9ebdec	-0.31004274
30	0xbde46bd8	-0.11153382
31	0x3e069f73	0.13146763

functional_7_1/e1_1/BiasAdd/ReadVariableOp f4 [32]
0	0xbe6c97c2	-0.23104766
1	0xbce910c9	-0.028450387
2	0x3ccfb3a1	0.025354208
3	0x00000000	0.0
4	0x00000000	0.0
5	0x3dd047a8	0.10169917
6	0xbd1fb805	-0.038993854
7	0xbe226a8a	-0.15860954
8	0x3e1508e8	0.14554179
9	0x3c427bd2	0.011870341
10	0x3bb72655	0.0055892863
11	0xbd82c795	-0.063857235
12	0x3b436e92	0.0029820544
13	0x00000000	0.0
14	0xbb4c4543	-0.0031169213
15	0xbd2717e6	-0.040794276
16	0xbd4df751	-0.050284687
17	0x00000000	0.0
18	0x00000000	0.0
19	0xbab01392	-0.0013433567
20	0xbcd9752f	-0.026545135
21	0xbda0bbd6	-0.07848327
22	0xbd8dc33e	-0.06922005
23	0xbd1c8b95	-0.038219053
24	0xbc977c6f	-0.018491952
25	0xbe55d20e	-0.20880911
26	0x00000000	0.0
27	0x3cc759d0	0.024334818
28	0xbd87be25	-0.06628064
29	0x3cd002bf	0.025391934
30	0x00000000	0.0
31	0x3e081353	0.13288622

functional_7_1/e1_1/MatMul f4 [32, 19]
0	0xbe8070fb	-0.25086197
1	0xbd1a26cd	-0.03763466
2	0x3d450edf	0.048109885
3	0xbee24259	-0.44191244
4	0xbee5c626	-0.44877738
5	0xbecd388d	-0.40082207
6	0xbef2aec0	-0.4739895
7	0xbe9bf869	-0.3046296
8	0x3d52c364	0.05145587
9	0xbd7ce21e	-0.06173908
10	0x3d32bf8f	0.043639716
11	0x3c05fef5	0.008178462
12	0xbb268455	-0.0025408466
13	0xbe242e36	-0.16033253
14	0x3da4ffe4	0.0805662
15	0xbe88ac70	-0.2669406
16	0xbe6cdf21	-0.23131992
17	0xbe7407f9	-0.23831166
18	0xbe9014f8	-0.28140998
19	0xbe0fd686	-0.14046678
20	0x3e73016a	0.23731008
21	0xbdf53c1a	-0.11974354
22	0x3db15f1c	0.08660719
23	0xbdc68eb5	-0.09695188
24	0xbe48fcc7	-0.19627677
25	0xbe0e6f61	-0.13909675
26	0xbdb69aac	-0.0891622
27	0xbe7460f3	-0.23865108
28	0xbe99987b	-0.29999146
29	0x3e96c396	0.29446095
30	0x3e485a56	0.1956571
31	0x3d626127	0.055268433
32	0xbe1e6404	-0.1546784
33	0x3e26538b	0.16242807
34	0xbea20b05	-0.31649032
35	0x3d845695	0.06461827
36	0xbded6012	-0.115905896
37	0x3dba58d5	0.090989746
38	0x3ea94940	0.33063698
39	0xbecca336	-0.3996827
40	0xbe998fe3	-0.2999259
41	0x3dceff0d	0.10107241
42	0x3b823ad8	0.0039743
43	0xbde54c9e	-0.11196254
44	0x3e37c064	0.17944485
45	0xbe8e6d4a	-0.27817756
46	0xbd7860af	-0.06063908
47	0x3e9349bc	0.28767192
48	0x3e2a92d2	0.1665757
49	0xbe0215c2	-0.12703612
50	0x3d9f5740	0.077803135
51	0xbd588ce1	-0.052868728
52	0x3cd7be42	0.02633584
53	0x3e9017c8	0.28143144
54	0x3e68e0e7	0.22742043
55	0x3cf08c48	0.029363766
56	0xbd7d5203	-0.06184579
57	0xbe66d2fe	-0.22541425
58	0x3ea282c3	0.31740388
59	0x3d6edb78	0.05831477
60	0x3e8d61cb	0.27613673
61	0x3e25c12e	0.16186973
62	0x3e53051e	0.20607421
63	0x3a54b800	0.00081145763
64	0xbc4265c0	-0.011865079
65	0xbdad132c	-0.08450922
66	0xbe84d4ce	-0.25943607
67	0x3dffc5a4	0.12488869
68	0xbe605f0e	-0.2191126
69	0xbe35e3fd	-0.17762752
70	0x3e1586f0	0.14602256
71	0x3d539b58	0.05166182
72	0x3ceb0550	0.028689057
73	0xbd89a724	-0.06721333
74	0xbdf30f60	-0.11868167
75	0xbe5fbd7c	-0.21849626
76	0xbcbb8a50	-0.022893101
77	0xbe82ae82	-0.25523764
78	0xbe9f7c66	-0.31149596
79	0x3c37c100	0.011215448
80	0xbc2bf180	-0.01049459
81	0xbd99c364	-0.07507971
82	0xbead5fd2	-0.33862168
83	0x3e97a791	0.2962003
84	0xbded09dc	-0.11574146
85	0xbcac6a70	-0.021046847
86	0xbe6b95b4	-0.23006326
87	0xbe01e515	-0.12685044
88	0x3e00c64c	0.12575644
89	0x3e3e2d9e	0.18572089
90	0xbea45f5d	-0.32104006
91	0xbe262064	-0.16223294
92	0xbe96b3d9	-0.29434088
93	0x3ba0d2c0	0.004907936
94	0xbe85a402	-0.2610169
95	0x3c3b606e	0.011436565
96	0xbe9de12e	-0.3083586
97	0xbead207e	-0.33813852
98	0x3f3d3c00	0.7391968
99	0x3d8c13ac	0.068396896
100	0xbe010669	-0.12600102
101	0x3e613696	0.21993479
102	0x3e48b9ed	0.19602175
103	0x3e87f215	0.2655188
104	0xbe4a58c9	-0.19760431
105	0xbdf308a7	-0.11866885
106	0xbe1db7d7	-0.1540216
107	0x3e343ff3	0.1760252
108	0xbe85b901	-0.2611771
109	0x3f03952a	0.5139948
110	0xbeab612f	-0.33472583
111	0xbb910c09	-0.0044264835
112	0x3c8e3611	0.017359765
113	0xbdb99978	-0.09062475
114	0xbc0e87a3	-0.0086993305
115	0x3edde628	0.43339658
116	0xbddd700c	-0.10812387
117	0xbf14a66e	-0.5806645
118	0xbe848369	-0.25881508
119	0xbe2f2eff	-0.17107771
120	0xbe2870aa	-0.16449228
121	0x3e83e7aa	0.25762683
122	0x3e54509f	0.2073388
123	0xbeb7480c	-0.35797155
124	0x3e3c7a41	0.18406011
125	0xbeb6832c	-0.3564695
126	0x3e1b0763	0.15139537
127	0xbdbe1ee0	-0.09283233
128	0x3c83e107	0.016098512
129	0x3dd8436c	0.10559735
130	0x3e5ff1dc	0.21869606
131	0xbe25f50a	-0.16206756
132	0xbe08c6da	-0.13357106
133	0xbe8c9d00	-0.27463531
134	0xbf1be5a4	-0.6089728
135	0xbe0337f6	-0.12814316
136	0x3f031d34	0.51216435
137	0xbf0357aa	-0.5130564
138	0xbd37c152	-0.0448621
139	0xbdbd3cdd	-0.092401244
140	0xbeabe5eb	-0.3357385
141	0x3dc4179f	0.09574818
142	0x3c8e92b6	0.017403942
143	0xbeb3194e	-0.34980243
144	0xbe8045ba	-0.25053197
145	0xbe1c03f0	-0.15235877
146	0xbee553f1	-0.44790605
147	0x3d7ba1a9	0.061433468
148	0xbf06a08f	-0.5258874
149	0xbd1c9206	-0.038225196
150	0xbe73316c	-0.23749322
151	0xbee640fe	-0.4497146
152	0x3ecb7edd	0.39745227
153	0xbcbd6cb2	-0.023123119
154	0x3ec95661	0.39323714
155	0x3e4c52ac	0.19953412
156	0x3e8637e7	0.26214525
157	0xbd7c860c	-0.061651275
158	0x3dc07a23	0.09398296
159	0x3e249e38	0.1607598
160	0x3eac5531	0.33658746
161	0x3eabd6f2	0.33562428
162	0xbf1da66d	-0.6158207
163	0xbe300844	-0.17190653
164	0xbd936d9f	-0.07198643
165	0x3e1b5401	0.15168764
166	0xbe4e568a	-0.201502
167	0x3f119fb4	0.5688431
168	0xbdba28b2	-0.09089793
169	0x3e293d23	0.16527228
170	0xbe39f283	-0.18158917
171	0xbc5ce933	-0.013483333
172	0xbe793db7	-0.24339949
173	0xbe1c2a29	-0.15250458
174	0xbda38571	-0.07984436
175	0x3d81c50f	0.06336414
176	0x3e868754	0.26275122
177	0xbd0c2265	-0.03421249
178	0x3e9c8843	0.3057271
179	0x3e21c50b	0.15797822
180	0xbda079f8	-0.07835764
181	0x3ea1b740	0.3158512
182	0xbe8501df	-0.2597799
183	0x3e7fb396	0.2497085
184	0x3bd87624	0.0066058803
185	0xbdd6b8d9	-0.10484476
186	0x3ef5e310	0.48024797
187	0xbe31982d	-0.17343207
188	0x3d8699e7	0.06572323
189	0xbe96fe6c	-0.29490983
190	0x3e6838b1	0.22677876
191	0xbda481f1	-0.08032597
192	0x3ea15e7d	0.315174
193	0x3def6ccc	0.11690673
194	0x3dc2c4e3	0.095102094
195	0xbd5b0241	-0.053468946
196	0xbeb55d6d	-0.3542284
197	0x3e7889d1	0.24271323
198	0x3e5ddec5	0.21667011
199	0xbe7e3f4e	-0.24828836
200	0x3dee9f2c	0.116514534
201	0xbe803ea5	-0.25047794
202	0x3e0f0674	0.13967305
203	0x3d57c38e	0.05267673
204	0x3e975ebe	0.2956447
205	0xbd038c78	-0.032116383
206	0x3bf477b4	0.007460559
207	0xbe7e251d	-0.24818845
208	0xbd610dc7	-0.05494478
209	0xbe5d67f2	-0.21621683
210	0xbf3819b3	-0.71914214
211	0xbdc081f1	-0.09399784
212	0xbf8b2468	-1.0870485
213	0x3eb49cbf	0.35275838
214	0x3e8339e5	0.25630108
215	0xbe78363e	-0.24239442
216	0xbe62ab7c	-0.22135729
217	0x3e0c1b93	0.13682394
218	0x3dc9b72e	0.09849392
219	0x3e6898c8	0.22714531
220	0xbd9f8614	-0.07789245
221	0xbe4a5a1c	-0.19760936
222	0xbe31dd04	-0.17369467
223	0xbe94c226	-0.29054374
224	0x3f32b89a	0.6981293
225	0xbd9c2dde	-0.07625936
226	0x3e7696b0	0.2408092
227	0xbe600148	-0.21875489
228	0xbe55acff	-0.20866774
229	0xbe41d6b5	-0.1892956
230	0xbcb19d99	-0.021681594
231	0xbd8d96fc	-0.069135636
232	0x3dd89ce2	0.10576798
233	0xbe6a872b	-0.22903125
234	0xbe8e58e4	-0.27802193
235	0x3e6bc1d9	0.23023166
236	0xbc907338	-0.017633066
237	0xbea8e118	-0.32984233
238	0x3e60d153	0.21954851
239	0x3e1ce312	0.15320995
240	0x3dbb480c	0.09144601
241	0xbdd61692	-0.10453524
242	0x3ec2d1cf	0.38050696
243	0xbea18e04	-0.31553662
244	0x3da2f532	0.079569235
245	0x3e821bca	0.25411826
246	0xbea91198	-0.33021235
247	0x3e1c699e	0.15274665
248	0xbe33dec5	-0.17565449
249	0x3e9d7979	0.3075674
250	0xbd2edf90	-0.042693675
251	0xbe284770	-0.16433501
252	0x3e90926f	0.2823672
253	0x3dfd22e4	0.123601705
254	0x3e8e2a51	0.2776666
255	0xbea20bde	-0.3164968
