deployment/models/edge_modelS1.tflite (tflite, 4184 bytes, 3 tensors)

arith.constant f4 [1, 32]
00000000: a31a edbd 901b 0dbe 8e39 b73e d429 b53e
00000010: 9dc9 313e 8881 51bd 44ee 653e 2ccb c93d
00000020: aa0b c13d a75d 70be 3688 07be 608a 83be
00000030: 8e62 b3be c2a5 49be 623f bdbe 2498 07be
00000040: cca9 9bbb b648 873e 6153 3f3e 0aa6 abbe
00000050: d556 a93e 9873 f93d 9176 cabe e0e4 623d
00000060: 8039 503e 3f41 6ebe b70c 953e 7356 973d
00000070: feda bc3e a6bb 01be 68c5 aabe 7bcf 953e
-0.11577346 -0.13780046 0.35786098 0.35383475 0.17362066 -0.05114892 0.22454172 0.09853205
0.09426053 -0.23473226 -0.13235554 -0.2569151 -0.3503613 -0.19692138 -0.3696242 -0.13241631
-0.004750466 0.26422662 0.1868415 -0.33525115 0.3307406 0.12180251 -0.39543584 0.055394053
0.20334435 -0.23267077 0.29111263 0.07389536 0.36885828 -0.12669238 -0.33353734 0.29259858

functional_7_1/e1_1/BiasAdd/ReadVariableOp f4 [32]
00000000: e833 2a3e a49a 7abc 0000 0000 27d9 34bd
00000010: 01d3 08bd 0000 0000 170f 02bc f9a0 93bd
00000020: cd64 ff3c 1092 833c 7575 193c 6328 813c
00000030: 4121 08bc 0000 0000 0000 0000 53f0 ce3c
00000040: f9a6 1cbe 5ce1 b6bc a755 193e 1773 9e3c
00000050: 2ba7 66bc 0000 0000 c111 a2bc 2fce 67bd
00000060: a883 08bc 2493 a33b 3bd1 a5bb b522 b1bc
00000070: 0000 0000 3a71 0d3e 0000 0000 f362 d5bc
0.16621363 -0.015295658 0.0 -0.044152405 -0.033404354 0.0 -0.007938168 -0.072084375
0.031175995 0.016060859 0.009366383 0.015766328 -0.00830871 0.0 0.0 0.02526108
-0.1529807 -0.022324257 0.1497408 0.019341988 -0.014077942 0.0 -0.019783856 -0.056593116
-0.008332171 0.0049919058 -0.0050603426 -0.021622995 0.0 0.13812724 0.0 -0.02604816

functional_7_1/e1_1/MatMul f4 [32, 19]
00000000: 3c5e e93e 1502 30bd df6f bf3d c140 873d
00000010: f7a3 32be 2290 a4bd 6288 d9bd ad60 a9be
00000020: 947d 893e e3f0 143e a078 783e 1da5 ff3e
00000030: 91d0 4c3e bdfb c4be 42b0 cabe 9df5 903f
00000040: 25ea 2dbd ee90 d13e dfad 723e 627b 44be
00000050: d83f d1be cfb9 953d a220 7f3d 2f9c f4bd
00000060: b848 19be 8f0e 3bbd 7d2a c8bd 6e0f 603e
00000070: fceb 0b3e ea49 78be 512a a8be 0f1e 843d
00000080: b57d cdbd 7f0d e0bd ba9e 6e3f 086d c3bd
00000090: 20fe 273f 23f5 1bbe 3ed4 91be 6cb0 c53d
000000a0: 0bb3 963e da0f 7a3e 446f afbe 3cee 9cbd
000000b0: bb1d a33e 215a 31be 8934 6cbe f262 7d3e
000000c0: 559b 80be 9e91 5e3e 59e0 3bbe 0a6d 073e
000000d0: 3376 923e 031f 9bbe a0d9 d9bd 9d6e 8ebe
000000e0: 06eb 443e 6f3c 91bd ba4b 0d3e 06f3 4fbe
000000f0: 10fa 96be 0fc0 08bd ed13 983e fded b3bd
00000100: 010c a0be dae9 c5bc 0c31 1dbe 1cbe e0bd
00000110: 5080 723e b6dc 2ebe 24d1 30be 11bf c5bd
00000120: 1996 a0be a05c f63d 788e 053d 6a16 05be
00000130: d543 11be 0fa7 2abd 5e84 96be facf 42be
00000140: c9f7 b2be 2841 69be 5226 9ebe 040b 36bd
00000150: 6a2f 8a3e 8bbc 4fbe c30f 6d3e 1da1 0abe
00000160: 8140 a93d ffe5 203b 3f5d 4fbe ddd7 8cbd
00000170: c3d5 b13d b585 163e 935a 4f3e dcb9 e43d
00000180: a25c 88be 00c6 ba3a 0d74 823e ee41 f4bd
00000190: 7a06 733e dafa ffbd 8d4a 96be 7ad0 69be
000001a0: 2c4e 86bd eaf3 263e 6183 abbe 2c60 90bd
000001b0: a274 753e a830 b33d 88c7 46be dd04 a1be
000001c0: a224 a3be c849 ffbd 41c9 a03d 71c9 943e
000001d0: 23bd b1bb 4403 733d 0b35 3b3e 54ac 85be
000001e0: 5b3d 8e3e 153b 103d 032d d63d 1b02 7fbe
000001f0: 4eef b5be 2263 df3d 4b77 55be b61f cd3e
00000200: 182e 5c3d e889 32bd 4701 953e f94f 52be
00000210: f54b 19be d4cd cdbe 4739 68bb 8605 28be
00000220: 8b1d a9be d8ba 88be 5fa5 533e e8ea 483d
00000230: b934 63be f5e3 a33c 501e 1bbe dee8 9c3d
00000240: a0f3 0dbe fe89 133e 978d babe 70eb 7abe
00000250: 0859 393e 96fa 67be ace2 41be 3bc3 10bd
00000260: e9a2 1fbe ebb9 83be 272d 04be 3ec4 9d3d
00000270: 6e29 a13e 40ce 103f 8596 dc3c dee7 7b3e
00000280: 4ba5 413e 2f3f 923d 7f32 143e 07de 9fbd
00000290: 806a 003f 3c13 373e 733b 323e 29cb cf3c
000002a0: 9379 89bb 0474 1e3e 53c7 0a3e 046c b23d
000002b0: 3354 8fbd de7f 8fbe ecec b1bd 1bc5 8f3e
000002c0: 41b4 963e 419b 983e 823a ecbd 2138 69bd
000002d0: f7e6 193e 362e 87be 6ffe a33e 9261 0c3e
000002e0: 0541 8d3e f401 d73c cbee 013e 2f07 893e
000002f0: ed11 183d 4f66 cdbd 409c 2dbe ce51 423e
00000300: e969 e13d 3519 0d3e 0aa3 5abe a273 94be
00000310: 81fc 613d f02e a4bd cb5b 133e 2944 c8bd
00000320: 464b b1bd 608f af3c f4e1 f43b a777 893e
00000330: 6c0a a63e 8d85 84be c404 633e ede5 943e
00000340: f03d 0cbe 1ecc 55be 7fd4 963e 2f96 53be
00000350: 8857 cebd d9e8 d9bd 3968 b5bd 8375 963e
00000360: fe46 9d3e cd16 453e fd88 493e bc35 f03d
00000370: 9180 163e ad2e 573e 6b0a 113b 46d7 08bd
00000380: 8ceb b2be adbc 7b3e a2a3 67be 5531 7dbe
00000390: db72 adbe a03e 323d c3d6 00bc 41af 4dbe
000003a0: 840a 8dbe b8c2 a6be c514 7ebd 8591 afbe
000003b0: e28f 62bd 594e 80be be92 4fbe 461f 41be
000003c0: 8a43 77bd 263c e53d e0ac a1be 126f 273e
000003d0: 25f0 eebd a281 fd3d 52f3 db3d bed3 a3be
000003e0: 545a d0bd a3b1 82be da7b 66be 25be 90be
000003f0: b8d2 83bd dc20 043e 4af0 abbe f065 c83c
0.45579708 -0.042970736 0.093475096 0.06604148 -0.1744536 -0.08035304 -0.10621716 -0.3308157
0.2685362 0.14545016 0.24264765 0.4993066 0.20001437 -0.3847331 -0.395876 1.1324955
-0.042459626 0.40930885 0.23699139 -0.19187692 -0.4086902 0.07310831 0.06228698 -0.11943852
-0.14969146 -0.04566818 -0.09773729 0.21880886 0.1366424 -0.24246946 -0.32844785 0.06451046
-0.10033742 -0.10940074 0.9321095 -0.095422804 0.6562214 -0.15230231 -0.2848224 0.096527904
0.29433474 0.2442011 -0.34264576 -0.07662627 0.3185862 -0.17319538 -0.23066916 0.24744776
-0.2511851 0.21735236 -0.183473 0.13225189 0.28605804 -0.30297098 -0.10637212 -0.27818766
0.1923028 -0.07091605 0.13798419 -0.2030755 -0.29487658 -0.033386286 0.29702702 -0.08785627
-0.31259158 -0.02415936 -0.15350741 -0.109737605 0.2368176 -0.17076382 -0.17267281 -0.09655584
-0.31364515 0.120293856 0.032606572 -0.12996832 -0.14186032 -0.041663226 -0.29397863 -0.1902465
-0.3495467 -0.22778761 -0.3088861 -0.0444441 0.269893 -0.20286767 0.23150544 -0.13538022
0.08264256 0.002455115 -0.20250414 -0.0687711 0.0868335 0.14699443 0.20249395 0.11168262
-0.26633173 0.0014249682 0.25479165 -0.119266376 0.2373294 -0.12499018 -0.29353753 -0.22833434
-0.06557879 0.16303983 -0.33498672 -0.07049593 0.23970273 0.08749515 -0.19412053 -0.31449023
-0.31863886 -0.124652445 0.07850886 0.29059938 -0.005424158 0.059329286 0.18281953 -0.26108038
0.27781186 0.035212595 0.10457804 -0.24903147 -0.35534137 0.1090758 -0.20846288 0.40063256
0.053754896 -0.04358855 0.29102537 -0.2053832 -0.14970382 -0.40196097 -0.003543453 -0.16408357
-0.33030352 -0.2670505 0.20668553 0.04905215 -0.22188081 0.02000616 -0.15148282 0.076616034
-0.13862467 0.14408109 -0.3643615 -0.24503875 0.18100369 -0.22654185 -0.18934125 -0.035342436
-0.15589489 -0.25727782 -0.12907849 0.07703446 0.3147692 0.5656471 0.026927242 0.24600169
0.1891071 0.071409576 0.14472388 -0.0780602 0.50162506 0.17878431 0.1740549 0.025365429
-0.004195401 0.15473944 0.13552599 0.087120086 -0.069984816 -0.28027242 -0.086877674 0.28080067
0.29434398 0.2980595 -0.11534597 -0.056938294 0.15029512 -0.26402444 0.32030055 0.13709095
0.27588668 0.026246049 0.12688749 0.26763293 0.03712647 -0.100292794 -0.16954136 0.18976519
0.11006529 0.13779147 -0.21351257 -0.2899447 0.055172447 -0.08016765 0.14390485 -0.097786255
-0.086569354 0.021430671 0.007473225 0.268491 0.32429826 -0.2588314 0.22169787 0.2908167
-0.13695502 -0.20878646 0.29458997 -0.20662759 -0.10075289 -0.10640115 -0.088577695 0.2938653
0.30718225 0.19246979 0.19681163 0.11728999 0.14697482 0.21013899 0.0022131454 -0.033408426
-0.34945333 0.24583693 -0.22621015 -0.2472585 -0.3387669 0.043516755 -0.007863703 -0.20086385
-0.27547085 -0.32570434 -0.062031526 -0.3429071 -0.055313 -0.25059775 -0.20270821 -0.18859586
-0.060367145 0.11193113 -0.31577206 0.16350964 -0.11666898 0.12378241 0.10739769 -0.31997484
-0.10173479 -0.2552615 -0.22508183 -0.2827007 -0.06436676 0.1290316 -0.33581764 0.02446267
