deployment/models/edge_model.tflite (tflite, 15468 bytes, 5 tensors)

arith.constant f4 [1, 32]
-0.26717222 -0.26403856 0.0036991574 -0.13739836 -0.00061661645 -0.014207592 0.123414025 0.2456765
0.05657712 -0.14873613 -0.21094915 0.192328 0.0007187495 0.19077952 0.073789515 0.00031961524
-0.12930986 0.37992585 -0.01119413 0.0012721092 -0.020077568 0.18784714 -0.26360008 0.06052397
-0.18341418 -0.04275621 0.28439486 -0.26578063 0.20781416 -0.2684388 0.092309 -0.1983641
00000000: ccca 88be 1030 87be 906d 723b 28b2 0cbe
00000010: 6ea4 21ba f6c6 68bc 7ec0 fc3d 9f92 7b3e
00000020: 69bd 673d 494e 18be 0e03 58be a2f1 443e
00000030: 766a 3c3a b55b 433e f51e 973d 0892 a739
00000040: ce69 04be a485 c23e 9667 37bc e7bc a63a
00000050: b679 a4bc 005b 403e 97f6 86be fbe7 773d
00000060: edd0 3bbe 2321 2fbd 349c 913e 6614 88be
00000070: 3ccd 543e cf70 89be 800c bd3d f51f 4bbe

arith.constant1 f4 [32, 64]
-0.016761005 -0.12406525 0.08172888 0.24159333 -0.14401138 -0.21866423 0.22140676 -0.044239342
-0.09882032 -0.17792247 0.19086707 0.07721311 -0.059662018 -0.20570385 0.17129456 0.039527
0.09482974 0.062013056 -0.09923981 0.06584823 0.049285173 -0.11156762 0.15223822 -0.19888318
-0.1275444 0.026010096 -0.22548205 0.014419019 -0.03249085 -0.0021452296 0.03463637 0.23093915
0.046372045 0.09871864 0.17534614 0.06333212 0.13494843 -0.17591745 -0.0069745183 0.058848083
0.2104303 0.10598504 0.0640225 -0.08352101 -0.13243102 0.029776156 -0.23213392 0.09240834
0.04609382 0.016051054 -0.13542978 -0.02051355 0.10922724 -0.2562483 0.1723392 -0.11737168
0.12658209 0.101887375 0.016129732 0.0654282 0.13950795 -0.040156364 -0.09903291 -0.09424704
-0.084183276 0.20862587 -0.18077408 0.040929865 0.19778742 -0.07787609 0.23714393 -0.17586797
0.21304503 0.05934516 0.0003272891 0.1440494 -0.31048945 -0.2278282 0.18339601 0.021193802
-0.06507039 0.025534978 0.08152492 0.19940007 -0.17292787 0.20006335 -0.45889008 0.19397439
0.18599921 0.0029908663 -0.08283521 -0.17024893 -0.229437 -0.00661922 0.24032106 -0.56536144
-0.14960898 0.13055979 -0.11239379 -0.22170953 0.085944414 0.15311661 -0.07108212 0.11708222
-0.23080243 0.064968705 0.1552608 0.013483286 0.052574877 0.09707397 -0.02613113 -0.30057976
0.06455454 0.04802841 -0.27726236 0.14042222 -0.185391 -0.17874612 -0.08743251 -0.18813032
0.033212245 -0.013606068 0.19539736 -0.064068496 0.0034222007 0.0045140386 -0.12725684 0.027670188
0.033865094 -0.038427465 -0.19914573 -0.13682173 0.07864023 -0.2487128 0.20216167 -0.13198978
-0.047287147 0.10587352 -0.051742136 0.07268584 0.14955656 -0.148889 0.19464822 -0.15937048
-0.030267417 -0.03885375 0.101307146 -0.11505356 -0.14720547 -0.079288125 -0.28236547 0.2333112
-0.24933892 0.21383227 0.07567014 0.1933009 0.12276083 0.07654957 -0.10517239 -0.15333575
0.17733794 0.043497976 -0.17873377 -0.11863387 0.15667921 -0.12614822 -0.027510004 -0.08356611
0.026011946 0.0488135 -0.14788108 0.002714157 0.044941664 -0.027273774 0.07652851 0.048556495
-0.1975746 -0.09292966 -0.062121525 -0.19600387 0.10561345 -0.21453846 -0.16234685 0.07360891
0.1958614 -0.05635595 0.12288009 0.017095089 0.13861746 0.10096067 0.13371448 0.066056564
0.19860852 -0.1712318 0.16543376 -0.03379053 -0.029529035 0.12506008 0.2373442 0.14743507
-0.07332444 -0.24305815 -0.23466378 -0.15355414 -0.015961766 -0.13639629 0.19443333 0.110550046
-0.22172296 0.03358972 0.0068918467 -0.035262167 -0.2291795 -0.0060116053 0.22422433 0.014902651
0.23297042 -0.20884258 -0.0399943 -0.22648948 -0.028300464 -0.117574275 -0.17192936 -0.015835881
-0.24814242 0.20297247 0.16483957 -0.022349834 -0.029500067 -0.0350098 0.111680984 -0.10199565
0.1164546 0.058604598 0.21137786 0.13964266 -0.1278786 -0.11836058 0.08702552 0.053349197
-0.17140687 0.055431783 0.076539636 -0.021425664 -0.1973294 0.10444009 -0.13734788 -0.15551686
0.19700307 -0.24346286 -0.15271634 -0.06856954 -0.1512667 -0.16605592 -0.040642202 -0.05954522
00000000: 604e 89bc ec15 febd 7961 a73d 3e64 773e
00000010: b877 13be 84e9 5fbe 74b8 623e 5034 35bd
00000020: 4f62 cabd 4f31 36be a872 433e e821 9e3d
00000030: 2960 74bd 08a4 52be d767 2f3e 10e7 213d
00000040: 1836 c23d 6701 7e3d 3e3e cbbd 70db 863d
00000050: 40df 493d 907d e4bd 56e4 1b3e 08a8 4bbe
00000060: 009b 02be 2013 d53c c4e4 66be c03d 6c3c
00000070: 2015 05bd fb96 0cbb dede 0d3d 507b 6c3e
00000080: 9df0 3d3d 002d ca3d f08d 333e 45b4 813d
00000090: ec2f 0a3e b423 34be 808a e4bb b00a 713d
000000a0: 0a7b 573e af0e d93d 3a1e 833d 100d abbd
000000b0: ff9b 07be 20ed f33c 84b4 6dbe 9540 bd3d
000000c0: e0cc 3c3d 807d 833c 1bae 0abe 080c a8bc
000000d0: 88b2 df3d fa32 83be b079 303e 9060 f0bd
000000e0: bc9e 013e 54aa d03d 8022 843c 38ff 853d
000000f0: 2cdb 0e3e 007b 24bd c4d1 cabd 9804 c1bd
00000100: 4868 acbd 05a2 553e d71c 39be 13a6 273d
00000110: c988 4a3e 807d 9fbd dcd5 723e bc16 34be
00000120: 7a28 5a3e e913 733d 0098 ab39 b081 133e
00000130: 79f8 9ebe cc4b 69be 2acc 3b3e a09e ad3c
00000140: a043 85bd bb2e d13c 8af6 a63d 882f 4c3e
00000150: 0114 31be 68dd 4c3e a4f3 eabe 39a1 463e
00000160: 9476 3e3e 6902 443b 82a5 a9bd bc55 2ebe
00000170: 88f1 6abe 0be6 d8bb b916 763e 87bb 10bf
00000180: 1933 19be 77b1 053e b72e e6bd d307 63be
00000190: a003 b03d 9aca 1c3e 8193 91bd cec8 ef3d
000001a0: 7957 6cbe 500e 853d b0fc 1e3e 00e9 5c3c
000001b0: c158 573d b8ce c63d f410 d6bc 97e5 99be
000001c0: 2c35 843d 70b9 443d 55f5 8dbe d8ca 0f3e
000001d0: 23d7 3dbe 3909 37be d10f b3bd 3ca5 40be
000001e0: 9009 083d fceb 5ebc 3f16 483e 5836 83bd
000001f0: 0047 603b 80ea 933b 9e4f 02be 97ac e23c
00000200: 20b6 0a3d 1e66 1dbd dcec 4bbe ff1a 0cbe
00000210: 210e a13d 91ae 7ebe 7803 4f3e 5428 07be
00000220: 2bb0 41bd 37d4 d83d 90ef 53bd 50dc 943d
00000230: 5b25 193e 5c76 18be dd51 473e 0432 23be
00000240: 60f3 f7bc 1c25 1fbd 1f7a cf3d 33a1 ebbd
00000250: 08bd 16be d061 a2bd 3592 90be 22e9 6e3e
00000260: b452 7fbe d9f6 5a3e f2f8 9a3d acf0 453e
00000270: 086a fb3d 05c6 9c3d 9f64 d7bd 0c04 1dbe
00000280: 1498 353e ef2a 323d fc05 37be 50f6 f2bd
00000290: 8470 203e 002d 01be a95c e1bc b524 abbd
000002a0: 0117 d53c aaf0 473d 236e 17be 00e0 313b
000002b0: c014 383d 406d dfbc fbba 9c3d 2de3 463d
000002c0: ff50 4abe e851 bebd 2473 7ebd 3db5 48be
000002d0: dd4b d83d f8af 5bbe 413e 26be 45c0 963d
000002e0: e48f 483e 7fd5 66bd 8ea8 fb3d 000b 8c3c
000002f0: bcf1 0d3e 78c4 ce3d 73ec 083e aa48 873d
00000300: 0860 4b3e 6457 2fbe 7867 293e f067 0abd
00000310: e0e6 f1bc c00f 003e 5c0a 733e 38f9 163e
00000320: 202b 96bd 3ce4 78be b44b 70be 4c3d 1dbe
00000330: 40c2 82bc 78ab 0bbe 8819 473e 1068 e23d
00000340: 580b 63be 6095 093d 00d5 e13b 106f 10bd
00000350: 08ae 6abe 00fd c4bb 109b 653e 402a 743c
00000360: cc8f 6e3e d4da 55be 10d1 23bd dcec 67be
00000370: 60d6 e7bc c8ca f0bd 400e 30be 40ba 81bc
00000380: 0c19 7ebe 04d8 4f3e b4cb 283e 0017 b7bc
00000390: 20aa f1bc 7066 0fbd 00b9 e43d 18e3 d0bd
000003a0: c07f ee3d 600b 703d 7073 583e 7cfe 0e3e
000003b0: 9cf2 02be 0867 f2bd 703a b23d b084 5a3d
000003c0: 4885 2fbe 700c 633d d0c0 9c3d e084 afbc
000003d0: b810 4abe b0e4 d53d eca4 0cbe d03f 1fbe
000003e0: 2cbb 493e 544e 79be ac61 1cbe 306e 8cbd
000003f0: a8e5 1abe 900a 2abe 7078 26bd b0e5 73bd

functional_67_1/e1_1/BiasAdd/ReadVariableOp f4 [64]
0.0 -0.0419425 -0.07153039 -0.022192275 -0.07738207 0.019614477 0.0 0.0
-0.06746895 -0.082821384 0.0 0.0 -0.01852983 0.0 0.033682853 0.0
0.0 -0.12217949 -0.09273523 -0.01246503 -0.041035865 0.0 -0.08997523 -0.033792675
0.0 -0.059445072 -0.028972818 0.0 0.0 -0.0029785465 -0.06891987 -0.039268058
-0.06931841 -0.1203399 -0.08001481 -0.17024954 0.0 -0.09760246 -0.021917393 -0.006172654
-0.081471615 -0.09029867 -0.05048101 0.0 -0.064225554 0.0 -0.047882743 -0.08390998
-0.06682693 0.0 -0.033187613 -0.051970117 -0.019788917 -0.03255532 -0.044533234 -0.050275736
-0.07500317 -0.080325566 -0.08507879 0.0 0.0 0.0 -0.075132534 -0.06977343
00000000: 0000 0000 e6cb 2bbd 867e 92bd 93cc b5bc
00000010: 7e7a 9ebd 8aae a03c 0000 0000 0000 0000
00000020: 292d 8abd 429e a9bd 0000 0000 0000 0000
00000030: dfcb 97bc 0000 0000 08f7 093d 0000 0000
00000040: 0000 0000 3e39 fabd f8eb bdbd 203a 4cbc
00000050: 3915 28bd 0000 0000 ef44 b8bd 306a 0abd
00000060: 0000 0000 ad7c 73bd 6758 edbc 0000 0000
00000070: 0000 0000 b833 43bb dc25 8dbd 8bd7 20bd
00000080: cff6 8dbd c474 f6bd cede a3bd e555 2ebe
00000090: 0000 0000 cce3 c7bd 1b8c b3bc fa43 cabb
000000a0: 97da a6bd 82ee b8bd 2dc5 4ebd 0000 0000
000000b0: b088 83bd 0000 0000 b220 44bd ffd8 abbd
000000c0: 8fdc 88bd 0000 0000 bcef 07bd 9ede 54bd
000000d0: 5e1c a2bc ba58 05bd 7b68 36bd eeed 4dbd
000000e0: 439b 99bd bb81 a4bd ca3d aebd 0000 0000
000000f0: 0000 0000 0000 0000 16df 99bd 5fe5 8ebd

functional_67_1/e2_1/BiasAdd/ReadVariableOp f4 [32]
-0.007844358 -0.019566922 -0.059262887 0.0 -0.018382294 -0.01702255 0.041691467 0.014120496
-0.027511017 -0.027750282 -0.013225905 -0.011657686 -0.062079057 0.0085063595 0.03196479 -0.11169912
-0.020963648 0.0 -0.12842827 0.02554781 -0.042221148 0.0 -0.021276087 -0.017600425
-0.043025464 -0.04308752 0.0 0.0 0.016840346 -0.04698384 0.0 -0.006655552
00000000: 9f85 00bc cf4a a0bc a4bd 72bd 0000 0000
00000010: 7796 96bc e072 8bbc acc4 2a3d a759 673c
00000020: c95e e1bc 8f54 e3bc 77b1 58bc e1ff 3ebc
00000030: 9c46 7ebd 425e 0b3c 83ed 023d 82c2 e4bd
00000040: f5bb abbc 0000 0000 b382 03be a449 d13c
00000050: 15f0 2cbd 0000 0000 304b aebc c42e 90bc
00000060: 783b 30bd 8a7c 30bd 0000 0000 0000 0000
00000070: c4f4 893c 2172 40bd 0000 0000 d116 dabb

functional_67_1/e1_1/MatMul f4 [64, 19]
0.010823876 0.05840093 -0.24812886 0.049829572 0.25720048 0.1845549 0.21407089 -0.1227535
-0.2511149 -0.22660457 0.0045665503 -0.17642474 -0.086435825 -0.18050668 -0.08816314 0.14697197
-0.0889409 0.08561224 -0.18938753 0.13284533 0.062365875 0.061458975 0.06744938 0.2150009
-0.18229993 0.037973735 -0.18305604 0.13872132 -0.05838773 -0.04710207 -0.06768243 -0.0317727
-0.18339224 0.024947982 -0.06557629 -0.16853093 0.097265914 -0.22409543 -0.40275276 0.29221672
-0.2795794 0.2142073 -0.056617018 -0.2364456 -0.2751895 0.05210429 0.012178415 -0.3300569
-0.3074492 0.16169862 -0.1466414 0.05467279 0.12465892 -0.24468005 0.15023144 0.08657505
-0.0029255424 -0.5078946 -0.38501328 -0.08464757 -0.30866092 -0.058384094 -0.29073435 -0.12605765
-0.25105706 0.10491794 0.09511833 -0.044573203 0.06559484 -0.1295951 0.052528977 -0.08996787
-0.14838532 -0.14047107 -0.07208658 -0.08220151 -0.12770587 0.20435497 -0.121733405 -0.29551232
-0.11955965 -0.1989863 -0.1961638 0.0081420895 0.056246065 -0.31310353 0.04146502 -0.2505568
0.10488957 0.14915617 0.09466222 -0.1470683 0.039175272 0.016587384 0.08148023 0.02527503
0.7788792 0.08701619 0.9880237 0.1663401 -0.14845361 -0.102434196 -0.19667515 -0.04744917
0.19592921 0.12951604 -0.21348624 0.13046834 -0.17379425 0.037072565 0.18105002 0.043702316
0.04675968 -0.17825708 -0.19119787 0.11555475 0.0014564097 0.15526378 -0.2359394 -0.0005917251
-0.08662678 -0.049059883 -0.053689584 -0.12687267 0.14212388 0.21444747 -0.029319823 0.21411747
-0.26197633 -0.018668592 -0.0057446957 -0.21550684 0.12578696 0.2640102 0.24190497 -0.1019285
-0.097247586 -0.1356641 0.17113608 0.03234881 -0.16983254 -0.060289666 -0.19932783 0.06479928
0.06783271 -0.14687255 0.026577562 0.13422462 0.16675255 -0.24182236 0.023628652 0.023450017
0.07503805 0.08072906 0.05832261 0.11497619 0.049848497 -0.1344281 -0.08011665 -0.21886031
-0.055150878 -0.08161194 0.10800741 -0.26665103 0.026829803 -0.22008328 -0.20708591 -0.0707886
-0.32839283 0.0095707225 -0.18390076 0.25848076 -0.23941927 0.21310082 -0.13489138 0.037099883
0.035444368 0.014608199 -0.258722 0.13858674 -0.33371717 -0.29340088 -0.25954652 -0.21111572
-0.17896535 -0.2951065 0.15407287 0.0031250895 -0.044045713 0.07336215 0.013689518 0.025568783
-0.1657899 0.056569844 0.08036658 0.15135351 -0.08331376 -0.024628147 -0.26494512 -0.19375685
0.24750972 -0.25213054 -0.23430306 -0.016222358 0.018832684 0.15037051 -0.10251498 -0.05850613
0.2687555 -0.07745445 -0.15493974 -0.06705046 0.22183013 0.03572172 -0.26870897 0.20834836
-0.16503099 -0.23532978 -0.06658237 0.22576353 -0.11255731 -0.062072426 0.22271448 -0.0909259
0.25467867 0.08889711 0.13761419 -0.1702103 -0.16285959 0.27347502 -0.082232155 0.10762368
0.16964905 0.09903729 0.11578462 -0.22357154 -0.18350437 0.18039408 -0.039181095 0.025099458
0.039644383 0.09913168 -0.15251532 -0.039081544 -0.13075534 0.11063111 0.15936935 -0.12167522
-0.18245259 -0.12533735 0.060665697 -0.22884835 -0.1393402 -0.14736132 0.13819823 -0.2553442
00000000: a056 313c d035 6f3d 7e15 7ebe 181a 4c3d
00000010: c8af 833e f6fb 3c3e 6635 5b3e 3066 fbbd
00000020: 2292 80be 070b 68be 00a3 953b b0a8 34be
00000030: 4405 b1bd bed6 38be e08e b4bd d27f 163e
00000040: a626 b6bd 7855 af3d ceee 41be 9b08 083e
00000050: 5c73 7f3d 68bc 7b3d e722 8a3d 3229 5c3e
00000060: d5ac 3abe 598a 1b3d 0b73 3bbe f60c 0e3e
00000070: f927 6fbd 1aee 40bd 169d 8abd 1724 02bd
00000080: 2dcb 3bbe b65f cc3c dd4c 86bd 5f93 2cbe
00000090: 5a33 c73d 4679 65be 9c35 cebe 6e9d 953e
000000a0: 0825 8fbe 2959 5b3e 3fe7 67bd cc1e 72be
000000b0: a3e5 8cbe 4f6b 553d fa87 473c 38fd a8be
000000c0: fb69 9dbe 5394 253e 2a29 16be 93f0 5f3d
000000d0: 2d4d ff3d 688d 7abe 45d6 193e 434e b13d
000000e0: 75ba 3fbb 6105 02bf 7620 c5be b55b adbd
000000f0: ce08 9ebe 2924 6fbd 22db 94be 4215 01be
00000100: 8d8a 80be 38df d63d 66cd c23d 6492 36bd
00000110: 9656 863d 94b4 04be a028 573d 1341 b8bd
00000120: 52f2 17be a6d7 0fbe 21a2 93bd 4459 a8bd
00000130: 54c5 02be 6e42 513e 5d4f f9bd 644d 97be
00000140: b1db f4bd 11c3 4bbe 2adf 48be 6666 053c
00000150: 4662 663d 1b4f a0be 3ad7 293d fb48 80be
00000160: 58d0 d63d 65bc 183e 44de c13d 1399 16be
00000170: 4076 203d 44e2 873c 1bdf a63d 940d cf3c
00000180: a164 473f 8b35 b23d 1fef 7c3f 0f55 2a3e
00000190: 3904 18be 05c9 d1bd 3665 49be 105a 42bd
000001a0: aba1 483e da9f 043e 239c 5abe 7e99 053e
000001b0: 1ff7 31be 67d9 173d 2d65 393e 3301 333d
000001c0: 1487 3f3d 0689 36be 60c9 43be f8a7 ec3d
000001d0: 00e5 be3a 78fd 1e3e 199a 71be 001e 1bba
000001e0: 6269 b1bd 04f3 48bd 9ce9 5bbd e9ea 01be
000001f0: ec88 113e 1e98 5b3e 2030 f0bc 9c41 5b3e
00000200: c321 86be e0ee 98bc 003e bcbb d3ad 5cbe
00000210: 4cce 003e 582c 873e f0b5 773e e4bf d0bd
00000220: be29 c7bd 88eb 0abe 4c3e 2f3e 3080 043d
00000230: 95e8 2dbe 4cf2 76bd 981c 4cbe 7cb5 843d
00000240: e0eb 8a3d c265 16be 30b9 d93c 2e72 093e
00000250: 2ec1 2a3e 48a0 77be e090 c13c 401a c03c
00000260: 8dad 993d 4755 a53d b0e3 6e3d a378 eb3d
00000270: f02d 4c3d 85a7 09be 3314 a4bd eb1c 60be
00000280: e3e5 61bd 2924 a7bd fd32 dd3d 7c86 88be
00000290: 2dca db3c 835d 61be 540e 54be 9df9 90bd
000002a0: 1b23 a8be 85ce 1c3c 7b50 3cbe 9757 843e
000002b0: 532a 75be 1a37 5a3e f720 0abe 0cf6 173d
000002c0: 1d2e 113d 3a57 6f3c 3677 84be afe9 0d3e
000002d0: fadc aabe a438 96be 48e3 84be b82e 58be
000002e0: b142 37be 3318 97be 47c5 1d3e 4dce 4c3b
000002f0: 4769 34bd e53e 963d 004a 603c a075 d13c
00000300: d4c4 29be c8b5 673d 3c97 a43d 6afc 1a3e
00000310: 68a0 aabd f8c0 c9bc e3a6 87be 3268 46be
00000320: 3073 7d3e 4117 81be 24ed 6fbe c0e4 84bc
00000330: 0047 9a3c bafa 193e 60f3 d1bd 20a4 6fbd
00000340: 529a 893e 70a0 9ebd 86a8 1ebe c051 89bd
00000350: 7027 633e f050 123d 3994 89be 4659 553e
00000360: e2fd 28be 4afa 70be 565c 88bd 8e2e 673e
00000370: 7284 e6bd a83f 7ebd 440f 643e 5c37 babd
00000380: 3e65 823e b00f b63d bcea 0c3e 9c4b 2ebe
00000390: aac4 26be eb04 8c3e 5569 a8bd ce69 dc3d
000003a0: 7bb8 2d3e 10d4 ca3d 7d20 ed3d f0ef 64be
000003b0: 92e8 3bbe 3ab9 383e 5b7c 20bd 619d cd3c
000003c0: 2662 223d 8d05 cb3d fa2c 1cbe f813 20bd
000003d0: bae4 05be 9092 e23d b831 233e dc30 f9bd
000003e0: dad4 3abe 6f58 00be 987c 783d 3957 6abe
000003f0: 33af 0ebe e3e5 16be d683 0d3e 7abc 82be
