deployment/models/edge_model.tflite (tflite, 15468 bytes, 5 tensors)

arith.constant f4 [1, 32]
0	0x3e71add5	0.23601468
1	0xbb6ff16b	-0.0036612402
2	0x3e2cf1f5	0.16889174
3	0xbe669f81	-0.22521783
4	0xbe438b75	-0.19096167
5	0x3ec3a964	0.38215172
6	0x3e5aad44	0.21355158
7	0xbd454693	-0.048163008
8	0x3eab82ad	0.33498135
9	0xbebf6372	-0.37380558
10	0xbe70674e	-0.23476908
11	0xbd9f4cfd	-0.07778356
12	0x3c87be2c	0.016570173
13	0x3b95c7e0	0.004570946
14	0x3d4cec78	0.0500302
15	0x3b8ac72e	0.00423517
16	0xbe8945f7	-0.2681119
17	0xbc007a04	-0.007841591
18	0x3d070a98	0.032969087
19	0xbeaaa86b	-0.33331618
20	0x3b33c7cb	0.0027432318
21	0xbe69421f	-0.2277913
22	0x3bb14207	0.0054094824
23	0x3d8ae9e1	0.0678289
24	0x3b5c761a	0.003363973
25	0xbe496bc0	-0.1967001
26	0x3c935101	0.017982962
27	0x3c4370dd	0.011928764
28	0x3d6ef5b5	0.058339793
29	0xbce9c27c	-0.02853512
30	0x3e9f9a85	0.31172577
31	0xbe34883a	-0.17630091

arith.constant1 f4 [32, 64]
0	0x3e2ab530	0.1667068
1	0xbe729d56	-0.23692831
2	0xbb547297	-0.0032416934
3	0x3e10e81e	0.14151046
4	0x3e63eab9	0.22257508
5	0x3d16d864	0.03682746
6	0xbd5209c0	-0.05127883
7	0xbe3aa8d8	-0.18228471
8	0xbd5c6500	-0.05380726
9	0x3b882d26	0.0041557727
10	0x3e62fe38	0.2216729
11	0xbe2a8007	-0.16650401
12	0xbdfbd63f	-0.122967236
13	0x3e62fa8e	0.22165892
14	0x3dc3c668	0.09559327
15	0x3e479b97	0.19492947
16	0xbe44f40e	-0.19233724
17	0xbe5e8f20	-0.21734285
18	0x3e3cf2c4	0.18451983
19	0x3df42be7	0.11922436
20	0x3ce55f9b	0.02799969
21	0xbd20fa47	-0.039301183
22	0xbde269dd	-0.11055348
23	0x3e5e7c72	0.2172716
24	0x3d420c9d	0.04737531
25	0x3dddf608	0.10837942
26	0x3e7d464f	0.24733852
27	0x3cf6e93d	0.030140514
28	0xbd82b7de	-0.06382726
29	0xbe76af44	-0.24090296
30	0xbe418b29	-0.18900742
31	0xbe7582c0	-0.23975658
32	0xbe6e962e	-0.23299477
33	0x3e665944	0.2249499
34	0x3d00cef0	0.03144735
35	0x3eb7a680	0.35869217
36	0x3e46c2b4	0.19410211
37	0x3b5f2084	0.003404648
38	0xbe04ae85	-0.12957199
39	0x3e0504e1	0.12990142
40	0x3c8b4bd1	0.017003926
41	0x3e0d887b	0.13821594
42	0xbdd6a4c9	-0.10480649
43	0xbdcb909a	-0.0993969
44	0xbdc4bc37	-0.09606212
45	0x3db2a2d8	0.08722466
46	0xbe7034a4	-0.23457581
47	0xbdfa91df	-0.12234854
48	0x3cb66080	0.022262812
49	0xbdcab3e0	-0.0989759
50	0x3cad427e	0.02114987
51	0x3e0d1c64	0.13780361
52	0xbda5b4b1	-0.08091105
53	0x3e320dc8	0.1738807
54	0xbe14ed61	-0.14543678
55	0xbe7ea7c4	-0.24868685
56	0xbd8ff5d1	-0.07029308
57	0x3e11a696	0.14223704
58	0xbe41d96d	-0.18930598
59	0x3e3e7818	0.186005
60	0x3db152c5	0.08658365
61	0x3dc263a0	0.09491658
62	0xbce1eb56	-0.027578037
63	0x3e2f99c6	0.17148504
64	0xbe1da203	-0.15393834
65	0x3df1db8b	0.118094526
66	0xbdc966b4	-0.09834042
67	0xbe498d3e	-0.19682786
68	0xbdcaf065	-0.09909133
69	0xbe87f916	-0.26557225
70	0x3e69a6a0	0.22817469
71	0xbe1fb228	-0.15595305
72	0xbc8dedac	-0.017325245
73	0xbdebc49b	-0.11512109
74	0xbe732b71	-0.2374704
75	0x3d087418	0.03331384
76	0x3c341329	0.010990896
77	0x3d83dbf8	0.0643844
78	0x3e68d748	0.22738373
79	0xbd70a85c	-0.05875431
80	0x3df6c886	0.120499656
81	0x3dabb873	0.0838479
82	0xbe3b131c	-0.18269008
83	0xbd3b1460	-0.045673728
84	0xbd9ad268	-0.07559663
85	0xbdcabb1f	-0.09898972
86	0xbd40e199	-0.047090147
87	0x3e1f0f6a	0.15533224
88	0xbe44ed4a	-0.19231144
89	0xbdec744b	-0.115456186
90	0xbdef23d4	-0.116767555
91	0x3ae5c770	0.001753075
92	0xbcd96b18	-0.026540324
93	0x3e4e6124	0.20154244
94	0x3e2bd738	0.16781318
95	0x3d5cb570	0.05388397
96	0x3e00b223	0.12567954
97	0x3e76155c	0.24031585
98	0x3e0a3394	0.13496238
99	0xbd36164b	-0.044454854
100	0xbe33d4a5	-0.17561586
101	0xbe88b469	-0.26700142
102	0x3e244c54	0.16044742
103	0xbd383406	-0.04497149
104	0x3dc47715	0.095930256
105	0xbe7f952a	-0.24959245
106	0x3db8ee83	0.090298675
107	0xbdefb8dd	-0.11705182
108	0x3e280222	0.16407064
109	0xbe365f1a	-0.17809716
110	0x3e2e72dc	0.17036003
111	0x3e7f7045	0.24945171
112	0xbb8fd980	-0.0043899417
113	0xbe50d8b8	-0.20395172
114	0x3da94e0f	0.082668416
115	0xbc43f480	-0.011960149
116	0xbe05ca30	-0.1306541
117	0xbde5c6a0	-0.11219525
118	0xbe3de27b	-0.18543427
119	0xbe109d54	-0.14122516
120	0x3e07f661	0.1327758
121	0x3e3b5e8f	0.1829779
122	0x3e4f8b37	0.2026795
123	0x3e36d16e	0.17853329
124	0xbe5da2ac	-0.21644086
125	0xbd59cbce	-0.05317288
126	0xbdf2454c	-0.118296236
127	0x3dcfe47d	0.101510026
128	0x3d689e00	0.056791306
129	0x3d2f03e0	0.042728305
130	0x3e064f3f	0.13116167
131	0xbc2ecd7d	-0.010669109
132	0xbc777903	-0.015104535
133	0x3d502382	0.050815113
134	0xbd3dd640	-0.046346903
135	0xbde74a98	-0.112935245
136	0x3e38aa4b	0.18033712
137	0xbe4069a1	-0.18790294
138	0xbe0b2687	-0.13588916
139	0xbc90c5ee	-0.017672505
140	0x3dde9fa8	0.10870296
141	0x3e26aff9	0.16278066
142	0xbd5523e0	-0.052036166
143	0x3def623b	0.11688658
144	0xbe61393b	-0.21994488
145	0x3dc9f79a	0.098616794
146	0xbd18a770	-0.037269056
147	0x3dc1a3c0	0.09455061
148	0xbe2220c8	-0.15832818
149	0x3e06cb32	0.1316345
150	0x3df3168a	0.11869533
151	0x3d97aaa8	0.07405597
152	0xbcf10d9c	-0.029425435
153	0xbc8fa6a0	-0.017535508
154	0xbdc6df0a	-0.0971051
155	0xbe3edb8a	-0.18638435
156	0xbe326250	-0.17420316
157	0xbd8f7ba8	-0.070060074
158	0x3edccef5	0.43126646
159	0x3c36c900	0.011156321
160	0xbdca9ef8	-0.09893602
161	0x3e56887c	0.20950502
162	0xbe10fdfc	-0.14159387
163	0x3e71e3e1	0.23622085
164	0xbcf32740	-0.029681802
165	0x3e8b2a20	0.27180576
166	0x3c9b38ed	0.018948043
167	0xbe7a3077	-0.2443255
168	0x3e6109ca	0.2197639
169	0xbc6c3156	-0.0144160595
170	0xbd73b723	-0.059500825
171	0x3e077d50	0.13231397
172	0x3ce62b33	0.02809677
173	0x3dff72d0	0.124730706
174	0xbe791a4c	-0.24326438
175	0xbcda4c5d	-0.026647741
176	0xbde8fbb8	-0.113761365
177	0xbd6131f0	-0.054979265
178	0xbe52350f	-0.20528053
179	0x3df91fc8	0.12164265
180	0x3dd98b46	0.106222674
181	0xbe3d9a08	-0.1851579
182	0xbe3e07ec	-0.1855771
183	0x3e0fa290	0.14026856
184	0xbf0516ba	-0.51987803
185	0x3df82e71	0.12118233
186	0xbd955de7	-0.07293301
187	0x3ddf98fe	0.10917853
188	0x3e5d00cc	0.21582335
189	0x3e04fcdb	0.12987082
190	0x3e2b1861	0.16708519
191	0xbdf502b9	-0.1196341
192	0xbdb65910	-0.08903706
193	0xbe6f48b4	-0.23367578
194	0xbd21033c	-0.039309725
195	0xbe0be67d	-0.13662143
196	0xbd974e14	-0.07387939
197	0xbe6ae242	-0.22937873
198	0xbe050fd0	-0.12994313
199	0xbdd511a0	-0.10403752
200	0x3e12ca06	0.14334878
201	0xbcf423e4	-0.02980227
202	0xbd234104	-0.039856926
203	0x3e24bdaa	0.16087976
204	0xbde30aaa	-0.110860184
205	0xbd9faae8	-0.0779627
206	0x3e193164	0.14960247
207	0xbe311ab9	-0.1729535
208	0x3d14b7e4	0.036308184
209	0xbe819b23	-0.25313672
210	0x3e1ea030	0.15490794
211	0xbd1cb62f	-0.03825968
212	0x3d93179d	0.07182238
213	0x3de2cf0f	0.110746495
214	0xbd2df879	-0.04247329
215	0x3e0992d1	0.13434912
216	0x3d960455	0.07325045
217	0x3dd136c4	0.10215524
218	0xbdfd7131	-0.12375105
219	0x3d970579	0.07374091
220	0x3e51a9df	0.20474957
221	0xbe329274	-0.1743868
222	0x3caf5149	0.021401064
223	0xbe7a5914	-0.24448043
224	0x3e3ef7a2	0.18649152
225	0x3e25ccf0	0.16191459
226	0xbd13cb20	-0.036082387
227	0x3d572733	0.052527618
228	0x3e2439fe	0.16037747
229	0xbc9a18bb	-0.01881062
230	0x3da45ba7	0.08025294
231	0x3e21d295	0.15802987
232	0xbe23aca3	-0.15983824
233	0xbe079db8	-0.13243759
234	0xbe6ef5ae	-0.23335907
235	0x3d4436de	0.047903888
236	0x3cb11039	0.02161418
237	0xbe4da1e5	-0.20081289
238	0x3e0428b8	0.12906158
239	0x3de6410d	0.11242876
240	0x3e6de3a0	0.23231363
241	0xbe69cef0	-0.22832847
242	0x3dad3292	0.08456911
243	0xbd8652c8	-0.06558758
244	0xbe5fb346	-0.21845731
245	0x3aa3d600	0.001249969
246	0xbd658a0f	-0.056039866
247	0xbe20a8f0	-0.15689445
248	0xbe56a55e	-0.2096152
249	0x3d622634	0.055212215
250	0xbe33fab2	-0.17576101
251	0x3e609762	0.21932748
252	0x3dc2ab20	0.09505296
253	0x3e2d6f70	0.16937041
254	0x3d9e70ef	0.07736384
255	0x3e132cb0	0.14372516

functional_16_1/e1_1/BiasAdd/ReadVariableOp f4 [64]
0	0xbcabc4ac	-0.020967804
1	0xbca74ede	-0.020423349
2	0xbddbd287	-0.10733514
3	0xbd131819	-0.035911653
4	0xbe1ca98e	-0.15299055
5	0xbc849558	-0.016184494
6	0x00000000	0.0
7	0x00000000	0.0
8	0xbdbf8c39	-0.09352917
9	0xbd3ce5d5	-0.046117622
10	0xbdcaad59	-0.09896345
11	0xbdccbec6	-0.09997325
12	0xbaa4eb44	-0.0012582322
13	0xbd665e93	-0.056242537
14	0x00000000	0.0
15	0xbdc91547	-0.098185115
16	0xbe02404a	-0.12719837
17	0xbc2193b8	-0.009861879
18	0x00000000	0.0
19	0xbe49d5ca	-0.1971046
20	0xbd901358	-0.070349395
21	0xbd520078	-0.05126998
22	0xbd920486	-0.07129769
23	0xbbd2d5a0	-0.0064341575
24	0xbd55dff5	-0.052215535
25	0xbd927c5f	-0.07152628
26	0x3cd5af0d	0.026084447
27	0xbe3905f3	-0.18068676
28	0x3ce2ca80	0.02768445
29	0x00000000	0.0
30	0x3d1a69ff	0.037698742
31	0x00000000	0.0
32	0xbdc0fc10	-0.09423077
33	0x00000000	0.0
34	0x00000000	0.0
35	0xbdbaed4d	-0.09127293
36	0xbcee4f77	-0.029090626
37	0x3c0a2f9d	0.008434203
38	0xbe42af33	-0.19012146
39	0xbda1b0f0	-0.07895076
40	0xbcfc0190	-0.030762464
41	0x3cabc83e	0.020969506
42	0xbdffa03e	-0.12481736
43	0xbe4b636b	-0.19862144
44	0xbe52b7f7	-0.2057799
45	0xbc914489	-0.017732875
46	0xbd61863a	-0.05505965
47	0xbe021cb9	-0.1270627
48	0x00000000	0.0
49	0x00000000	0.0
50	0xbd2a6b72	-0.041606374
51	0x00000000	0.0
52	0xbe1dd7a7	-0.15414296
53	0x00000000	0.0
54	0xbd448552	-0.047978707
55	0x00000000	0.0
56	0x3de018f8	0.109422624
57	0xbe645356	-0.22297415
58	0xbe518b89	-0.20463385
59	0xbdb91c14	-0.090385586
60	0xbd8dbb5e	-0.06920503
61	0xbdd28fb5	-0.10281316
62	0xbe41eb01	-0.18937303
63	0xbc55d007	-0.013050086

functional_16_1/e2_1/BiasAdd/ReadVariableOp f4 [32]
0	0x3c08552f	0.008321091
1	0x3bb569f5	0.0055363127
2	0x3d14160c	0.036153838
3	0xbcd5b098	-0.026085183
4	0xbd71bb5f	-0.05901658
5	0x00000000	0.0
6	0xba199bf6	-0.0005859727
7	0xbddb6c3a	-0.10714002
8	0xbdd4b46f	-0.103859775
9	0xbd35239d	-0.044223417
10	0xbcd487e4	-0.025943704
11	0xbe27ce67	-0.1638733
12	0xbea7232e	-0.32644027
13	0xbe180e67	-0.14849244
14	0x3dc98099	0.09838981
15	0xba9761d5	-0.0011549542
16	0xbcd3e951	-0.02586809
17	0xbdf5fcc0	-0.12011099
18	0xbd919af6	-0.071096346
19	0xbd23c4d0	-0.039982617
20	0xbe618aaa	-0.22025552
21	0xbd9514c1	-0.07279349
22	0xbd276fdd	-0.040878166
23	0x3d59564d	0.05306082
24	0xbd3e4d4c	-0.046460435
25	0xbcc7986d	-0.024364674
26	0xbd8f66b6	-0.070020124
27	0xbd646c28	-0.05576721
28	0x3e0d8e1e	0.13823745
29	0xbde38dc0	-0.11111021
30	0x3c448f45	0.011997049
31	0xbd925026	-0.07144193

functional_16_1/e1_1/MatMul f4 [64, 19]
0	0xbe310a85	-0.17289169
1	0x3c5fecb5	0.013667275
2	0x3e0fd8a8	0.14047492
3	0xbc81d1c4	-0.015847094
4	0xbd913c35	-0.07091562
5	0xbdb3ff03	-0.08788874
6	0x3e532dc8	0.20622933
7	0xbbe93104	-0.007116439
8	0xbd4d50f7	-0.050126042
9	0x3dea49e1	0.114398725
10	0xbe351b14	-0.1768611
11	0xbdfd0229	-0.12353928
12	0x3e0c4c3d	0.13700958
13	0xbe1f5b48	-0.15562165
14	0x3e6a3111	0.2287028
15	0xbe815258	-0.25258136
16	0xbe2df2ec	-0.16987199
17	0xbe2c5acf	-0.16831516
18	0x3d973913	0.07383933
19	0x3d90d6a3	0.07072189
20	0x3e5cd974	0.21567327
21	0x3e282d54	0.16423541
22	0xbe2100cf	-0.15722965
23	0x3bec0e4a	0.007203852
24	0x3e54474e	0.20730326
25	0x3da674ac	0.08127722
26	0xbe7630e0	-0.24042082
27	0xbe8fbca5	-0.28073612
28	0xbe1665cb	-0.14687268
29	0x3b181eab	0.002321164
30	0xbddb16c0	-0.106976986
31	0xbe412de5	-0.18865164
32	0xbe5ff5c8	-0.21871102
33	0xbe8c2cbe	-0.27377886
34	0x3d0902e7	0.033450034
35	0x3b0030d1	0.0019560347
36	0x3e028124	0.12744576
37	0xbd77ade0	-0.060468554
38	0xbd5d1e64	-0.05398406
39	0x3e9849b3	0.29743728
40	0xbebd607b	-0.3698767
41	0xbd26f0e6	-0.040757082
42	0x3ceb0927	0.028690888
43	0x3d837034	0.064178854
44	0xbde947bf	-0.113906376
45	0xbd14fdb4	-0.036374763
46	0xbb4cdb86	-0.0031258776
47	0x3e1cefac	0.15325803
48	0x3daae052	0.08343567
49	0xbe9e6bc4	-0.30941594
50	0x3c4ca05e	0.012489406
51	0x3e8f4b78	0.27987266
52	0xbe7541ba	-0.23950854
53	0xbbb9a053	-0.005664864
54	0x3d190db9	0.037366603
55	0xbe4bf435	-0.19917376
56	0xbe8dffb4	-0.27734149
57	0xbe2fb657	-0.17159401
58	0x3cbcfe37	0.023070438
59	0xbd933bb0	-0.07189119
60	0x3e01adfa	0.12664023
61	0xbd4d5ddc	-0.05013834
62	0xbe2868e9	-0.1644627
63	0xbe6aee6b	-0.22942512
64	0x3df4d1e7	0.11954098
65	0xbe846738	-0.2586
66	0x3e00305e	0.1251845
67	0xbe0580c2	-0.13037398
68	0x3e1d45e1	0.15358688
69	0xbe263db2	-0.16234472
70	0x3dcd7fff	0.10034179
71	0xbe40b50c	-0.18819064
72	0xbe11efcd	-0.14251633
73	0x3d31b897	0.04338893
74	0x3e12aa06	0.14322671
75	0xbd50d260	-0.05098188
76	0xbd50db83	-0.050990593
77	0xbe7c7119	-0.24652518
78	0xbe900b1a	-0.2813347
79	0xbe2a1352	-0.16608933
80	0xbd16b9cb	-0.03679828
81	0xbe25e0f9	-0.16199102
82	0xbecec3f0	-0.40383863
83	0xbd0440ae	-0.032288246
84	0xbe899483	-0.26871118
85	0xbe45d401	-0.19319154
86	0xbc93f74c	-0.018062256
87	0xbc24de01	-0.0100626955
88	0xbdcf3ef5	-0.1011943
89	0xbee19494	-0.4405867
90	0xbeb3709f	-0.3504686
91	0x3e0cfa41	0.1376734
92	0x3b6eaaff	0.003641784
93	0xbe66e61c	-0.22548717
94	0x3d0b3903	0.033989917
95	0xbe0b637f	-0.13612173
96	0x3cc6d42e	0.024271097
97	0xbd975a7d	-0.07390306
98	0xbe7791d1	-0.24176718
99	0xbe094b95	-0.13407739
100	0x3d9e57eb	0.07731613
101	0xbe5ae06a	-0.2137467
102	0x3d00b097	0.03141841
103	0xbe06bcda	-0.13157979
104	0x3da19738	0.07890171
105	0x3e0a45e9	0.13503231
106	0xbddf1606	-0.108928725
107	0x3d9077eb	0.070541225
108	0xbdd9cc64	-0.106346875
109	0x3e25c8c4	0.16189867
110	0x3d8f99ff	0.07011794
111	0x3ab1e2a1	0.0013571569
112	0xbe68148c	-0.22664088
113	0x3e45e2f2	0.19324854
114	0xbe39fa4c	-0.18161887
115	0x3e603406	0.21894845
116	0xbdec9174	-0.115511805
117	0xbe58dfdc	-0.21179146
118	0x3de5b458	0.112160385
119	0x3e602b8e	0.21891615
120	0xbe83e365	-0.25759426
121	0xbe0a155d	-0.13484712
122	0xbda82ba2	-0.08211447
123	0x3e2ca9e4	0.16861683
124	0xbe05a9d3	-0.13053064
125	0x3e35d0e0	0.1775546
126	0x3e5b1686	0.21395311
127	0x3e471c2e	0.19444343
128	0xbe58d9e0	-0.21176863
129	0x3e577f16	0.21044573
130	0xbd9e338c	-0.077246755
131	0xbd6340e8	-0.05548182
132	0x3e43dd16	0.19127306
133	0x3e31e9da	0.17374364
134	0x3e3a281e	0.18179366
135	0x3e084b4c	0.13309973
136	0x3df92c98	0.12166709
137	0xbc99a180	-0.018753767
138	0xbd3b6608	-0.0457516
139	0x3d99ab10	0.07503331
140	0x3e7f4c1c	0.24931377
141	0xbd9d6430	-0.07685125
142	0xbda0c9b4	-0.07850972
143	0x3c679500	0.014134645
144	0x3e6b4c72	0.2297838
145	0xbe6b26db	-0.22964041
146	0x3e010b54	0.12601978
147	0xbd613db4	-0.054990485
148	0x3e1f96a0	0.15584803
149	0xbe839bc0	-0.25704765
150	0x3dac53c4	0.084144145
151	0x3e780784	0.24221617
152	0xbdbbe58c	-0.09174642
153	0x3e747c91	0.23875643
154	0x3e3a89c7	0.1821662
155	0xbdd3c9e5	-0.10341243
156	0xbe3006c5	-0.17190082
157	0xbd98791e	-0.07444976
158	0xbdb371cb	-0.08761939
159	0x3e0a465e	0.13503405
160	0xbde99ec4	-0.11407235
161	0xbe592829	-0.21206726
162	0xbc8a71fa	-0.016900051
163	0xbeb94821	-0.36187842
164	0xbe118537	-0.14210974
165	0x3d8095d2	0.06278576
166	0x3e33d9d0	0.17563558
167	0xbe7fa2a4	-0.24964386
168	0xbea3c5e0	-0.31986904
169	0x3e1ffaba	0.15622988
170	0xbdd9581d	-0.106125094
171	0xbe0c101b	-0.13678019
172	0xbdf69beb	-0.12041458
173	0xbe8effab	-0.27929434
174	0x3e842159	0.25806692
175	0x3e5871b1	0.2113712
176	0xbb9c6f26	-0.004773992
177	0xbe0c94c2	-0.13728622
178	0x3dbfb9f3	0.09361639
179	0x3e526edd	0.20550103
180	0xbddc5a8d	-0.10759459
181	0x3e079bba	0.13242999
182	0x3e19b1cc	0.1500923
183	0x3e133127	0.14374219
184	0xbe3515dc	-0.1768412
185	0x3c95b096	0.01827268
186	0x3d8c198c	0.0684081
187	0x3e1a0864	0.15042263
188	0x3e228ab9	0.15873231
189	0xbe1bc7fd	-0.15213008
190	0x3e11fc73	0.14256458
191	0xbdac56c0	-0.08414984
192	0xbe3c0649	-0.18361773
193	0xbd8985c2	-0.067149654
194	0xba939bc6	-0.0011261634
195	0xbc21624b	-0.009850095
196	0xbe8573bc	-0.2606486
197	0x3d9e560e	0.077312574
198	0xbea68db6	-0.32529992
199	0xbe8f2819	-0.2796028
200	0x3e43d93f	0.19125842
201	0x3e25e992	0.16202381
202	0xbd865389	-0.06558902
203	0xbe0affc5	-0.13574131
204	0xbe04cbbd	-0.12968345
205	0x3e877257	0.26454422
206	0x3da9a6b6	0.08283751
207	0x3e0a2ae5	0.13492925
208	0xbe05ae63	-0.13054805
209	0xbda1d3a3	-0.079016946
210	0xbd2e0e01	-0.042493824
211	0xbe369b83	-0.1783276
212	0x3bcd685d	0.0062685446
213	0x3c39a825	0.011331593
214	0xbd2f6dcf	-0.04282933
215	0x3dd0c840	0.10194445
216	0xbe4c35e5	-0.19942434
217	0xbd856352	-0.065130845
218	0xbe8060f1	-0.2507396
219	0xbd9b1de3	-0.0757406
220	0xbeb9a0bf	-0.36255452
221	0x3c4777ec	0.012174588
222	0xbc80957d	-0.015696282
223	0x3ce24d20	0.027624667
224	0xbd867c56	-0.06566684
225	0xbe9963d3	-0.29958972
226	0x3d8a3305	0.067480125
227	0xbe96fc3c	-0.29489315
228	0xbed3e775	-0.41387525
229	0x3d6031a9	0.05473486
230	0x3d2f289f	0.04276335
231	0xbd506c9f	-0.05088484
232	0x3dfb7d4a	0.12279756
233	0xbde542c9	-0.11194379
234	0xbe1f6524	-0.15565926
235	0x3e180acc	0.14847869
236	0xbdccd884	-0.100022346
237	0x3d468714	0.048468664
238	0xbd8eb381	-0.069678314
239	0xbce85fb8	-0.028365955
240	0x3d49cce5	0.04926767
241	0x3dcf6116	0.101259395
242	0xbdc05bf0	-0.09392536
243	0xbe9fb0cb	-0.3118957
244	0x3d7a5308	0.06111434
245	0x3b5e51ac	0.0033923192
246	0xbdf57021	-0.119842775
247	0xbdc7a6f6	-0.09748642
248	0x3ba00a02	0.0048840055
249	0xbe5f6b4c	-0.21818274
250	0x3d7ef118	0.062241644
251	0xbe2e92d5	-0.170482
252	0xbe20bce0	-0.1569705
253	0x3d82258b	0.06354817
254	0x3ddf6a68	0.10908967
255	0xbe8e64fb	-0.27811417
