deployment/models/edge_model.tflite (tflite, 15456 bytes, 5 tensors)

arith.constant f4 [1, 32]
00000000: f8dc 64bd 6464 10bc c087 84bd a68a bb3d
00000010: 4ff7 523e 2b5f 1cbe 6a3b 66bc 5f0b 49be
00000020: 0ee4 9239 0efe 6dbe 478a 39bd f65c a03e
00000030: 5211 febd 4608 8cbe 8117 2f3e 44ae afbe
00000040: 9cc2 90bd cde4 d63c 49aa 813a 53ea c03e
00000050: 9440 2fbe ff6b 9e3d 8a46 cdbe 3824 963e
00000060: 9d02 3e3e 8aed 84be 1a48 1cbe 8747 993e
00000070: 590b 85bd d745 5a3e 16fb 8c3e 5271 f03a
-0.055874795 -0.0088129975 -0.06471205 0.091573045 0.20602153 -0.15270679 -0.014052251 -0.19633244
0.00028017204 -0.23241445 -0.045297887 0.31320924 -0.12405647 -0.27350062 0.1709881 -0.34312642
-0.07068369 0.026232148 0.0009892668 0.37678775 -0.17114478 0.07735442 -0.4009288 0.29324508
0.18555684 -0.25962478 -0.1526188 0.29937384 -0.06496305 0.21315704 0.27535313 0.0018344319

arith.constant1 f4 [32, 64]
00000000: c03e 7b3e 9bcc 87bb 58dc f8bd ca37 623e
00000010: b3e0 a43c 406a 0f3c 6023 b4bd 606a 0e3e
00000020: 2879 b0bd f6b9 b5bd d36d 23be 8ac1 04be
00000030: 71c6 103e 48c6 c73d 130c 123e 88b3 cdbd
00000040: 6816 efbd 8398 92bd 3c85 b6bd dbec ca3a
00000050: ffcb 5fbd b4b2 3a3e e22d ebbd 3e8a 69bd
00000060: 44cc 593e 3062 7a3d 003c f7bd cd20 9439
00000070: bf93 0bbe 0e0c 173e 2f66 403e e8f4 cabd
00000080: 20e5 383d 6f97 19be fedb 803e d425 01be
00000090: f2ef 283e b1cf 423e 88de a73d 7b33 82be
000000a0: 3f7e 3e3e 7a70 8b3e f462 51be 4d56 c13d
000000b0: 478f 1e3e f567 533e 6f1a b8bc 1cd4 37be
000000c0: f3ac 063e b3d1 873e b5e0 603d c8e0 5cbe
000000d0: 1ca2 733e 2c20 a63d 3054 4cbd 95ec 263e
000000e0: 33b6 b1bd 939f 023e e869 f63d d2d0 6fbe
000000f0: bdf7 3c3b 84d2 00be 4457 3f3c 281a f8bd
00000100: e01b a0bc 3f87 0bbe 00f6 85bd 1fde 22bd
00000110: 8728 fbbc 807f 513c 18a8 993d ec8a 70be
00000120: 28be 87bd a058 9dbd 26b8 ebbc 4704 133e
00000130: 3efd 80be 7802 68be 3afe ca3d 12fe f53d
00000140: a0a2 aabc 125e bbbd 424f de3d b1ce 20be
00000150: 6128 ed3d ade4 23bd 7f23 703d efe9 6abe
00000160: 5049 d03d 205f a13d 03c8 da3d 46c0 333e
00000170: c50c a03d e1af 5a3d 9045 20be 5185 82bd
00000180: 80c5 4f3e 83fa 92bd f8a4 27be 00a8 bdbc
00000190: 827c 0e3e 6ffa 483e 0c1e 04be 6312 f8bd
000001a0: d80e d23d 66e1 613c c08e 8d3c 34b4 84bd
000001b0: 3b84 493e 3008 a3bd 67d8 89bc 8081 22bd
000001c0: dd35 583e 3c03 263e 0172 f4bd 6853 df3d
000001d0: 08de f63d b8eb 3a3e 70ab bd3d c355 28be
000001e0: 9c4e 29be 43d8 533d 182e ba3d 38b2 56bd
000001f0: 38c6 21be 0035 90bb 6069 15be bdb0 c2bc
00000200: 1010 7cbe a0be cc3d 3c4f 283e 20a4 f03d
00000210: 24a8 7ebe 8c61 433e 7cf4 673e d0de cf3d
00000220: 9036 21bd 44da 453e 303d 72be 404d 63be
00000230: 7467 46be e402 2c3e 60b1 c23d 8078 ba3b
00000240: 704b 71bd a8ba 81bd 008a 4d3c 4097 dfbc
00000250: 400b 54be a03a b4bc 101c 613e 6850 dcbd
00000260: ac70 7cbe 0836 e23d c0f1 893c 9caa 01be
00000270: 30e6 653e 00ac 7a3b f4a4 663e 680c 5dbe
00000280: 08ba bebd 281e 51be 20e7 4ebd f05f 693d
00000290: a03b c5bc 1cbe 5abe f46a 093e a064 34bd
000002a0: 9c48 0c3e 0c87 0fbe 50af 4c3d 38ee ac3d
000002b0: 8888 c6bd a04b a93c 1c7f 723e b0f4 a9bd
000002c0: 608e 36bd 8058 d2bc 641f 193e 001b b6bb
000002d0: 808b e3bc c464 0c3e e429 49be 202c 36bd
000002e0: 0071 9f3c c0e3 bbbc c819 453e 30f1 0ebe
000002f0: b0bd 17be 7c85 09be 90e7 19be 40ce 1ebc
00000300: 009f 133d ffab bebd 185f 963d c10b cfbb
00000310: bebd 543e 78cf 273e b760 9d3c 2011 3ebd
00000320: 4099 0dbe 73a9 e5bd 2405 2c3e 9659 523e
00000330: 8e33 0a3d 54dd 533e ef1b 3e3d 09fe 173e
00000340: 4000 b0bd 57ad 9eb8 7bcf 69bc a2ec 5a3e
00000350: ba87 403e b176 cd3d bd4c c8bd 5431 793e
00000360: 5435 6c3e c896 9c3d c2b6 d1bd e81e 013e
00000370: 04cc 02be 5aa1 f8bd 17a7 75be cbc4 0b3d
00000380: 900b 7abd b2d8 163e 24fc 16be ecd1 77be
00000390: 3b16 a9bb 7a5d 4b3e c838 143e 3917 81bc
000003a0: 52eb dfbd 8cce 8dbe 6c45 56be 6f28 7e3e
000003b0: cf6c 173d fe34 95bd aac8 7ebd c0df 18bc
000003c0: 8af0 0e3e b139 273e 2493 92bc f001 5c3e
000003d0: c0ba 75be 88e8 eabd 80fc e23b 7b27 62be
000003e0: 5fcf 44be 0c3b 1ebe 28da 553e 0234 5f3e
000003f0: 446c 54bd dcda 02be 67ae 12be 3830 333e
0.24535656 -0.004144264 -0.12151402 0.22091594 0.020126676 0.008753359 -0.0879581 0.13907766
-0.08616859 -0.0887336 -0.15959863 -0.12964454 0.141382 0.09754616 0.14262418 -0.100440085
-0.116741955 -0.071579956 -0.08912131 0.0015481965 -0.054637905 0.18232232 -0.11483361 -0.057016604
0.21269327 0.061128795 -0.12071991 0.00028253198 -0.1363058 0.14750692 0.1878898 -0.099099934
0.045140386 -0.14999174 0.2516784 -0.12612087 0.16497782 0.1902454 0.08196741 -0.254299
0.18602847 0.2723425 -0.20447904 0.09440289 0.15484343 0.20645125 -0.022473542 -0.17952007
0.13151912 0.26527175 0.054901797 -0.21570122 0.23792309 0.08111605 -0.049884975 0.16301186
-0.0867733 0.12756185 0.12031919 -0.23419502 0.0028834187 -0.12580305 0.011678521 -0.12114364
-0.019544542 -0.13625811 -0.065410614 -0.039762612 -0.030658973 0.012786746 0.075027645 -0.23490494
-0.06628066 -0.076829195 -0.028774332 0.143571 -0.25193208 -0.22657192 0.09911771 0.12011351
-0.020829499 -0.09148802 0.10854961 -0.15703847 0.11579967 -0.040013004 0.0586276 -0.22940801
0.10170233 0.07879472 0.106826805 0.17553815 0.078149356 0.053390387 -0.15651536 -0.06373084
0.20290184 -0.071766876 -0.16371524 -0.023151398 0.13914683 0.19626783 -0.12902087 -0.12112882
0.102567375 0.013786649 0.017279983 -0.064796835 0.19679348 -0.07960546 -0.016826821 -0.039674282
0.21114297 0.16212171 -0.11935807 0.1090458 0.12054068 0.18253982 0.09261215 -0.16438965
-0.16533893 0.051719915 0.09090823 -0.052416056 -0.1579827 -0.0044008493 -0.14590979 -0.023765916
-0.24615502 0.09997296 0.16436476 0.11750054 -0.24868828 0.1908018 0.22651857 0.1014992
-0.039358675 0.19321543 -0.23656154 -0.22197437 -0.19375402 0.16797978 0.09506488 0.0056906343
-0.058909833 -0.0633443 0.012545109 -0.027293801 -0.20707417 -0.02200061 0.21983361 -0.10757524
-0.24652356 0.11045462 0.016838908 -0.12662739 0.22451091 0.0038249493 0.22523862 -0.21586764
-0.093128264 -0.2042166 -0.050513387 0.05697626 -0.024076283 -0.21361583 0.13419706 -0.044041276
0.13699573 -0.1401636 0.04997188 0.08443874 -0.0969401 0.020665944 0.23681301 -0.082986236
-0.044569373 -0.025676966 0.14953381 -0.005557418 -0.02777648 0.13710314 -0.19644886 -0.044475675
0.019463062 -0.022935748 0.19248116 -0.13959193 -0.14818454 -0.13429826 -0.1502974 -0.0096927285
0.036040306 -0.093101494 0.073423564 -0.00631854 0.20775506 0.16387737 0.019211156 -0.04640305
-0.13827991 -0.112139605 0.16798836 0.20541987 0.033740573 0.20689899 0.04641336 0.14843
-0.08593798 -7.566314e-05 -0.014270659 0.21379331 0.18801776 0.10032404 -0.09780262 0.24335223
0.23067218 0.07645947 -0.102399364 0.12609446 -0.12773138 -0.1214015 -0.23989521 0.034123223
-0.061046183 0.147311 -0.14744622 -0.24201173 -0.005160121 0.19859877 0.14474785 -0.015758144
-0.10933556 -0.27696645 -0.2092492 0.24820112 0.036969002 -0.07285498 -0.062203087 -0.00933069
0.13958946 0.16330601 -0.017892428 0.21485114 -0.2399702 -0.11470133 0.006927073 -0.22085373
-0.19219731 -0.15452212 0.20884001 0.21797183 -0.051861063 -0.127788 -0.14324342 0.17498863

functional_4_1/e1_1/BiasAdd/ReadVariableOp f4 [64]
00000000: 0000 0000 f02c e4bc 0000 0000 1118 8cbd
00000010: 109a d0bd 0000 0000 d85b 4dbc 0000 0000
00000020: 0000 0000 4bef 8abc e541 53bd 0771 ddbd
00000030: 841e 46bc 0000 0000 b9d3 82bc 47c6 b7bd
00000040: 0000 0000 fa2e 29be e0fa eebd 0a29 3fbd
00000050: 084e 6a3a 56e1 85bd 49c2 2dbc b228 6cbd
00000060: 0000 0000 0000 0000 d453 82bc 3475 e0bc
00000070: 518b 54bd a00b 57bd 6bc9 c4bb cb48 11bd
00000080: 0000 0000 e810 43bc 3a6a 0ebd 0000 0000
00000090: 6cd5 37bb bb41 8dbb 0000 0000 fc15 3cbd
000000a0: 9485 8cbc 3fbb b8bd 0000 0000 23d4 38bd
000000b0: feab 9abd 8c43 e3ba 7dde 9abd 0000 0000
000000c0: ef55 efbd a27e 7fbc f1fe a2bd 0000 0000
000000d0: 0000 0000 e5ff 8ebc 0000 0000 11ad abbc
000000e0: 59f2 adbd 6ede b7bd 0000 0000 0389 9abd
000000f0: f05b b9bc 0000 0000 caa5 a4bc 69c3 68bc
0.0 -0.02785346 0.0 -0.06840528 -0.10185635 0.0 -0.012534104 0.0
0.0 -0.016959807 -0.051576514 -0.10812574 -0.012092236 0.0 -0.015970098 -0.08973365
0.0 -0.16521826 -0.11668944 -0.046669997 0.0008938019 -0.0653712 -0.010605403 -0.057655998
0.0 0.0 -0.015909113 -0.027399637 -0.051890675 -0.05250132 -0.006005456 -0.03546981
0.0 -0.011905886 -0.034769274 0.0 -0.0028050793 -0.004310814 0.0 -0.045919403
-0.017153539 -0.09020089 0.0 -0.045124184 -0.07552336 -0.0017338856 -0.075619675 0.0
-0.116863124 -0.015594156 -0.079587825 0.0 0.0 -0.017456004 0.0 -0.020956548
-0.0849349 -0.08977972 0.0 -0.07545664 -0.022626847 0.0 -0.020098586 -0.014206746

functional_4_1/e2_1/BiasAdd/ReadVariableOp f4 [32]
00000000: fcf5 cfbb 620c 86bc 0000 0000 778f 753c
00000010: 37c9 aaba 84e4 f3bb 7e8a 40bd 0000 0000
00000020: 6867 cdbb 5202 d3bb a20b fdbc a9b8 1bbd
00000030: 79cd 0dbd 2238 bfbb 7b00 c7bc 0000 0000
00000040: 0000 0000 2241 95bb 50a2 1cbd e20a a8bb
00000050: 552d f1bb 7633 8bba 0000 0000 e00d 103b
00000060: 9122 383b d360 17bd 0000 0000 787e fc3a
00000070: 5809 62bb 2c6c 2ebd 3132 1bbd 0bfd 97bd
-0.0063464623 -0.016363326 0.0 0.014987818 -0.0013029937 -0.0074430127 -0.047007076 0.0
-0.0062684305 -0.0064394856 -0.030889336 -0.038017903 -0.034619782 -0.005835549 -0.024292221 0.0
0.0 -0.0045548836 -0.03824073 -0.0051282505 -0.0073601403 -0.0010620195 0.0 0.0021980926
0.0028096775 -0.036957573 0.0 0.0019263765 -0.0034490433 -0.04258363 -0.037889663 -0.07421311

functional_4_1/e1_1/MatMul f4 [64, 19]
00000000: 2ab6 0dbe 1002 883d a49d e9bd 0c95 c83d
00000010: a801 37be e62f 653e 00f9 01bb b038 67bd
00000020: 9d29 04be 8876 ee3d 7ac6 3e3e 34b4 80bd
00000030: b67c eebd 647c 743e e007 703e 5c57 d2bd
00000040: 683b 233d 2dd1 84be b055 dd3c 11c2 473c
00000050: 230e 433e 8888 54be 6817 6e3e 1120 623e
00000060: 9c8b 8a3c de7c a9bd b55f 43be 536b 443e
00000070: c55a 653e 7194 eabd 3939 66be 92e8 4f3c
00000080: 64e1 0bbd 6d21 293e eb5c 043e 10f9 20bd
00000090: 235e 9fbd a39b 92be 3c80 813d 58db 2fbe
000000a0: 08a4 a03d 56c5 493e 58ab 403e 804c 853b
000000b0: 7c65 cb3d 28cc c5bc 8a0a 71be e4a8 22be
000000c0: 7850 cfbc 70fb fd3c 920b 0a3e 0eee 523e
000000d0: e91c 22be c4cc 58be e2d1 88be 882f 80be
000000e0: 4ae7 a4bd 33a3 a63d b23a 85bd ff06 0dbe
000000f0: 959c 0dbf 2eda 263d e5da a6be 301c 76be
00000100: 4849 92be fa84 2f3e 8e2a 113e 1edb 773d
00000110: f3ec f13d 9387 9bbd 5c9c ef3b 97ee 043d
00000120: 1263 a23d 6dac 88be 903b d4bd 4230 1cbd
00000130: 0cde b0bf 72aa 06be 4c3c 5dbe fdc2 3abf
00000140: 7627 4cbe eab9 43bd 7d44 5b3d d321 43be
00000150: 1256 f33c 9093 08bc b4a3 d3bd bdcb 2dbd
00000160: 52d5 f9bc c513 e23d 4426 2c3e 2cc5 3cbe
00000170: 3fc9 29be b97d cbbd 4a66 8cbe 0600 563e
00000180: b2ad 523e f439 513e 6882 583d 5415 c93d
00000190: 1f57 43be 2000 85be 084a 163d 5e8c 65be
000001a0: 5c72 88be e83b b8bd d68a 0e3e 241a 4f3e
000001b0: 2c7c 46be 7656 1cbe 1fcd 0cbe 2083 41be
000001c0: d010 1e3d e887 2abd 4ef4 603e 30aa 7ebe
000001d0: 71d3 5e3d ab59 433e 65c3 9e3c 7d8f 2f3d
000001e0: 8ad7 913c 4535 933c bd2d 403e f071 bc3d
000001f0: 86aa e03d 2c20 e73d e1ed 743e 105b 6e3e
00000200: 5c6b 48bd 830c 65be 9cdb 81bc 80f2 363d
00000210: 0dba 38be fc2b 1cbe a0dd 1bbe bc7e a33d
00000220: e1fc 86be c07a 923b 608e 583e b099 85bc
00000230: ceb8 853e 27a9 35be 0234 e9bd 58ec 37be
00000240: b442 803e a463 7b3e ce3a 52be fe19 033e
00000250: 6239 303e f8f7 5c3e fb93 89be 1fe3 2dbe
00000260: 80a1 773b 4075 da3b 0040 c038 9085 32be
00000270: 785c 2a3e f4fd d93d c3e6 3dbe 6193 1fbe
00000280: eace 3bbe 3c0f f63d eea8 a0bd b098 68be
00000290: d4c0 eebd 8968 2abe 561b 39be 3480 93bd
000002a0: b09a f13c 4cb8 01be 2469 853e e1e3 d23d
000002b0: ee66 043e 0c95 a83d 5527 95bc 7364 a4bd
000002c0: 305f 05be eb04 89be f0ae 603d 2eaf 073e
000002d0: bf7f 8d3d 8162 92be fc92 cdbc 49ca 763d
000002e0: d3d7 f7bd e634 ee3d 06bd 243e f43b 6cbe
000002f0: d471 0d3e 42e0 67bd a158 54be 7130 1bbe
00000300: fc0f 2fbe 0d4c 613e e881 1c3e 99f3 fbbd
00000310: a55b 31be 5cbb 2c3e 3a76 d53d b1e5 60be
00000320: e197 78be c4ce e1bc abb5 3e3e e9b2 1dbd
00000330: 39d5 1bbe 38eb 57be 7688 353e 06f8 bc3c
00000340: 7642 ed3d e5a9 7c3e 178e da3e c21e 3cbc
00000350: 1f67 2d3f 7570 a9be 0560 08bf 83f0 6a3d
00000360: f60f dfbd b1d2 b23d 5e9a 99bd 21f1 62bd
00000370: 380a 87be 3777 96be b39e 0b3d 6b42 68bd
00000380: e31d dd3c 201f 953c 9b0c 13be 5b3b 34be
00000390: 79b6 873d aa57 25be 56f4 6cbe e04a e8bd
000003a0: 63c4 213e aee6 a9bd 96e1 3b3c a666 953d
000003b0: 5111 eb3d 8bc1 f2bd 8e4c e03d fe0d 82be
000003c0: fde9 183e 3448 fcbd c1ac 88be 9fca 113e
000003d0: bad0 dabd eab1 72bd 0a05 2d3e d2bb 3b3e
000003e0: 40d6 e23b 5886 e93d c81e 643e aa56 1c3e
000003f0: 10d2 b9bd 7e47 073e c2f7 873e 1afe 4fbe
-0.13839021 0.066410184 -0.11407021 0.097940534 -0.17871726 0.22381553 -0.0019832253 -0.056450546
-0.12906499 0.11643702 0.186304 -0.06284371 -0.116448805 0.23875576 0.23440504 -0.10270569
0.039851576 -0.25940838 0.027018398 0.012192265 0.19048361 -0.20755208 0.23251116 0.22082545
0.016912274 -0.0827577 -0.19079478 0.19181566 0.22397907 -0.11454094 -0.22482766 0.012689726
-0.034150496 0.16516657 0.1292607 -0.039300025 -0.07781627 -0.28634366 0.06323287 -0.17173517
0.078437865 0.19704184 0.18815362 0.0040679574 0.09931466 -0.0241452 -0.23539177 -0.15884739
-0.025306925 0.031003684 0.13480976 0.20598623 -0.15831341 -0.21171862 -0.26722628 -0.25036263
-0.080519274 0.081365965 -0.06505336 -0.137722 -0.5531705 0.040735416 -0.32588878 -0.2403419
-0.28571534 0.1714057 0.1417639 0.0605117 0.118127726 -0.07594218 0.0073123407 0.0324541
0.079290524 -0.2669405 -0.10362923 -0.03813196 -1.3817763 -0.13150957 -0.21605033 -0.7295378
-0.19936928 -0.047784723 0.053532112 -0.19055872 0.029704127 -0.008335963 -0.10333958 -0.042430628
-0.030497227 0.11038927 0.16811472 -0.1843459 -0.16580676 -0.09936089 -0.2742179 0.20898446
0.20574072 0.20432264 0.05285874 0.09818521 -0.19076203 -0.25976658 0.036691695 -0.22416827
-0.2664975 -0.08995801 0.13920149 0.20224816 -0.19383305 -0.15267357 -0.13750122 -0.18897676
0.038590252 -0.041633517 0.21968195 -0.24869609 0.054400865 0.19077174 0.01938028 0.04286145
0.017802972 0.017969737 0.18767448 0.09201419 0.10970025 0.11285433 0.23918869 0.23276925
-0.04893051 -0.22368054 -0.015851788 0.04466486 -0.18039723 -0.15251154 -0.15221262 0.07983157
-0.26364806 0.0044701993 0.21148062 -0.016308635 0.26117557 -0.17740308 -0.11386873 -0.17961252
0.2505089 0.24549729 -0.20530245 0.12802884 0.1720939 0.21578968 -0.26870713 -0.16981171
0.003778547 0.0066668093 9.1671944e-05 -0.17433763 0.16636837 0.10644141 -0.1854506 -0.15583564
-0.1834065 0.120146245 -0.07844721 -0.22714496 -0.11657873 -0.1664144 -0.18076834 -0.07202187
0.029492706 -0.1266796 0.26056778 0.10297371 0.1292989 0.082315534 -0.018207232 -0.08026972
-0.13024592 -0.26761565 0.054854333 0.1325042 0.06909131 -0.28590778 -0.025094502 0.060251508
-0.12101712 0.11631183 0.16087732 -0.23069745 0.13812953 -0.056610353 -0.20736934 -0.15155198
-0.17095941 0.22001667 0.1528393 -0.12302322 -0.17320116 0.16868347 0.104229406 -0.2196262
-0.24276687 -0.027564414 0.18623988 -0.0385007 -0.15218057 -0.21085823 0.17727837 0.023067486
0.11584942 0.24674185 0.4268653 -0.011481943 0.67735475 -0.3309361 -0.53271514 0.057358276
-0.10891716 0.087315924 -0.07500146 -0.05540574 -0.26374984 -0.2938783 0.034086894 -0.056703966
0.02699179 0.018203318 -0.14360277 -0.17600767 0.06626601 -0.16146722 -0.23140082 -0.11342406
0.15797572 -0.08295952 0.011467358 0.07294969 0.11477912 -0.11853322 0.10952102 -0.254013
0.1493301 -0.12318459 -0.266943 0.1423745 -0.10684343 -0.059251703 0.16896453 0.18333367
0.0069225132 0.11402577 0.22277367 0.15267435 -0.09073269 0.13210866 0.26556212 -0.20311776
