deployment/models/edge_modelS6.tflite (tflite, 239632 bytes, 11 tensors)

arith.constant f4 [1, 32]
00000000: 0cd6 2c3c b88d ef3d de69 d6bd 4b1f 0b3e
00000010: f891 223e dc20 053e 74ec 0d3e 7a5e f3bd
00000020: bcec 3b3d d8fd 1d3d 74fb 81be 5650 94be
00000030: afcb 803c 1210 a83e d7fa 2c3c a773 bd3c
00000040: f930 ae3d 1a4f bdbd e523 24be ea59 2e3e
00000050: 0efd 67bd 8d41 e93c 204a 863e b3ac fdbd
00000060: b197 d6bc f38f 44bd 58e2 57bb b93a 873d
00000070: f129 fcbd 8601 6f3e 3027 8fbd 4cac 57be
0.01054908 0.116969526 -0.10469411 0.13586156 0.15875995 0.13000816 0.13859731 -0.11883254
0.045880064 0.038572162 -0.25387156 -0.2896754 0.015722124 0.3282476 0.010557852 0.023126436
0.085054345 -0.09243603 -0.16029318 0.17026487 -0.056637816 0.02847364 0.26228428 -0.123864554
-0.026195379 -0.047988843 -0.0032941308 0.06602997 -0.12312687 0.23340425 -0.06989896 -0.2106182

arith.constant1 f4 [32, 128]
00000000: 5a77 e03d 835f ff3d 4207 7a3b 1510 24be
00000010: f04b 08be cdf9 34be 4f12 f5bd e5a5 9ebd
00000020: 4084 b13d 81b0 1abe 557b b4bd ba3c 8ebd
00000030: 3ed6 143e 61cb d13b c721 1c3d 2e64 57bd
00000040: 1d89 1e3e a0a2 c5bc 9fce 523e a75d debd
00000050: 8e40 89bd a00a 823c b3c1 83bd 9088 723d
00000060: d6ef 44be e2e6 9ebb 3465 35be 0f47 abbc
00000070: 7728 5d3b b0b2 6bbe 30ef 153e 07a7 e23d
00000080: 6d43 903d 6041 223c a008 093d be71 0cbe
00000090: 4c50 8d3d fe6e e53d 4558 7fbe 4893 073e
000000a0: 9467 903d 2bfe 6c3d 70e4 3dbe 8bff 08be
000000b0: c759 d4bd 519d fdbd 248e 223d 0020 67bd
000000c0: a7c6 14be a862 9a3d 6df0 d63d ca54 ad3b
000000d0: df1c e9bd 5aa6 babd ff54 033c 9bd0 cebd
000000e0: c953 b4bd d32f 2fbe 173d f3bd e89f 17be
000000f0: 3c69 923d 082c 183e 9fff 62bd 0080 4dba
00000100: 79d2 7ebd 61c3 ef3d 9890 fd3d 64ab cfbc
00000110: 1e28 933d 00fd 183e dd0c a2bc a539 f53d
00000120: 5b45 673c a8cb 343d e591 0dbd faac 853d
00000130: ff2f 93bd 7e0f 05be 3439 d63d c043 e63d
00000140: 71ec 823c eda0 583d 90d0 71bd 97be 52be
00000150: baa2 06bd 7b75 afbd 002c 0d3a 685e 923d
00000160: f8c1 91bc 1ee7 84bd 01d2 4cbe 3867 453e
00000170: 3868 533d d414 173d ba8e babd 00fc 46bd
00000180: 5b73 b23b 7c93 40be d386 0bbd 6292 8abd
00000190: 2110 4bbe f05b fcbc a68d 90bd 7109 d1bd
000001a0: 46d5 22be c147 5abe 85e8 07bd d4e5 9fbd
000001b0: 07a7 63be 1e93 2ebe e805 bd3d ff98 0f3e
000001c0: 40f2 e4bb 7f1e b33b b0af 17bc 1fc4 a8bd
000001d0: 39a6 67bd d860 bb3d fd78 b1bc badc 67be
000001e0: 4dbd 973c 7eb2 233e c65a 0c3e 1ef7 0c3e
000001f0: c82a a3bd 20be 463d f50c 0f3d 76ba 88bd
00000200: 25db 23be 2477 95bd cf5c 2fbd 3650 26be
00000210: 438c 4e3e 3725 633d 52da 223e d5bc 113e
00000220: 5e6a 423e 8068 3bbe be4c 053e e356 f53d
00000230: fbd0 1c3d 04da e93d 3fa6 9b3c 21d3 ca3d
00000240: 61ed d8bc bedf 8bbd 7e74 39be c4f2 5d3c
00000250: a7f2 07bd a48d ebbd 7a3d 8abc 046d de39
00000260: 6ac6 cebc 3fc1 eb3d d539 123e 8e78 d9bd
00000270: b03e 1c3c 15bc 12be fbde 583d 8b6e 70bd
00000280: a7da 33bd 5fd4 2e3d b702 2b3e 72e3 0c3e
00000290: 118e ae3d 0416 25be 5f9e 72be c968 03be
000002a0: 6080 9cbd 67f2 173e 717c 26be d16a 0ebe
000002b0: 083d c1bd 4427 f1bc 1674 ebbd b932 20bd
000002c0: 96ee 7bbd db67 72bd 87db 983d 2474 33be
000002d0: 1662 0bbe 8cad 41bc 5859 4b3e 232e 213e
000002e0: 8d6b 11be bb63 c23d e57f 963d b667 03bd
000002f0: d154 1d3e 28d9 913d 612d 1b3e d9c4 023e
00000300: ab77 5c3d ab3d fdbc 7f1d 8dbd aef4 8b3d
00000310: 683f 123e 0842 a9bc 70a4 ca3c e5bb abbd
00000320: 2062 b5bc f60d 013e 1b23 08be 08ee ffbd
00000330: 546c 073d 2386 843d e686 40bd fc9d f53d
00000340: 0be6 e5bd 9afb 18be f739 edbc c79a 81bd
00000350: d748 443d e4a3 a3bb e1f6 29bd 1014 18be
00000360: 32e0 d1bd 7462 5dbe 2e29 8f3d ba65 103e
00000370: 7dc2 8abe a032 2f3d 6ee3 0a3e f40d 253e
00000380: 9abb 1a3e a207 9c3c 4411 35bc 7b63 07bb
00000390: f146 263e 2e88 9a3d 4b6b ebbd db5d 1d3e
000003a0: 24a6 7a3d 801f a8bd 7c99 3f3e fe12 abbd
000003b0: 2eb8 e4bd 819b 703d d9c1 433e be44 17be
000003c0: e2dc f43b f4f6 223e 6fa4 09bd 31a4 96bd
000003d0: 3a68 27be 870b 42bd e5e4 bd3d a7bd 3bbe
000003e0: bfca d2bd cc42 81ba 463d 233e 67d1 073e
000003f0: 135f 023c 6602 7a3d 84e9 1cbe 13b5 1e3e
0.109602645 0.12469389 0.0038151299 -0.1602176 -0.13310218 -0.17673416 -0.11966383 -0.077464856
0.08667803 -0.15106393 -0.08812586 -0.069451764 0.14534852 0.0064024185 0.03811815 -0.052585773
0.15481992 -0.024125397 0.20586632 -0.108577065 -0.06701766 0.015874207 -0.064334296 0.059212267
-0.19232115 -0.0048493007 -0.17714387 -0.020907907 0.0033746043 -0.23017383 0.14642024 0.11067014
0.070441104 0.009903282 0.03345549 -0.13715264 0.06900081 0.11202811 -0.24936016 0.13239777
0.07051006 0.05785958 -0.18544173 -0.13378732 -0.10368686 -0.12383521 0.039686337 -0.056427002
-0.14528905 0.075383484 0.10495076 0.0052896487 -0.1138246 -0.0911376 0.00801587 -0.10098382
-0.08805043 -0.17108087 -0.11876886 -0.14807093 0.07148978 0.14860547 -0.05541956 -0.0007839203
-0.06221244 0.117071874 0.12381095 -0.02535028 0.07185386 0.14940262 -0.019781524 0.119738854
0.014115657 0.044139534 -0.034562964 0.06527133 -0.07186889 -0.12994191 0.104601294 0.11243391
0.015981885 0.052887846 -0.05903679 -0.20580517 -0.032870032 -0.085673295 0.00053852797 0.07146913
-0.017792687 -0.064893946 -0.20001985 0.19277656 0.051613063 0.036885098 -0.09109254 -0.04858017
0.0054458803 -0.18806261 -0.034064125 -0.067662016 -0.19830371 -0.030805558 -0.07058267 -0.10206879
-0.1590167 -0.21316434 -0.033180732 -0.07807508 -0.22231685 -0.17048308 0.09229642 0.14023207
-0.0069868863 0.005466282 -0.009258196 -0.08240532 -0.056555007 0.09149331 -0.021664137 -0.22642794
0.018522883 0.15986058 0.13706502 0.13766143 -0.07967144 0.04852116 0.034924466 -0.066761896
-0.16001566 -0.07298115 -0.04281312 -0.16241536 0.20170693 0.055455413 0.15903595 0.1423219
0.18985888 -0.18301582 0.13017556 0.11979463 0.038285237 0.11418536 0.01900017 0.09903551
-0.026480379 -0.06829785 -0.18110844 0.013546649 -0.033190396 -0.11501625 -0.016875017 0.00042424363
-0.025241096 0.11511468 0.14279874 -0.10618697 0.00953643 -0.1432956 0.052947026 -0.058699172
-0.043909695 0.042683 0.16700254 0.13758639 0.08523191 -0.1612168 -0.23693226 -0.12832941
-0.07641673 0.14838563 -0.16258408 -0.13907935 -0.09435469 -0.029437669 -0.11496751 -0.039110873
-0.06150683 -0.059181076 0.074637465 -0.17524773 -0.13611636 -0.011821162 0.198583 0.15740256
-0.14201184 0.09491678 0.07348613 -0.03208133 0.15364386 0.071214974 0.1515403 0.12770404
0.05382506 -0.030913195 -0.068903916 0.06833778 0.14282 -0.020661369 0.024736613 -0.083854474
-0.022141516 0.12602982 -0.13294642 -0.12496573 0.033062294 0.06470897 -0.04700365 0.11993024
-0.11225518 -0.14939728 -0.028958304 -0.063283496 0.047921028 -0.0049939025 -0.041495208 -0.14851403
-0.1024784 -0.21619588 0.06990276 0.14101306 -0.27101508 0.04277289 0.1356332 0.16118604
0.15110627 0.019046608 -0.01105148 -0.002065866 0.16238 0.075455055 -0.11495074 0.15367834
0.0611936 -0.08209133 0.18710893 -0.08353232 -0.11167942 0.05874205 0.19116916 -0.14772317
0.0074726203 0.15914518 -0.03360408 -0.07355536 -0.16348353 -0.047374275 0.09272174 -0.18334065
-0.10292577 -0.0009861826 0.15941343 0.13263474 0.007957238 0.061037444 -0.15323454 0.15498762

arith.constant2 f4 [128, 256]
00000000: dc4c a1bd 24b2 e9bd 64b6 94be 4d69 64bd
00000010: 352d d23d 2f90 06bd 1262 9b3d dad6 b83c
00000020: c323 1b3d ec4c 1abc b820 25be 12da 31be
00000030: 232c 3a3c b9ef c03d 2d6f 39bd 63a3 20be
00000040: 7b3e 76bd 725e 8cbc df95 1dbc b34e 8bbc
00000050: 1646 3ebe 6b9f 0cbe 717a fcbd 9402 a33d
00000060: 5852 70bd 4acd 90bc 29bb 58bd eb29 9abd
00000070: 1db2 20be 0149 333b 2543 5a3d 9070 86bc
00000080: 702f 53ba be67 a7bd 008d ef3d a89f 393c
00000090: 7751 ce39 f32b a2bd c208 c7bd 9f66 65be
000000a0: 2089 26be b1b1 933d c8de 29bd b335 2f3d
000000b0: 2048 64bd dba2 adbd a20a f3bc eb72 ad3d
000000c0: d186 403d eaa1 f5bd 291a 883d 24d8 51be
000000d0: 28b6 aebd c613 c23c 96a9 b9bd 0d11 a0bd
000000e0: 7e24 ad3c 00a3 833d e27c 2fbe 571c e13c
000000f0: 78f8 6bbc 63ef c6bd 78a7 283e cbb6 453d
00000100: 3bb6 13be 1d1a b4bd 89c5 893d 99ad b6bd
00000110: 2ce1 a53d 139e bd3c 9159 39bd 5eef 71bd
00000120: e7f3 363d 2083 4e37 0cf2 d4bd fe18 c5bd
00000130: dcd9 bfbc a658 edbd bcea 9c3d 80e7 6b3d
00000140: 6294 ddbd c905 f83c eaf5 37bd b885 95bd
00000150: dea9 99bc 7481 3b3d ad6b a93b f40c 0bbe
00000160: 51dd 8cbd b932 813b 4865 473d 2ad7 0bbd
00000170: 79a1 bc3b c7d1 98bd 65e2 cb3d 3a4b b63d
00000180: 8fd6 333d 0222 b33d a9d9 003e 2fb9 19bd
00000190: b386 943d 1761 02bd 6309 523c 1366 b63c
000001a0: 6c1c 653d 5486 20be 1a22 ebbd 92e0 d2bd
000001b0: 9528 083e 419c 53bd 4734 ddbd e7a0 a13d
000001c0: e8ab 4bbd eb1a 64ba 6428 a03d 5b94 823d
000001d0: ccc2 4dbd 953b 4cbd 3c34 423d dcd9 89bd
000001e0: ef94 04be 05d2 8e3d 5f94 833d a8ef a4bd
000001f0: 873c 253c 0f3e 613d 4960 193e 428f 453d
00000200: a03a 2b3c e52b 303d 0b00 0fbd 8fee 2b3c
00000210: de82 03be 70b2 2ebd 9ff1 183d 0c8a 913d
00000220: f0bf c33d f9fb 28be d6aa 2ebe c488 a0bd
00000230: 4d54 00be a3b8 ae3c e60b 6cbd ed58 5fba
00000240: 973f cabd bde3 4cbc a8f7 42bd 0468 ab3b
00000250: 816d d2bc 1788 743c 64ba a2bd 11b6 82bd
00000260: 4c2d 733d 5250 a03c d028 f3bd 5678 983c
00000270: 3a48 4b3d 106b d83d 407c ecbc 4a52 40b9
00000280: 0783 65bd a8a7 aebd ce3d b4bd d96a 88bd
00000290: e325 b2bc 02ae 00bd fb5f 443d ff49 95bd
000002a0: adb7 17be 3514 24bd 517b af3d 6aee e3bd
000002b0: 1b55 70bd 30e1 183b 5cbe fe3d 67d1 c3bd
000002c0: 5c57 b1be 6c9e 723d 859b 113c 4562 b43d
000002d0: c0fa 2b3d d3b3 113d b6bd b0bc 1d32 fc3d
000002e0: d6c4 e03d aa78 b3bd a392 85bd 56c2 9a3d
000002f0: 1907 f7bd 4213 ad3d 6ef9 1bbd 21dd 3c3c
00000300: d8a6 ffbd 70f2 3bbd 7102 5e3d 8f05 cc3d
00000310: a729 7a3d fd48 20bd 14f1 c83d 3d26 1cbc
00000320: 78d8 04be dc0f d8bd 1f9c fc3d 9317 a0bd
00000330: 040c cbbd 4351 0d3e a7dd 903d 4535 7c3c
00000340: 51ed 07be 15c5 88bb 265e babd f59f 9dbd
00000350: 15df 0e3d 4c49 b0bc fd11 883d fced b23d
00000360: f87e cbbd 3363 f0bd 6481 cb3d 2c04 d73d
00000370: d78d ac3c c8c4 a2bc 2b25 71bd 314a a53d
00000380: d78c 923d 9b6e 753d d7ea 563c d85b 1e3d
00000390: 1775 3a3d 6db1 02be 3986 83bc a5b5 8c3d
000003a0: f375 3d3d a6e4 833c 3bfb 7a3d 28b0 d43d
000003b0: 3146 bf3d e362 493d 6778 db3d 69ff 883d
000003c0: 9565 063e d4c3 02be 99f7 0f3e 3216 29be
000003d0: 4a22 48bd 0cf1 5dbc bff3 863c e4a4 ffbc
000003e0: 848f 95bd 7437 cabd 6b63 41bd bff4 3e3d
000003f0: fe6b b33c 29c2 fc3d 9d42 3fbd ff5a 55bd
-0.07875988 -0.11410931 -0.29045403 -0.055764485 0.10262529 -0.032852348 0.07587065 0.022563387
0.037875902 -0.009417754 -0.16125762 -0.17368343 0.011363062 0.094207235 -0.04527204 -0.15687327
-0.06011818 -0.017134879 -0.009618252 -0.0170053 -0.18581423 -0.13732688 -0.12328041 0.07959476
-0.05867228 -0.017676014 -0.052912865 -0.075275265 -0.15692945 0.0027356746 0.05328669 -0.016411096
-0.000805608 -0.08174084 0.116968155 0.011329569 0.00039352078 -0.07918539 -0.09718467 -0.22402428
-0.16263247 0.07211626 -0.041472226 0.04277582 -0.055732846 -0.08478328 -0.029668156 0.084691845
0.04700357 -0.11993773 0.06645615 -0.20492607 -0.08530837 0.02369107 -0.09065549 -0.07815752
0.021135565 0.06427574 -0.17137483 0.027479334 -0.014402501 -0.09713628 0.16470134 0.048270028
-0.14424984 -0.08794043 0.0672713 -0.0891983 0.08099589 0.023146665 -0.045251433 -0.05906617
0.044666197 1.2309087e-05 -0.10397729 -0.096239075 -0.023419313 -0.11589174 0.076619595 0.057593822
-0.108193174 0.030276196 -0.044912256 -0.073008955 -0.018757757 0.045777753 0.0051703067 -0.1357916
-0.0687815 0.003942814 0.048680574 -0.034140743 0.0057565537 -0.07461887 0.09955291 0.08901067
0.04390579 0.08746721 0.12583031 -0.03753012 0.07252254 -0.031830873 0.012819621 0.02226547
0.05593531 -0.15676242 -0.11481114 -0.1029674 0.13296731 -0.051662687 -0.10800987 0.07892018
-0.04972449 -0.0008701521 0.07820204 0.06375953 -0.0502346 -0.04986151 0.047413096 -0.067310065
-0.12947439 0.06973652 0.06424784 -0.08053523 0.010085232 0.054990824 0.14978136 0.048232324
0.010450989 0.04301061 -0.03491215 0.0104938885 -0.1284289 -0.04265064 0.037339803 0.071064085
0.095580935 -0.1650237 -0.17057356 -0.07838586 -0.12532158 0.021328276 -0.057628535 -0.0008520026
-0.0987541 -0.012505469 -0.047599465 0.0052309055 -0.025686981 0.0149250245 -0.079457074 -0.06382383
0.05936937 0.01956955 -0.11873019 0.018612068 0.049629427 0.105672956 -0.02886784 -0.00018341202
-0.05603316 -0.08528072 -0.08800851 -0.066610046 -0.021746581 -0.031415947 0.047943097 -0.07289504
-0.1481616 -0.040058333 0.085684426 -0.11129458 -0.058674913 0.0023327582 0.12438652 -0.09561425
-0.34636962 0.059233114 0.008887176 0.08807806 0.04198718 0.035571884 -0.021574836 0.12314246
0.109750435 -0.08763249 -0.06522109 0.07556598 -0.12061901 0.08450939 -0.03807967 0.011527331
-0.12482995 -0.045885503 0.054201547 0.09961998 0.06107488 -0.039132107 0.09811607 -0.009530601
-0.12973201 -0.105499 0.12334465 -0.078169964 -0.09914401 0.1380053 0.07073527 0.01539356
-0.13274123 -0.0041738846 -0.09099989 -0.07696525 0.034880716 -0.021519326 0.06644056 0.08736798
-0.09936327 -0.11737671 0.09936789 0.104988426 0.021063728 -0.019869223 -0.058873337 0.080707915
0.07155769 0.059919935 0.013117514 0.038661808 0.04552182 -0.12762995 -0.016055213 0.068705834
0.046255063 0.016100239 0.06127475 0.10385162 0.0933956 0.04916657 0.10716324 0.066893406
0.13124688 -0.12770015 0.14059295 -0.16512373 -0.048860826 -0.01354624 0.01647365 -0.031206556
-0.07302764 -0.09873858 -0.047213953 0.046620127 0.02190208 0.123417206 -0.046694387 -0.052088734

arith.constant3 f4 [256, 64]
00000000: 6053 08be f969 fdbd 8057 b93d b26d 1ebe
00000010: c6ed f6bd a415 96bc 0adf bf3d e94d a23d
00000020: 7dcf f23c 7cb6 153d f93b 89bc 822e e4bd
00000030: a5d7 19be 5137 ccbd 0005 e8ba 6ead 38bd
00000040: 34a4 cebc cb36 cbbd d91e e6bd 6c90 e33d
00000050: a909 2cbe 1034 0bbe 0017 80bb f8bc a7bd
00000060: 587f 63bd b807 b73d deff 8b3d 9e86 873d
00000070: 84be 03be e2d5 3a3d 8c39 663d 8a8e b6bd
00000080: 9a3e c03d cf60 febd 883f 463d 16f4 b93d
00000090: 6959 05be 146b 39bc 8628 b2bd 423f 9c3d
000000a0: 03eb efbc 8112 a5bd 2a58 f43c d146 b53d
000000b0: 219a 3abe 00e7 a5bb f341 1d3d 03ad 07be
000000c0: 2020 e13c 4813 903c 2472 f73d 81bc 40be
000000d0: 4c76 03bd d967 1ebd a8c2 6abd ca2c 6d3d
000000e0: b429 03be 10cf 94bd 3816 efbc ae3e 9f3d
000000f0: c1ab bf3d f0de f2bc d02d 86bc 708c 4e3c
00000100: 7d86 a5bd 3caa 0bbd 6007 d2bd 75b0 e2bd
00000110: c094 bf3b 9431 d53d f698 ec3d ddb0 a4bd
00000120: c067 883d 3069 1bbc c9ac e2bc 7883 6abd
00000130: 1930 48bb 4684 30bd b8b3 f33d 1aeb 283d
00000140: c00d 5bbc dc17 bcbc f282 653d 6722 203d
00000150: 2bd4 2dbe 0488 55bd a372 03be e07f 3a3c
00000160: a08d a33d 689b 9a3c b8da a13c 8b19 cfbd
00000170: b0bd 6abd 7591 b0bd 38db ad3d 536c 22be
00000180: a4c4 98bd 72dd 9c3d 207e b0bb 7805 adbd
00000190: c0e8 6fbd 7075 16be b849 9cbc bebd 57bd
000001a0: 9204 8ebb 2968 e33d 38c6 a8bd a8fe 0fbd
000001b0: 0852 613d 62e2 0abd a05d 0c3c 0fd0 acbd
000001c0: 283f 933d cefc 39bd bab1 21bd cb69 8abd
000001d0: 30f0 ee3d 8a55 8ebd 0014 0339 8c24 183d
000001e0: e8cf 5dbd ac9f 693d e8cb 19bd f463 4e3d
000001f0: b799 0ebe 26ca a9bd 5cbe 6c3d a8b9 50bd
00000200: 7075 86bd 48d5 ab3d 404b dcbc 3734 023c
00000210: 2a31 a83d b459 1a3d d688 833d addf a73d
00000220: 1873 3cbd c4e3 a8bd cf0d 5fbb e121 f9bd
00000230: 4275 5fbd 57c4 13be 65dc edbd 4906 c93d
00000240: ac79 003d fab1 f3bd 5f85 ffbd 4cfb c9bd
00000250: b88f f23c 2964 07be f2bd bebd 6251 dfbd
00000260: bb35 383d b83e 8e3c 3c10 febd 577b 04be
00000270: b2af d4bd 5c91 59bd 6da6 b53b 9e51 c83c
00000280: 10cd 673c 6418 22bd 2dcb e4bd cf72 77ba
00000290: aa34 8dbd 2e14 1abe a4c2 b6bc 29d7 2d3e
000002a0: ca9d 0abe de44 6d3d ded2 5abb ba1a d9bd
000002b0: 16d6 17bb 0f2f ff3c 24ea babd 8621 92bc
000002c0: 716e 933d 0e83 0dbd 0cc0 f4bc 39bd 2a3e
000002d0: 5eec 213e 3524 38bd 4cab e6bd bf16 9cbd
000002e0: 4651 b73d d3eb 863e 1e66 85bd 07c8 8cbd
000002f0: 3dfe a7bd 400f d83d ee8d cd3d e895 023e
00000300: 3486 c6bd 84dc e43d 786f 903b 3805 1abc
00000310: 0221 8bbb 8c2e ab3d 74a1 07bd 4c44 3fbd
00000320: a537 20be 0ea0 19bd a945 83bd fce3 dbbb
00000330: ea99 e0bc 401d a1bd a2c6 263d a568 b33d
00000340: b049 94bc ce5c 01be fbfe 86bc 10ab 84bd
00000350: ace7 da3c a0ef 703d dc8b a33d 3ea4 0fbd
00000360: f873 cf3d aa12 0fbc 2bd9 723c 709a 6e3d
00000370: 66c3 ccbd ee47 3c3d aae3 123d 0e8c abbd
00000380: 6417 333d 9e16 68bd b3e1 a73d e05e b7bc
00000390: 6cf5 febc c892 bdbd 44b1 9dbd 128a d7bd
000003a0: a295 34be d194 1cbe 0047 e4bc fa07 e93c
000003b0: 6033 04be cb10 20bd 42b7 a6bd da49 cabd
000003c0: e9a6 0b3e fdba 34bc 46c9 9dbd ca94 ed3b
000003d0: d075 913d 6b2c a3bc 5260 25bd 46c9 9f3d
000003e0: a0be 1ebd 454c 3a3d b590 ebbd 58ca 033d
000003f0: b531 14be ccb3 503d 6428 ce3d 1bdf 5abd
-0.13313055 -0.12373728 0.090498924 -0.15471533 -0.120570704 -0.018320866 0.09368713 0.079250164
0.029639954 0.036550984 -0.01675223 -0.11141683 -0.15023668 -0.09971488 -0.0017701685 -0.04508727
-0.025224783 -0.0992256 -0.112363525 0.11111531 -0.1680056 -0.13594079 -0.003908992 -0.0819034
-0.055541366 0.08937019 0.06835912 0.06617473 -0.12865645 0.04561413 0.056207225 -0.08913906
0.0938694 -0.124208085 0.048400432 0.09079759 -0.13022389 -0.011317033 -0.086991355 0.07629253
-0.029286867 -0.0806017 0.029827196 0.08851398 -0.18222858 -0.0050629377 0.038392972 -0.13249592
0.027481139 0.017587319 0.120823175 -0.18821909 -0.03209524 -0.038673256 -0.057314545 0.057904042
-0.12808877 -0.072660565 -0.0291854 0.07775627 0.09358931 -0.02964732 -0.016379267 0.012606725
-0.08082292 -0.034097895 -0.10255313 -0.11068813 0.00584659 0.10409847 0.115526125 -0.080415465
0.06660414 -0.009485528 -0.027670281 -0.057254285 -0.0030546247 -0.043094896 0.11899513 0.041239835
-0.0133699775 -0.022960596 0.056033082 0.03909531 -0.16975467 -0.052131668 -0.12836699 0.011383027
0.07985997 0.018872932 0.019757614 -0.10112294 -0.057309806 -0.08621494 0.08489078 -0.15861635
-0.07459381 0.07659425 -0.005386129 -0.08448309 -0.058571577 -0.14693236 -0.01907812 -0.052671187
-0.004334041 0.11103851 -0.08240932 -0.03515497 0.05500987 -0.0339073 0.008567244 -0.084381215
0.071897805 -0.04540711 -0.039476134 -0.0675846 0.11666906 -0.06949909 0.00012500584 0.03714423
-0.054153353 0.05703704 -0.037547976 0.05038829 -0.13925825 -0.0829051 0.05779873 -0.050958306
-0.06565368 0.083902895 -0.02689135 0.007947019 0.08212502 0.037683204 0.06422584 0.0819696
-0.0460082 -0.08246568 -0.003403533 -0.12164665 -0.054555185 -0.14430366 -0.116143025 0.09815652
0.031366035 -0.11899181 -0.124766104 -0.09862384 0.029609546 -0.13221802 -0.09313573 -0.109041944
0.044973116 0.017363891 -0.1240544 -0.12937675 -0.10385074 -0.05311714 0.005543521 0.02445298
0.014148012 -0.039574042 -0.11171565 -0.000943941 -0.068948105 -0.1504676 -0.022309609 0.16976608
-0.13536754 0.057927005 -0.0033389847 -0.10600801 -0.0023168377 0.031150369 -0.0912669 -0.01783825
0.071987994 -0.03454881 -0.029876731 0.16673745 0.15812823 -0.044956405 -0.11263141 -0.07621526
0.089510486 0.26351795 -0.06513618 -0.0687409 -0.08202789 0.10549784 0.100368366 0.12752497
-0.09693566 0.111748725 0.0044078194 -0.009400658 -0.004245878 0.083584875 -0.033112958 -0.046695992
-0.15646227 -0.037506156 -0.06409771 -0.0067105275 -0.027417142 -0.07866907 0.040716775 0.08760194
-0.018101543 -0.12633058 -0.016479006 -0.0647794 0.026721798 0.058822274 0.079856604 -0.035068743
0.10129541 -0.008732477 0.014822285 0.05825275 -0.09998207 0.045967035 0.03586165 -0.08376323
0.04372348 -0.056662194 0.081973456 -0.022384107 -0.031122886 -0.09256512 -0.07699826 -0.10524382
-0.17635205 -0.15291144 -0.027865887 0.028446186 -0.12910223 -0.039078515 -0.081404224 -0.09877367
0.1363789 -0.01103091 -0.077044055 0.007250403 0.07102549 -0.019918641 -0.04037506 0.07802062
-0.038756013 0.045482893 -0.1150221 0.032175392 -0.14472087 0.050952718 0.10066298 -0.053435426

arith.constant4 f4 [64, 64]
00000000: edd4 2cbe ae37 a83d 9b25 283b 9844 47be
00000010: b2f3 77be 549b 4fbe 00c4 9dba df62 6ebe
00000020: b0c9 4abc 2e9c 55be ada5 f53d 505a 56be
00000030: cdd2 543d d3da 493e 7d3f e839 6a62 253e
00000040: 2ecb 7a3d bef9 04be 7777 1ebe e333 02be
00000050: 4b77 3f3e 2852 363e d703 223e 30d3 3b3c
00000060: 56ff c43d ee1b 5bbe fecc 763d e5f2 dabd
00000070: caaa 2cbe dd95 2bbe 01bd 433e 894a 143e
00000080: 199c 3e3e 6ea5 38bd 3838 49be 214d 59be
00000090: 1f01 db3d cea4 983d 9eaf 2f3e adcd 2a3e
000000a0: ee95 30be 5713 1f3e e236 d03d e64d 953d
000000b0: 39c0 ab3d 4ace 9fbd 1aea 43be c515 ad3d
000000c0: ddaa 70be 1534 103e 7b35 123e e547 96bd
000000d0: 5025 5cbd 3dac 52be 5b43 3cbe 1c29 2f3d
000000e0: 788c 20be c2f0 8ebb eb20 513e 98db 9fbc
000000f0: 5ca9 273d 2054 51bd bd39 77bd 75b6 af3a
00000100: 1675 37be e6b9 ba3d ebdf b13d 9db0 903d
00000110: ee39 7bbe 418b 2dbd 7c75 c0bd 0f85 59be
00000120: 200c 913b 63a1 973d 5e12 73be 1b27 d93d
00000130: 61b0 79be 4f28 f4bd e6fd 24be 871e 32be
00000140: af7d e73d bbfc 143e f38e acbd 545b 2dbe
00000150: c099 b4bc 1120 d83b b8ad 1ebe 6dcc 083e
00000160: dee7 903d f411 55be 2ec9 1abe 62f9 863d
00000170: 7a58 d23d 8a6a abbc 5354 4a3d c646 14bc
00000180: 579a 14bd 753e 09be 984b 5abd bd29 503e
00000190: f8ac 89be 621e f63d a44a 44be db8c 4d3e
000001a0: 72a4 f43d ae1a 8f3d 34f6 523d e050 a2bd
000001b0: 56fe 033d ff40 07be f141 55be b644 213d
000001c0: 4152 d63d 8170 073e 4a1c 913d f5de eb3d
000001d0: 15c3 043e 0f4c 263e 23e8 64be 4626 cc3d
000001e0: 3869 7bbd 81e8 983d bed5 eb3d 5ec4 f8bd
000001f0: 70a3 9b3c a2d9 a53d ea37 c93d d960 123e
00000200: 7948 70bd c00e cabd 99f5 6bbe 3656 e73d
00000210: 4d0a 233e e42c debd 80d4 06bc a70d ad3d
00000220: 6bb7 3f3e b089 16bc 6661 48be 85e3 983d
00000230: 51ce cbbb c975 87bd 6c50 403c 9374 123d
00000240: 24ec 02be 8094 2e3d 115d 973d 50c4 d3bd
00000250: b516 283e 77d7 3d3e f324 463e abc2 38be
00000260: 9e67 5dbe 5787 273e b439 283e 562d 8e3d
00000270: 3450 87bd 660b 043e d094 37bd 2371 4d3d
00000280: 6876 a7bc 9586 8abe f04e cf3d c4e9 ad3d
00000290: 55ab eabd aa92 2fbe e754 0e3e 046d b9bd
000002a0: 3491 993d 512d 7f3d 3c70 3bbe 4a9c bebd
000002b0: ecc0 afbd ce9c 403d 9186 13be 22f3 26be
000002c0: 0758 57be d1c9 b9bd 0dc6 383d 85a2 1e3d
000002d0: 9070 383c fb69 483e a888 c1bd 8300 163e
000002e0: 6457 3abd 8bb5 503e 4cdc 9cbd 506d fdbc
000002f0: f872 8bbc f036 dc3d 6beb 0cbe 6930 f2bd
00000300: 1ee2 bbbd 1a99 883d 77d7 ecbe b564 b93d
00000310: 2209 10be 518f 4a3d d0d0 3e3c c3f4 70bd
00000320: c076 0b3b 90d3 56be 36c9 54be e620 063e
00000330: 955b 81be cd66 3fbe 8a9e b53c 4fbf 04be
00000340: 60cf e13d 4c7b 663b 79be c7bc e7fd f0bc
00000350: bbc1 3c3e dcc4 e9bd 3c2f 5a3d 0aec 9dbd
00000360: 94ae 9dbd 83c9 753d bb47 a83d b4ff 59be
00000370: 2b89 20be 00cd 50be a187 043e 3828 133e
00000380: b7e1 0dbe 91f9 423d 0ee2 50bd 049d 4b3e
00000390: 4edb 6fbd d461 09be 541f a53d 80ef 983c
000003a0: dbf3 723e 65f8 213e be60 1fbe cca5 223e
000003b0: e24a e93d 1c13 a6bb 6ae4 173d 8a84 c53d
000003c0: 7641 aebd 9662 8cbe f8cd 03bd 6bfd 27be
000003d0: 6f61 553e d25e 56bd d872 94be f745 0f3e
000003e0: cabf 0abe ffce 52be 5e83 1bbc 9584 f1bd
000003f0: fb21 073e dadb 023e 7926 0cbe 3132 0dbe
-0.168781 0.08213745 0.002565718 -0.1945976 -0.24214056 -0.20274097 -0.0012036562 -0.23279904
-0.012377188 -0.20860359 0.11994491 -0.20932889 0.051958848 0.19712381 0.0004429779 0.16150823
0.061228923 -0.12985894 -0.1547526 -0.12715106 0.1869785 0.17804778 0.15821777 0.011463925
0.09619014 -0.21397373 0.06025409 -0.1069086 -0.16862026 -0.16756387 0.19115068 0.14481558
0.18614234 -0.04507964 -0.19650352 -0.21220829 0.10693573 0.07453309 0.17156836 0.16680022
-0.17244694 0.15534721 0.10166718 0.072902486 0.08386273 -0.078030184 -0.19132271 0.08451418
-0.23502679 0.14082368 0.14278214 -0.073379315 -0.05374652 -0.20573516 -0.18385069 0.042763814
-0.15678585 -0.0043621967 0.20422713 -0.01951389 0.040932998 -0.05110562 -0.060357798 0.0013405817
-0.17915758 0.091174886 0.08685287 0.07064936 -0.24533817 -0.04236913 -0.09397408 -0.21242164
0.0044264942 0.07403829 -0.23737475 0.10603162 -0.2438369 -0.11921751 -0.1611248 -0.17394458
0.11303269 0.14549534 -0.08425703 -0.1692937 -0.02204597 0.0065956195 -0.15495956 0.13359232
0.07075475 -0.2080763 -0.15115806 0.06590535 0.10270782 -0.020924825 0.049396824 -0.009050077
-0.036280002 -0.13402732 -0.053294748 0.20328422 -0.26889777 0.12017514 -0.19169098 0.20073263
0.11945428 0.069875106 0.05150433 -0.07925582 0.032224976 -0.13208388 -0.20825936 0.03937217
0.104649074 0.1322651 0.07085474 0.11517135 0.12965043 0.16239952 -0.22354178 0.099682376
-0.06137964 0.074662216 0.115153775 -0.12146829 0.018998832 0.08098151 0.09825118 0.14294757
-0.058662865 -0.098660946 -0.23042907 0.1129574 0.15921898 -0.10848406 -0.008229375 0.084498696
0.18722312 -0.009188101 -0.19568405 0.07465271 -0.006219663 -0.066142626 0.011737924 0.035755705
-0.12785393 0.04262209 0.07390798 -0.10340178 0.16414912 0.18539225 0.19350033 -0.1804301
-0.21621558 0.16360222 0.16428262 0.06942241 -0.066070944 0.12894973 -0.044819653 0.050156724
-0.020442203 -0.27055803 0.10122478 0.08491853 -0.1145846 -0.17145792 0.13899575 -0.09053996
0.074983984 0.062299076 -0.18304533 -0.093071535 -0.08581719 0.04702454 -0.14406802 -0.16303685
-0.21029674 -0.090716965 0.04511075 0.03872921 0.011257306 0.19571678 -0.09449893 0.14648633
-0.0454935 0.20381753 -0.07659206 -0.030935913 -0.017022595 0.10752666 -0.1376168 -0.1182564
-0.09173988 0.06669827 -0.46258137 0.090524115 -0.14065984 0.049453083 0.0116464645 -0.058827173
0.0021280497 -0.20979142 -0.20779881 0.13098487 -0.25265184 -0.18691559 0.022170324 -0.12963603
0.11025882 0.0035168706 -0.024382817 -0.029417945 0.18433277 -0.11414501 0.053267702 -0.077110365
-0.07699314 0.06000663 0.082168065 -0.21288949 -0.15677325 -0.20390701 0.12942363 0.14370811
-0.13855635 0.047601286 -0.050996833 0.19884115 -0.058558755 -0.13416225 0.08062616 0.01866889
0.23725836 0.15817411 -0.15564248 0.15883559 0.11391236 -0.005068196 0.037083067 0.096444204
-0.085085794 -0.27418965 -0.03217885 -0.16405265 0.20837949 -0.05233652 -0.2899387 0.13991533
-0.13549724 -0.20586775 -0.00949177 -0.11792866 0.13196556 0.12779179 -0.13686551 -0.13788678

functional_19_1/e1_1/BiasAdd/ReadVariableOp f4 [64]
00000000: 8901 8bbd 0000 0000 7194 1ebd 5102 a3be
00000010: e64e 9d3d 8831 9bbc 0000 0000 89c3 a1bd
00000020: 0000 0000 db3b 49be 069e 9dbd a649 20be
00000030: 9fbc 86be 1864 403e f607 d33d 28ca 57be
00000040: 8d64 00bd cde6 3cbe 2dae 38bd 7167 6dbe
00000050: 0000 0000 c012 d0bd 0000 0000 495a 06be
00000060: 0000 0000 f624 9bbe f8d5 7cbe 0000 0000
00000070: 0000 0000 ef65 a83d 4499 33be 0522 333d
00000080: 566f 313c 9fa0 8ebe 8bee aebc f000 bebc
00000090: ecad 03bd 73bf 76bc d2d8 933d 0000 0000
000000a0: 028d febd 8de4 c8bd 0000 0000 7f8b 18bd
000000b0: 54a4 7abe aac5 6fbe 3a80 e8bd 8087 4a3d
000000c0: ea3e 1f3e e17d 52be 6df6 dbbc d08d d8bd
000000d0: 0000 0000 25f6 37be 9fee 67bd 0000 0000
000000e0: 0000 0000 c689 78be 60a4 87bc 0000 0000
000000f0: 0000 0000 1bee ddbc 810b 20bd 9229 9dbd
-0.06787402 0.0 -0.038715784 -0.31837705 0.07681064 -0.018944517 0.0 -0.078986235
0.0 -0.1965174 -0.07696156 -0.15653095 -0.2631578 0.18788183 0.10304253 -0.2107321
-0.031345893 -0.18447419 -0.045087982 -0.23183991 0.0 -0.10159826 0.0 -0.13120379
0.0 -0.30301636 -0.24690998 0.0 0.0 0.08222567 -0.17538935 0.043733615
0.010829767 -0.2785692 -0.02135398 -0.023193806 -0.032148287 -0.0150602935 0.072190896 0.0
-0.12429239 -0.098092176 0.0 -0.03724241 -0.24476749 -0.23415247 -0.11352582 0.04944563
0.15551344 -0.20555831 -0.026850903 -0.105739236 0.0 -0.1796499 -0.05662405 0.0
0.0 -0.24271306 -0.016557872 0.0 0.0 -0.027091077 -0.03907347 -0.076739445

functional_19_1/e3_1/BiasAdd/ReadVariableOp f4 [64]
00000000: af80 16bd fbec 4dbd 4e8c 16bd 8d1a ffbd
00000010: 4230 073e 5131 febc 5789 62bd e2e9 34bd
00000020: bbd1 82bd 0000 0000 278d 9f3d f866 36bd
00000030: 04e8 fabd da6f 65bd 61b5 11bd a48e adbd
00000040: 0000 0000 d943 c9bb 51ff 14be efd4 f1bc
00000050: 04c9 fbbc e53a c1bc d98c 32bd db55 4abd
00000060: fdb5 5dbd 516d 1bbd 50d6 08bd 0000 0000
00000070: fafd f6bc fc31 59bd eef6 81bd 627a c63d
00000080: 0000 0000 0000 0000 a0ff efbc 677f 54bd
00000090: 5b19 a5bd 59f3 003d 5e82 3dbd 99c0 a0bd
000000a0: 549e 283d 5cad 66bd 21d4 99bd f86e 3bbd
000000b0: 76a7 b4bd a1aa 31bd aeda 17bd f4ee 5abd
000000c0: 6f93 a2bc 2773 5abd 0000 0000 cae6 93bd
000000d0: b5fd 52bd f7f7 223e 993a f5bc e944 fdbc
000000e0: 53e3 72bd 4ebc acbd 9053 87bd 0000 0000
000000f0: b94b b8bd 0000 0000 d1e3 71bc be89 5abd
-0.036743816 -0.05027483 -0.0367549 -0.12456236 0.13202003 -0.031029375 -0.05530676 -0.04416836
-0.06387659 0.0 0.077905945 -0.044531792 -0.12251285 -0.056014873 -0.035573367 -0.08474472
0.0 -0.0061421213 -0.1455052 -0.02952048 -0.0307355 -0.023587653 -0.043591354 -0.049398284
-0.054128636 -0.03794605 -0.03340751 0.0 -0.030150402 -0.053026184 -0.06345926 0.096913114
0.0 0.0 -0.029296696 -0.051879313 -0.08061477 0.031482074 -0.046266906 -0.07849235
0.04116662 -0.056317672 -0.075111635 -0.045760125 -0.08821003 -0.043375615 -0.037073784 -0.05345054
-0.019845692 -0.053332474 0.0 -0.07221754 -0.051511485 0.15914904 -0.029935168 -0.030916648
-0.059298825 -0.08434354 -0.06607735 0.0 -0.08998818 0.0 -0.014763788 -0.053354017

functional_19_1/e4_1/BiasAdd/ReadVariableOp f4 [256]
00000000: 2fc5 c7bd 988f 4dbe fcea 09bf 5d60 02be
00000010: 0190 24be bcf2 283e faac 9fbe 7b0c c4be
00000020: 2d8a 24be 7f62 cbbb 78bc c43d 78b1 5a3e
00000030: 5c97 19be 8851 08be 2bd0 28be 4ead eabd
00000040: a6a9 ec3d 8d5c d2be 42aa 38bd bd9d 48be
00000050: 3053 483e 3f3e 0f3e 5cc4 bbbd 3157 a93d
00000060: cf06 07be 446d b33d 0885 17be 9371 e4bd
00000070: 766f 8c3c 0987 73bc 7d90 cfbe 0607 69be
00000080: 12d0 79be b8ca 1ebd f8e6 e2bd f8e5 acbd
00000090: 917a 8bbd 1167 d2be f56b db3d c54c 40be
000000a0: 6851 cbbd 01d0 8ebe dbc2 c4bd 4e41 353d
000000b0: d93f 2abe f51b 45bd ffe1 04bc 472b bfbd
000000c0: 44db 773d 460a 97be 0c3e f0bd 3ece 6ebd
000000d0: e149 93bd c09f 43bd 134b 08bd 16dd f7bd
000000e0: 686a cdbd da78 5cba c228 a2bc 44c0 58be
000000f0: 94ed 17be 4e91 76bd 4b49 05bd 2e1c 85be
00000100: 5a56 41be d099 c1be e192 113d 2eff f0bd
00000110: 0781 c7bd f09a 7ebe 2a8f adbd 0edf aebd
00000120: dd38 b6bd f193 233e 8624 e4bb cdcb 40be
00000130: b794 02be 78b1 22be a633 0ebe 01cf 28bc
00000140: e982 8b3d 56b0 c0be 5019 14bd 3f99 54bd
00000150: 21f2 8bbe 9dca b5be 4c0e d6be a2b1 e4be
00000160: c4df 21bd 6c52 14bc 6b7e 3e3d e7a1 aebe
00000170: a8b4 20be fca7 a0be 9e72 3dbe 09f4 92bc
00000180: 96c4 9ebe 6abd aebd d1a2 72be 4ec1 e8bc
00000190: ba2c 0cbd 9cd0 7cbc 1485 5dbd 3ab9 09be
000001a0: f4f7 3dbe 1c3e 39bc f929 863d e7d3 72bd
000001b0: 28e9 0dbd b1a8 81bd fffa a0bd 636c 0dbe
000001c0: 1de5 e5bd 1b33 1dbe fc04 39bd 19b2 0c3e
000001d0: d92f acbb 12f8 4dbe fd5b 92bd c7de d53c
000001e0: df89 4cbe ed03 c6be 1539 e0bd df57 7ebe
000001f0: 850f 80bd 7096 09be 9e41 89be 1b29 76be
00000200: cda8 64be e9c2 52bd 5b4e 95bd eaae bebe
00000210: 08e5 39be 6b49 2ebe b095 1cbe ae17 28be
00000220: 4476 37bd 3604 8cbe 2f79 e6bd 339d 8cbe
00000230: 21a7 413e 2619 8cbd 283f 5dbd e94e b8bd
00000240: 078d fabd 9bc4 d2bc 3665 7bbe 9360 ac3d
00000250: 7b7e 51be f540 ab3d 8349 a1bd 321d 2dbe
00000260: 477e 48bd 34d9 98be 24e8 e4bd 2273 eb3d
00000270: 8f78 01be 51c8 30be d3d8 d3bd 3a36 013d
00000280: c84d dfbe 672a 99bd e5e0 183e 9597 2cbc
00000290: 509f 23bb 45bd 2cbe 28af 833e 315a a8be
000002a0: b6cf 8ebd 6788 55bd 859d b6bc edc3 0dbe
000002b0: 6f1d bebd b52f 92be 38b5 a6bd 935e 4bbd
000002c0: d5f9 67be f290 0e3e e0bc 2ebe 70c4 58be
000002d0: bb86 80be 2946 a8bd fba6 14be 6d00 69be
000002e0: ffd5 39be 352b 52be 2992 bbbe a4a4 31be
000002f0: 8870 c4bb 6a65 43be 8c75 efbd 74cb b3be
00000300: 0a11 10be c8b3 23bc 2d64 a1be 44e2 aabc
00000310: 0b81 ebbd 49c4 69bc 495b 8fbd 3951 3bbe
00000320: b0c7 50be 4411 87bd 3369 2ebc dc94 83bd
00000330: 57a1 bebd a0a2 5ebe b88b 5fbe 9d1e 9dbd
00000340: 7905 2abe c2c5 78be 955b 9ebe 7481 19bc
00000350: 2a80 42be cb0e 3fbe 55a9 b6bd 75f5 68bd
00000360: 3e5f 873d 9b70 95be f156 69bd c222 14be
00000370: da9d 01be 47eb 80be 8b52 023e 4cfe 82be
00000380: 02c4 12be dbee 96bd 19f5 dbbd 3ce5 0abe
00000390: 8956 07bf df1e 0abd 0210 6bbe 14b6 22be
000003a0: c8a1 79be 1f3d b1be 44e1 8dbd b6bf b5bd
000003b0: e2e2 88bd e0bd f2bd 4bb3 6dbd b4c4 5bbd
000003c0: fea0 1bbe 0c6e a6bd d7af 87bc 62ff a03d
000003d0: 0ebf debd bd24 13bc 8299 83be ef7f 5dbe
000003e0: 14c6 98bc 3511 0dbc 45ee 7e3e 63b1 e53d
000003f0: f8dd fbbd b12f 64be 526b 82bd 71b9 fbbe
-0.09754407 -0.20074308 -0.5387418 -0.12732072 -0.16070558 0.16498846 -0.31186658 -0.38290772
-0.16068335 -0.00620681 0.0960626 0.21356761 -0.14999145 -0.13312352 -0.1648566 -0.114588365
0.11555795 -0.41086236 -0.045084246 -0.19591422 0.19562984 0.13988589 -0.09168312 0.082685836
-0.13186191 0.08761075 -0.14796841 -0.11154475 0.017142992 -0.014863738 -0.40539923 -0.22756585
-0.24395779 -0.038767546 -0.1107921 -0.084423006 -0.06810487 -0.41094258 0.107139505 -0.18779285
-0.099276364 -0.2789307 -0.09607478 0.044251733 -0.16625918 -0.048122365 -0.008110522 -0.093344264
0.060511842 -0.29500026 -0.117305845 -0.058302157 -0.07191826 -0.04775977 -0.03327472 -0.12102716
-0.10030061 -0.0008410342 -0.019794825 -0.21167094 -0.14836723 -0.060197167 -0.0325406 -0.25998062
-0.18880597 -0.37812662 0.035540465 -0.11767422 -0.09741407 -0.24863791 -0.08474572 -0.08538638
-0.088975646 0.15974404 -0.0069623617 -0.18827744 -0.12752043 -0.15888011 -0.1388689 -0.01030326
0.068120785 -0.37634534 -0.036156952 -0.05190396 -0.27333167 -0.35506144 -0.41807783 -0.44666773
-0.03952004 -0.009052854 0.04650728 -0.34107897 -0.15693915 -0.31378162 -0.18500754 -0.01793863
-0.31009358 -0.085322216 -0.23694922 -0.028412487 -0.034222342 -0.015430596 -0.05408199 -0.13449565
-0.18551618 -0.011306312 0.065509744 -0.059284117 -0.034646183 -0.063310035 -0.07860374 -0.13810878
-0.112253405 -0.15351526 -0.04517077 0.13739814 -0.0052547273 -0.20114163 -0.071464516 0.026107205
-0.19974469 -0.3867487 -0.109483875 -0.24838208 -0.0625296 -0.13436294 -0.26807874 -0.24039118
-0.22330017 -0.051455412 -0.07290336 -0.37242824 -0.18153775 -0.17020194 -0.15291476 -0.16415283
-0.04479052 -0.27346963 -0.11253583 -0.27463683 0.18911411 -0.06840734 -0.05401531 -0.08999426
-0.1223393 -0.025728514 -0.24550328 0.084168576 -0.20458405 0.08361999 -0.078753494 -0.16905668
-0.048948552 -0.29853213 -0.1117709 0.11496569 -0.12643646 -0.17263915 -0.1034409 0.031545855
-0.4361403 -0.07478791 0.1492954 -0.010534187 -0.0024966784 -0.16869076 0.2571957 -0.3288131
-0.069732115 -0.052132037 -0.022291908 -0.13844271 -0.09282958 -0.28552023 -0.081400335 -0.04965074
-0.22653897 0.1392248 -0.17064238 -0.21168685 -0.2510279 -0.08216507 -0.14516823 -0.22754069
-0.1814804 -0.20524295 -0.3663495 -0.17347962 -0.00599486 -0.19081655 -0.11692342 -0.3511616
-0.14069 -0.009991594 -0.3152174 -0.020859845 -0.11499222 -0.014267989 -0.06999833 -0.18292703
-0.20388675 -0.0659509 -0.010645199 -0.06424877 -0.09308117 -0.21741724 -0.21830642 -0.07671855
-0.1660365 -0.24294189 -0.30929247 -0.009369243 -0.18994203 -0.18657987 -0.08919016 -0.05687471
0.06609963 -0.29187474 -0.05696768 -0.14466384 -0.12657872 -0.25179502 0.127268 -0.25584638
-0.14332584 -0.07369777 -0.10740108 -0.13564008 -0.5286642 -0.033720847 -0.22955325 -0.1588977
-0.24378121 -0.34616944 -0.06927732 -0.088744566 -0.066838995 -0.11852622 -0.058032315 -0.053654388
-0.15198132 -0.081264585 -0.01656334 0.078612104 -0.108762845 -0.008980927 -0.25703055 -0.21630834
-0.018649139 -0.0086100595 0.2489558 0.112154745 -0.122981966 -0.22283818 -0.06368126 -0.49164918

functional_19_1/e5_1/BiasAdd/ReadVariableOp f4 [128]
00000000: 3c53 b8bd 9169 c53e 29ad 40be dd87 933e
00000010: 1850 c5bd 75fc c7bd 7680 f4bd 5387 17be
00000020: ca6a 91bd 26df 34be ab64 33bd 1351 fdbd
00000030: 3c91 31be 69a1 4f3e 7ffa 48bd 83b9 b6bd
00000040: 29ca c1bd 5333 38be 16a0 afbd 6f02 4ebe
00000050: e157 fabc 88d2 08bd 05fc d43e 8455 14be
00000060: b6c0 c1bd 9abc 0dbd 0286 bcbd 8275 a3bd
00000070: 657a 4abd 285c 2cbe e5ac b03c fbae 763c
00000080: e5c9 8ebd 056f 7fbd 1588 c4bd 6dc5 0dbe
00000090: a91d 913d 3e9b 1ebe 207a 433e 0fd8 fcbc
000000a0: dd0d 1abe e5b8 54bd be5d 7abd ab81 88bd
000000b0: bcdf 8bbd eba0 84bd d458 b9bd 27d2 72bd
000000c0: de9a ddbd 0aba c1bd ec5f b1bd ada5 a8bd
000000d0: 0dcf ecbd e7b0 20bd d26c 753c 0d7a bfbd
000000e0: 40f9 6fbd f155 5a3c 41bc 83be e409 ecbc
000000f0: 3c8d edbd 1ef5 01bd 3b9d 7fbe de86 35bd
00000100: 5379 b63e 4495 afbd 0a0d 92bc de91 cbbd
00000110: 5f4d 28be 4dd6 e5bd bb16 94bd ec8b e4bc
00000120: a22a babd 7618 cbbd 3bd2 9dbb 6974 e3bc
00000130: 1206 a0be 8d59 dabd 2d04 8fbd 2b93 61bd
00000140: 2740 d0bd 4ae7 7bbc 3dce bdba c05e 9ebd
00000150: 1b53 09bd 2d94 13bc efcc 19be c8ab 09be
00000160: ea4b b0bd a998 0abd 1ed3 c7bd 1e39 2fbd
00000170: 855e 9c3b 0ccc d0bd 2aec 01bd 7acc 89bd
00000180: e7e2 a6bc 68d5 b5bd c34e a5bd afe5 e3bd
00000190: 73de 3d3d 5bc9 82be 13f1 d2bd 7034 24be
000001a0: 20dd 1abe 2ddc b2bd 37a6 99bd 6088 0abd
000001b0: 298a e1bd 4052 fabd af18 39bd cbc1 4a3c
000001c0: 493b 78bd 8dc5 12be 4e6e 5dbd b913 dabd
000001d0: d4b3 303c 690d 58be f631 51bd 5e6e 7ebc
000001e0: 74ae d73e 757b 62bd e0ac 2ebe 6dd8 9bbd
000001f0: f5d5 ecbc 75ae b4bd 8147 f6bd e91b 6a3e
-0.09000251 0.38557103 -0.18816055 0.28814593 -0.09634417 -0.09764949 -0.119385645 -0.14797716
-0.071004465 -0.1766325 -0.043797176 -0.12368979 -0.17340559 0.20276417 -0.049067017 -0.08922102
-0.09462387 -0.17988329 -0.08575456 -0.20118116 -0.030559482 -0.033403903 0.41598526 -0.14485747
-0.09460585 -0.034603693 -0.092052475 -0.07981397 -0.04943313 -0.1683203 0.021566818 0.015056367
-0.06972102 -0.062361736 -0.09596268 -0.13844843 0.07085735 -0.15488908 0.19089556 -0.030864744
-0.15044351 -0.05193414 -0.061124556 -0.06665357 -0.06829783 -0.06476005 -0.09050146 -0.05928245
-0.10820554 -0.09459312 -0.08660874 -0.08234725 -0.11562929 -0.039231207 0.014979558 -0.09349451
-0.058587313 0.013326154 -0.25729564 -0.02881331 -0.11599204 -0.031727903 -0.24962322 -0.044318072
0.35639438 -0.08573392 -0.017828483 -0.09939931 -0.16435765 -0.11222515 -0.07230898 -0.027898751
-0.09090163 -0.09916775 -0.004816321 -0.02776547 -0.3125463 -0.10661612 -0.06983218 -0.05507199
-0.10168486 -0.015374968 -0.001448102 -0.07732916 -0.03352652 -0.009007496 -0.15019582 -0.13444436
-0.086082295 -0.033836994 -0.09757064 -0.04277908 0.00477201 -0.10195169 -0.031719364 -0.06728454
-0.020371867 -0.08878595 -0.08071663 -0.11127793 0.046354722 -0.25544247 -0.102998875 -0.16035628
-0.15123415 -0.087334014 -0.07502406 -0.033821464 -0.1101268 -0.12222719 -0.045189556 0.012375305
-0.060603414 -0.14333172 -0.054060273 -0.10648293 0.010785062 -0.21098866 -0.051073037 -0.015529243
0.42125285 -0.05529352 -0.17058134 -0.07609639 -0.028910616 -0.088223375 -0.12025357 0.2286221

functional_19_1/e6_1/BiasAdd/ReadVariableOp f4 [32]
00000000: af99 98be 60f7 2ebe c747 7dbf a64e df3d
00000010: 07d1 82be be1c 8ebe 3784 66be 5d35 6cbe
00000020: 42fe c1bd df49 47be 7b5b a03e 102a c93e
00000030: 14c6 d9be eb2f ddbd f307 c3be 906b 81be
00000040: 3520 d9bd f406 123f 9e66 9fbe 93a8 d0be
00000050: dcbc 47be 9ba4 58be a7cb 00be c755 a5be
00000060: 5406 e1be e8c2 d3be dce7 a0be 6f01 52be
00000070: 525e 71be 6e6f 8fbe a782 5b3e d468 f9bd
-0.2980475 -0.17086554 -0.9893765 0.10903673 -0.255501 -0.27756304 -0.22511373 -0.23067231
-0.09472324 -0.19461773 0.31319794 0.39289904 -0.42533934 -0.10800155 -0.38092002 -0.25277376
-0.10601846 0.5704186 -0.31132978 -0.40753612 -0.19505638 -0.21156542 -0.12577687 -0.32292005
-0.4395014 -0.4135964 -0.31426895 -0.2050836 -0.23571137 -0.28014702 0.21436559 -0.121781975

functional_19_1/e1_1/MatMul f4 [64, 19]
00000000: 8422 89be ec93 a33e b1e2 483c 59b3 4d3e
00000010: 8c47 e1bd 202b 9cbd b0c6 313e 7af3 16be
00000020: 6772 07be b8e6 37bd a5a4 9abe 5b9b 0abd
00000030: c44b d1bd d916 eebd f604 bdbd b6a7 22bd
00000040: 6146 96be 7929 3d3e 5e18 363c e4e3 70be
00000050: c83b e7bc 2a62 5bbe e628 3c3e 3aae b5bd
00000060: d0a8 563d c8e2 ce3d 9a8d 27be 0e2d 9fbd
00000070: 8c5e debd 2009 17bc 4da7 6cbe af6a 64be
00000080: d86d a7bd 545a fabd 5426 a7bd cc30 4bbe
00000090: b151 01be 72ef 4dbe 9c12 6740 bdea 3140
000000a0: 7ebb 44bf 9197 4240 55c3 5ebf 2a22 43bf
000000b0: 6d71 d2be e5d2 e23d d200 733e 4099 cebd
000000c0: f2cf d4bf c27b cfbd 0756 c63d bfbf 90bf
000000d0: 9448 88be 59df 953f 0540 d8bb 5111 333e
000000e0: c698 69be 4784 8abd fb2e 1f3f 0167 09bf
000000f0: 5f5e c63e 5b2a 39be 160f 2cbf 5aa3 28bf
00000100: b2ac febd 2976 9bbe 6abe 00bf f39e 59be
00000110: bd45 e0be ca02 72be 2d03 69be 3433 a5be
00000120: 92b7 f23e b3cb 07bc 7540 f13e 3adf 2cbe
00000130: f984 75c1 0e9f 50c0 24bb a93d c316 23c0
00000140: 5403 9a3e e7f5 aa3e b937 043e 805b d63e
00000150: faac 453e 32a3 a13d dbce 733f 9366 473d
00000160: 6f9d bd3d cd4b 873f 337e 133f b986 d5bf
00000170: 94fe 193d 61f4 24be 6a50 0a3e f606 6fc1
00000180: d642 4dc0 e02c c7be 68ed 17c0 69e9 c4be
00000190: 12da e8bd 7008 9dbd 0534 bb3d ae42 f3bd
000001a0: 09ae 7cbe 4f4b 5f3f 75b2 ff3d 5df7 8bbe
000001b0: 2ad4 443f d161 023f 9998 e6bf 71ea 0e3e
000001c0: ea55 593d df73 b13e caff 423e b8b8 423d
000001d0: 38af b8bd e848 9c3d 0079 cbba cab7 0e3e
000001e0: 6e04 813e 9057 ae3d 80d8 54bc f02d 7f3e
000001f0: d03e b23c f020 d83c 88e8 673d c0ec f3bc
00000200: 1c57 15be 54d2 973d fac8 5abe 2af2 acbd
00000210: d2ff 2b3e 0cdf 9440 fb61 a73f 5d07 b2bb
00000220: 6c6b 983f 8d54 e8bd abe7 4bbe 1a97 8f3d
00000230: b4c7 afbc 34f2 1c3d f0ad 4fbe ae24 1dbe
00000240: 5262 523d 38f1 c53e f380 ffbe f4fb cfbe
00000250: 68b8 7d3f 6049 0ebe cb11 75be 9e50 50be
00000260: 5827 b03d 0085 a63a a85f fcbc 6806 883e
00000270: 28fc fe3d 5aa9 78be 7094 813e f0aa 09bd
00000280: 084a 82be e86d fdbd 6057 273d 8cc3 a7bd
00000290: 4c96 2c3e 9ce3 543e 4482 3f3e 16de c1bd
000002a0: 4185 51be d0ff e6bc 681f 433d 141a 4641
000002b0: 1501 0040 7d31 cc3e b9ba 963f cdac f43d
000002c0: c1f5 d3bc 7109 06be f9f0 17bf c703 8cbe
000002d0: 02fd b3be bcfd 6abf 826a b1be 1076 d93d
000002e0: 372e 84bf 0ae2 f0be d051 db3f 7ce8 953d
000002f0: 2ead 453e 2cf9 c4be 20a0 5c41 0985 5940
00000300: 3029 1ebf 2f8f 3b40 6236 71be e6bd a6be
00000310: 0167 b0bd d676 a4be aba6 893e 99a1 cc3d
00000320: 38e0 8bbf b751 99bd a7a9 973e 08b1 a2bf
00000330: 4fa2 00bf 25c8 c23f e35a a93b b293 12bf
00000340: 0cc1 1d3d 95f1 6e41 a8e7 2b40 2d0d c6bd
00000350: 5df6 0840 27eb 4dbe 3e43 86be 569c dbbd
00000360: ce6e e2be acee 98bd bdaf 763c cd45 94bf
00000370: 9341 0fbd cdfb 203e aaf3 bfbf 9254 33bf
00000380: 264e c23f 9b52 d53d 3605 f7bc f08c eebe
00000390: 5ef2 4f41 8d4d fe3f 582e 153d df4d 673f
000003a0: ea8f c83e 6600 263d ab42 1f3e 12df dabe
000003b0: a50a 89be 4158 b7be f8cb 24bf d43c 36bd
000003c0: 582e 11bd d76e 8bbf bdff 22bf a7b4 b13f
000003d0: c2d4 b43d 169b 6bbd b7fd ddbe d35a 68c1
000003e0: 48ad 3dc0 7733 493e 91f5 0fc0 56c6 a53e
000003f0: def4 ae3e 35f4 9c3e 3316 fd3d b661 2bbe
-0.26784146 0.31948793 0.012261079 0.20087947 -0.109999746 -0.07625413 0.1736095 -0.14741316
-0.13227235 -0.044897765 -0.3020374 -0.033839565 -0.10219529 -0.116254516 -0.09229462 -0.039710723
-0.2935057 0.18472852 0.011114208 -0.23524433 -0.028226748 -0.21424165 0.18374977 -0.08871122
0.052407086 0.10101849 -0.1636261 -0.077722654 -0.10857877 -0.009218484 -0.23110695 -0.22306322
-0.08175248 -0.1222426 -0.081616074 -0.19842833 -0.12628819 -0.20110872 3.6105108 2.7799523
-0.7684859 3.0405009 -0.87016803 -0.76224005 -0.41102162 0.11075381 0.23730782 -0.10087824
-1.662596 -0.10131027 0.09684377 -1.1308516 -0.26617873 1.1708785 -0.0065994286 0.17487074
-0.22812185 -0.06763511 0.6218106 -0.53672796 0.38743874 -0.18082564 -0.6721052 -0.65874255
-0.12435283 -0.30363587 -0.5029055 -0.2125204 -0.43803206 -0.23633876 -0.22755118 -0.32265627
0.47405678 -0.008288312 0.4711949 -0.16882029 -15.344964 -3.259708 0.08287647 -2.5482643
0.30080664 0.33390734 0.12911882 0.41866684 0.19304267 0.07892455 0.9523751 0.048681807
0.09258544 1.0570008 0.5761444 -1.6681739 0.0375963 -0.16108848 0.13507238 -14.939199
-3.2072043 -0.38901424 -2.3738651 -0.38459328 -0.113697186 -0.07667625 0.09140781 -0.118779525
-0.24675764 0.87224287 0.1248521 -0.2733716 0.76886237 0.50930506 -1.8015319 0.1395662
0.05306045 0.34658715 0.19042888 0.047539443 -0.09017795 0.07631093 -0.0015523732 0.13937297
0.25198692 0.08512795 -0.012991071 0.24919868 0.021758467 0.026382893 0.056618243 -0.029775977
-0.14584011 0.07413164 -0.21365729 -0.08444627 0.16796806 4.6522274 1.3076776 -0.0054330067
1.1907783 -0.11344252 -0.19912593 0.07011242 -0.02145753 0.03831692 -0.20281196 -0.15346023
0.051363297 0.38660598 -0.49903068 -0.40621912 0.99109507 -0.13895178 -0.23932569 -0.20343253
0.08601254 0.0012704432 -0.030807331 0.26567388 0.12450439 -0.24283352 0.2530856 -0.033610284
-0.25447106 -0.123744786 0.04085481 -0.081915945 0.16854209 0.20789951 0.18702036 -0.09466188
-0.20460989 -0.028198153 0.047637373 12.381367 2.000066 0.39881507 1.1775733 0.11947022
-0.02587402 -0.13089539 -0.5935207 -0.27346632 -0.35153967 -0.9179342 -0.34651572 0.10618222
-1.0326604 -0.47047454 1.7134342 0.073197335 0.19304344 -0.38471353 13.789093 3.3987448
-0.617816 2.9306142 -0.23555902 -0.32566756 -0.086133964 -0.32121915 0.2688497 0.0999176
-1.0927801 -0.07486289 0.29621622 -1.2710276 -0.50247663 1.5217329 0.0051683052 -0.57256615
0.038514182 14.93398 2.6860142 -0.09670482 2.1400368 -0.20109235 -0.26223177 -0.10723178
-0.44225162 -0.07467398 0.015056548 -1.1583802 -0.034974646 0.15721054 -1.4996235 -0.7005092
1.5180099 0.10416146 -0.030153852 -0.46591902 12.996672 1.9867417 0.03642115 0.90353197
0.39172298 0.040527724 0.15552776 -0.42748314 -0.26765934 -0.3580952 -0.6437373 -0.044491604
-0.035444587 -1.0893201 -0.63671476 1.3883256 0.08829643 -0.05752095 -0.43357632 -14.522174
-2.9637012 0.19648539 -2.2493632 0.3237788 0.34171194 0.30655065 0.1235775 -0.16736493
