deployment/models/edge_modelS2.tflite (tflite, 15456 bytes, 5 tensors)

arith.constant f4 [1, 32]
000000 5f e0 1e 3e f8 fd e0 3d e4 41 25 bc 63 53 0a 3d
       0.15515278 0.10985941 -0.01008651 0.03377093
000010 79 87 8f 3c a6 9e e1 bb 78 87 52 bc 15 e5 38 be
       0.017520653 -0.0068853674 -0.012849681 -0.18056138
000020 16 29 14 bc 4d 8b ee bc 84 02 a8 bc 13 88 9a bc
       -0.009042999 -0.029119158 -0.020509012 -0.018863713
000030 ad 4a 55 3e 32 43 3d bc e5 cf 4c bb b4 c0 71 be
       0.20829268 -0.011551665 -0.0031251844 -0.23608667
000040 cb ab 8a 3e fc da 0d 3d 48 f3 cd ba d6 21 77 3e
       0.27084193 0.034632668 -0.0015712762 0.24134001
000050 84 06 3f 3e ea 28 f8 b8 5c 8e 02 3e 5f 09 a0 3c
       0.1865483 -0.00011833182 0.12749618 0.019535718
000060 26 61 89 3c 44 00 4f 3e ec 97 f3 bd c8 25 79 bd
       0.016769957 0.20214945 -0.11894211 -0.060827047
000070 9d 09 ec bc b6 e4 a9 be 7e b0 dc bc 73 5e b8 bc
       -0.028813178 -0.33182305 -0.026939627 -0.022505974

arith.constant1 f4 [32, 64]
000000 dd 96 05 bd ac 00 59 3d 2e c6 d8 3c b2 8a 37 3e
       -0.032614578 0.052979156 0.026461687 0.17924002
000010 80 6e 38 3e 41 8a 7e 3c ca 39 bc 3d 57 d9 2b bd
       0.18010902 0.015535892 0.0919071 -0.04195532
000020 64 9a 6c 3e 88 9d 69 bd b4 55 7d 3e 04 7a b9 3d
       0.2310577 -0.057035 0.24739724 0.09056476
000030 db 6c 36 be fd 89 8f 3c 1d d5 12 be 2a 3a 2b bc
       -0.17814963 0.017521853 -0.14339109 -0.010450879
000040 b5 27 33 3e 1a b4 71 3d 38 74 95 bd f2 07 b2 3b
       0.17495616 0.05900965 -0.072975576 0.005433076
000050 e0 26 fd bc 0c 35 2b be c0 c1 ee bc 80 2a 2f 3c
       -0.030902326 -0.16719455 -0.029145122 0.010691285
000060 c4 16 0c be b3 f3 67 3d c0 d3 df bd 2b 51 95 3b
       -0.1368056 0.056628894 -0.1092906 0.004556795
000070 9d 13 b6 bb 16 2a 7b be 10 6d e6 bd 1d ff 0d 3e
       -0.0055565373 -0.24527773 -0.11251271 0.13866849
000080 20 ed 2e bd 89 fb 36 3c e0 2d 63 3d 20 db 5f be
       -0.04270661 0.011168369 0.05546367 -0.21860933
000090 6e e4 25 be fc 21 2b 3d 2a d6 1c 3e 8f 66 61 bd
       -0.1620042 0.041780457 0.15316072 -0.055029448
0000a0 7d 1c 32 be 0c d1 ea 3d 2d 5c 66 3c f0 7c 0a be
       -0.1739368 0.11465654 0.014060062 -0.13524222
0000b0 28 9d 0d be 35 b6 63 3d 52 89 33 3e c1 a8 54 bd
       -0.13829482 0.055593688 0.17532852 -0.05191875
0000c0 78 c4 c8 3d 20 8d 6a 3d e8 82 d9 3d de 67 09 3e
       0.098030984 0.057263494 0.106206715 0.13418528
0000d0 20 f0 2f be 7e f6 13 3e b9 eb 0d be b9 5a 26 be
       -0.17181444 0.14449498 -0.13859452 -0.16245545
0000e0 12 4b 3e 3b e6 0b 43 be c4 2d 57 3e 46 e3 36 3e
       0.0029036445 -0.19047508 0.21013552 0.17860135
0000f0 d0 66 a1 bd 93 48 58 3e 2b 9e 27 bd 19 8c 84 bd
       -0.07880938 0.21121435 -0.040922325 -0.06472034
000100 70 98 3d be ce 7e 40 be cb ab 8d bd 16 82 0e 3d
       -0.18515182 -0.18798372 -0.069175325 0.03479203
000110 e8 10 13 be a8 be b5 3d 96 bb 34 3d f0 6a 56 3d
       -0.14361918 0.088742554 0.04412421 0.052348077
000120 8c a1 0f 3e 90 e1 7b bd e0 73 7a 3d 13 37 bd bd
       0.14026469 -0.06149441 0.061145663 -0.0923902
000130 8c ee 01 3e b0 27 e1 bd d8 46 0f be 2c 95 4f be
       0.12688655 -0.10993898 -0.13991868 -0.20271748
000140 00 6c 6a be cc 70 5a 3e 08 20 35 3e 9a ab 9d bd
       -0.22892761 0.21332091 0.17688 -0.07698746
000150 78 de ca bd 06 a9 df bc e0 8b d3 bc 00 ae 43 3b
       -0.09905714 -0.027302276 -0.025823534 0.002985835
000160 48 ac 47 be 00 e5 87 bb dc 07 5f 3e 10 c5 f4 3d
       -0.19499314 -0.004147172 0.21780342 0.11951649
000170 b8 14 b6 bd 84 ed 2d 3e ec 7d 56 3e c0 79 46 3e
       -0.088906705 0.16985136 0.20946473 0.19382381
000180 2c 59 0e be 0d 68 00 be d8 a3 a6 3d f0 ab 11 3d
       -0.13901204 -0.12539692 0.081367195 0.035564363
000190 f0 a3 24 be 64 18 7d 3e f8 96 df bd 2c 93 37 be
       -0.16078162 0.24716336 -0.10917467 -0.17927235
0001a0 8f 0a c5 3c e0 b5 9d 3d b0 1f d6 bd d4 53 7e be
       0.024052886 0.077007055 -0.10455263 -0.24836665
0001b0 f1 b8 96 bc 60 63 b4 3c 4f 51 76 be 50 ed 05 3e
       -0.018398734 0.022020042 -0.24054454 0.13078809
0001c0 3c f9 73 be 80 07 e4 3c 0c 0f 60 be c0 7d 4b 3d
       -0.23825544 0.027835608 -0.2188074 0.04968047
0001d0 00 fc 72 3d 7d 1e a5 bd c0 7d 03 3d 82 62 2d 3c
       0.059322357 -0.08062456 0.032102346 0.010582568
0001e0 e1 b3 62 bd 60 88 62 3d 24 4c 47 be 30 af 05 be
       -0.055347327 0.05530584 -0.19462639 -0.1305511
0001f0 c4 ad 27 3e 7d 90 f3 bd 00 25 b1 bc e0 3b 1d bd
       0.1637488 -0.11892793 -0.021624088 -0.03838718
000200 1c 5f 14 3d eb f3 9d 3d 63 2d e0 bd 9b b4 f5 bd
       0.036223516 0.07712539 -0.10946157 -0.119973384
000210 33 ec e8 bd ef 77 79 3e 7c e1 fc 3b 43 e6 a2 be
       -0.113731764 0.24362157 0.0077173095 -0.318163
000220 d6 51 af bd c2 2d f7 3d 00 27 dc bd c3 d1 71 be
       -0.08560531 0.120692745 -0.10749626 -0.23615174
000230 51 5d 09 be d7 da 61 be 62 a0 4a 3d 9e d1 98 be
       -0.13414504 -0.22056137 0.04946936 -0.29847425
000240 57 6f 4d 3e 05 cf db bd 35 f5 a2 3d c9 36 b5 be
       0.20062004 -0.10732845 0.07956926 -0.3539336
000250 08 ed 76 be 18 71 af 3a 94 72 21 be d8 b5 93 bd
       -0.24113858 0.0013385145 -0.15766364 -0.07212418
000260 0d f7 dd bd b7 a1 86 3d 2e c8 55 3e 40 46 1b 3e
       -0.10838137 0.065738134 0.20877144 0.15163517
000270 06 ab 26 be f5 59 9f be c0 d0 4f 3d 2f 81 a0 bb
       -0.16276178 -0.3112332 0.05073619 -0.0048982124
000280 40 3a 21 3e 94 52 bd be 44 2d 41 be f0 5b ae 3d
       0.15744877 -0.36977065 -0.18864924 0.085136294
000290 3c f5 71 3d 5c 40 11 3d 9b f3 66 3e d0 21 8f be
       0.059071764 0.03546177 0.22553866 -0.27955484
0002a0 57 21 05 be 13 03 c6 3d 95 14 57 be 90 3b 3c be
       -0.13001 0.09668555 -0.21003945 -0.18382096
0002b0 4e 42 e7 3d f7 da 25 3e a4 ae 1f 3e 48 14 fe bb
       0.112919435 0.1619681 0.15593964 -0.0077538826
0002c0 2f 4b 39 be f0 1e 40 3e d0 63 06 3e 7b 0f c7 bd
       -0.18095087 0.18761802 0.13124013 -0.097197495
0002d0 78 75 13 3d 95 33 c9 3d da 27 87 be c4 b9 07 3d
       0.0360007 0.098242916 -0.26397592 0.033136144
0002e0 9c b2 9b bd ab 80 25 be e0 a8 b8 3c 2b ee 63 bc
       -0.076024264 -0.16162364 0.022541463 -0.013911764
0002f0 08 ad e5 3d 39 8f ad bd 2e c9 4a 3e d2 9f 29 be
       0.11214644 -0.08474583 0.19803306 -0.16564873
000300 c4 8a 5b be 84 85 03 3e bc b8 7b bd 29 0d 6d 3d
       -0.21439654 0.12843901 -0.061455473 0.05787388
000310 b0 bc a4 bd 70 a5 fe bd f9 f4 47 3e 29 3b 3e 3e
       -0.08043802 -0.124338984 0.19527043 0.18577255
000320 78 9d c0 bd a4 3f 0d be dc 0a 05 be 20 b9 55 be
       -0.09405035 -0.13793808 -0.12992424 -0.20871401
000330 50 27 3e bd 58 06 81 3d 30 04 4a be b8 1d 3c be
       -0.04642421 0.06300038 -0.1972816 -0.18370712
000340 e0 aa b6 bc e0 b0 d1 3c e0 50 1a be 30 a0 39 3d
       -0.022298276 0.025597036 -0.15069914 0.045318782
000350 34 4e 3f be cf f8 8b be a0 80 ae bc dc 08 43 3e
       -0.18682176 -0.27338263 -0.021301568 0.19046348
000360 80 07 14 3e 90 86 1b bd e0 03 5e 3d cc f2 4b 3e
       0.14455986 -0.037970126 0.054202914 0.19916838
000370 f8 ae b0 3d 40 5c be 3d d0 d1 55 3e a0 84 6e 3d
       0.08627123 0.09294939 0.20880818 0.05823195
000380 b8 ca 67 3e 70 dc 2a 3e 08 6c 3d 3e d8 6c 13 be
       0.22635925 0.16685653 0.18498242 -0.1439699
000390 e8 c2 6b 3e a4 6f 60 be 50 dd 4a 3d f8 64 10 3e
       0.2302357 -0.21917588 0.049527466 0.14101017
0003a0 d9 7e 08 be 80 bb 39 bc 80 40 e2 3b 60 88 24 bd
       -0.13329639 -0.011336207 0.0069046617 -0.04016912
0003b0 44 b5 58 be 10 3a 6f be bf 32 43 be f8 d4 e5 bd
       -0.21162897 -0.23361993 -0.19062327 -0.11222261
0003c0 14 28 5f be 18 b0 db bd 50 6d b0 3d 80 31 8b bc
       -0.21792632 -0.107269466 0.086146 -0.016991377
0003d0 20 38 67 be 0c aa 21 be f4 5f 39 3e d4 b9 46 3e
       -0.22580004 -0.15787524 0.1810301 0.19406825
0003e0 8f a8 83 be 40 ef 21 3d 7c b5 46 3e 94 3f 29 3e
       -0.25714538 0.039534807 0.19405168 0.1652816
0003f0 70 f6 f6 bd 31 24 2a 3c a0 03 01 3e 60 bb 6f be
       -0.12058723 0.010384605 0.12599039 -0.23411322

functional_4_1/e1_1/BiasAdd/ReadVariableOp f4 [64]
000000 c4 92 2e be b1 c8 4d be 8d 22 28 bd ad 13 c7 bc
       -0.17048174 -0.20096089 -0.041048575 -0.024301374
000010 18 e2 2d bd 76 b9 81 be d2 cb e6 3c 66 b6 d7 bc
       -0.042451948 -0.25336808 0.028173361 -0.026332092
000020 25 74 82 bd 28 ac 20 be 00 00 00 00 c8 eb 0b be
       -0.06369809 -0.15690672 0.0 -0.13664162
000030 c8 59 8b bc 0a 21 1b be 5f 73 39 bd 13 94 23 bd
       -0.017010584 -0.15149322 -0.045276042 -0.039936136
000040 ec 52 26 bc 1d 2e 71 bd f3 6b 0a be bb 38 1e be
       -0.010151606 -0.058881868 -0.13517742 -0.15451328
000050 00 00 00 00 c2 12 95 bd 00 00 00 00 00 00 00 00
       0.0 -0.072789684 0.0 0.0
000060 83 18 13 be c5 2c 73 bd e9 4c a0 bc 65 43 66 bd
       -0.14364819 -0.059368867 -0.019567924 -0.056216616
000070 13 e6 22 be b6 13 9d bd 00 00 00 00 48 eb d4 bd
       -0.15908079 -0.07669775 0.0 -0.10396439
000080 00 00 00 00 72 3a 0c be 00 00 00 00 00 00 00 00
       0.0 -0.1369417 0.0 0.0
000090 13 aa 38 bd a0 14 90 bc a9 28 12 bd 62 da f4 bc
       -0.04508407 -0.01758796 -0.035683308 -0.02988929
0000a0 73 cd 52 bd ea 7b 04 be 42 f8 50 be 00 00 00 00
       -0.051465463 -0.12937894 -0.20407203 0.0
0000b0 a2 50 e7 bd d6 a6 ae bc 04 7a 09 bd ec 43 54 bd
       -0.11294676 -0.021319788 -0.03356363 -0.051822588
0000c0 8b a9 01 be 00 00 00 00 00 00 00 00 64 5f 43 be
       -0.12662332 0.0 0.0 -0.19079357
0000d0 44 be da bd 25 ac 4b be 30 29 f3 bc 4d 6c 31 be
       -0.106808215 -0.19889887 -0.029682726 -0.1732647
0000e0 a1 92 df bd d4 91 8b bd 00 00 00 00 88 ea da bc
       -0.10916639 -0.06814924 0.0 -0.026723161
0000f0 00 00 00 00 c1 2c 85 bd 4c 5f 15 bd 30 6e ac bc
       0.0 -0.06502677 -0.036467835 -0.021048635

functional_4_1/e2_1/BiasAdd/ReadVariableOp f4 [32]
000000 26 d7 39 3b 36 13 02 bd 51 25 80 bd 66 5f 24 bd
       0.0028356998 -0.031756602 -0.062571175 -0.04013004
000010 ad d9 30 bd 60 c7 b0 bb 13 04 10 be 1a aa 16 bd
       -0.04317634 -0.005394861 -0.14064054 -0.036783315
000020 ff c5 12 bd 51 ec 09 bd d2 bf 59 bc 98 a4 7c bd
       -0.035833355 -0.033672635 -0.013290362 -0.061680406
000030 ce 57 dc bd 46 a3 9a bd d6 bb 5c bd 00 00 00 00
       -0.10758935 -0.07550673 -0.05389007 0.0
000040 12 72 51 bc 14 2e 78 3e 7b 1e dd bd 12 4e cb bb
       -0.012783544 0.24236327 -0.10796829 -0.006204375
000050 32 48 b4 3b 77 94 09 be 00 00 00 00 16 83 87 bc
       0.0055017704 -0.13435541 0.0 -0.016541999
000060 be 5f 3c be 00 00 00 00 0c 93 b5 bc 35 98 1f bd
       -0.18395898 0.0 -0.022164844 -0.038963515
000070 af 29 0a be d9 1e 81 bd d2 ad b3 bd 2f 49 c4 3c
       -0.13492464 -0.06304712 -0.08773388 0.023960678

functional_4_1/e1_1/MatMul f4 [64, 19]
000000 c6 0e 88 be a1 89 22 be 34 da 80 3d 59 2c a8 3d
       -0.2657377 -0.15872814 0.06291619 0.08211584
000010 ae f1 9c be 95 09 87 3a 6d 04 1e 3d 81 bf ae be
       -0.30653137 0.0010302538 0.03857844 -0.3413048
000020 84 b8 ad 3d 99 c5 15 be dc 99 f7 3d 9f a6 74 bd
       0.08482459 -0.14626159 0.12089893 -0.059729215
000030 df 4f cb be 3e 98 c7 be bc 0d 84 bd f1 32 0d 3d
       -0.39709374 -0.3898334 -0.06447932 0.03447241
000040 05 13 aa be 2c 2e 5e be c9 04 13 be 1d da d6 3e
       -0.33217636 -0.216973 -0.14357294 0.41963282
000050 c9 d4 34 be a3 2e 2a be 46 0a 6b bd b4 67 ad bd
       -0.17659296 -0.16619353 -0.057382844 -0.084670454
000060 f0 00 d8 3d 02 4c c9 3d 11 19 12 be b8 66 0b 3d
       0.10547054 0.098289505 -0.14267375 0.034033507
000070 9b 6e 27 be da 46 03 bf ff 9c de be 47 36 a8 be
       -0.16350786 -0.51279986 -0.43479154 -0.3285391
000080 87 5f 90 be 66 cd 2b bf 45 a6 e4 bd 1b 05 0a be
       -0.28197882 -0.6711029 -0.11164526 -0.1347851
000090 23 69 1f bd 2f 4d 46 bd 0a de dc c0 18 bd 0e c0
       -0.038918626 -0.04841345 -6.9021044 -2.2302914
0000a0 08 cc 34 3e 40 af 18 c0 72 1a a9 3e 53 ce b4 3e
       0.17655957 -2.3856964 0.3302799 0.35313663
0000b0 7b 9c 82 be 61 16 38 3e 49 70 32 bd ec e1 5b bd
       -0.2551001 0.17977287 -0.043564115 -0.053682253
0000c0 7a 84 e5 3f 8e 37 73 be 0d 6e bb be 14 33 9b 3f
       1.7931054 -0.23751661 -0.366074 1.2124963
0000d0 cf d8 05 3f 17 6a 27 bf f6 19 bc bb 17 b3 9a bc
       0.5228395 -0.65396255 -0.0057403995 -0.018884225
0000e0 a0 cc 0e 3d d5 75 a6 bd 64 8d f3 bd 07 04 5c be
       0.034863114 -0.081279434 -0.118922025 -0.21485911
0000f0 b3 55 da be 02 e4 3c 3e 9c 0e 14 be cd 3d 1f bd
       -0.42643508 0.18446353 -0.14458698 -0.038877297
000100 2d 31 24 bc 42 fd 89 3d de 24 13 be f4 e8 64 be
       -0.01002149 0.06737758 -0.14369532 -0.2235449
000110 f6 14 51 3e 56 c5 e0 ba 77 ef 71 bc 83 2a e3 bd
       0.20418152 -0.0017148654 -0.0147665655 -0.11092093
000120 26 19 5b be 3e 58 d0 3d 18 7e 68 bd 5f 8d 56 3d
       -0.21396312 0.10173081 -0.056760877 0.052380916
000130 9a 8a 7b be e6 9c 0c 3e ca ff fb 3d d8 b3 33 3d
       -0.24564591 0.13731727 0.12304647 0.043872684
000140 90 a0 48 3e 13 6d 2a 3e 4d b9 f0 bd 39 f5 c3 3c
       0.195925 0.16643171 -0.11754093 0.023920642
000150 86 e8 8a bd 33 42 6c 3d d8 8c f3 bc 91 42 93 be
       -0.067826316 0.05768032 -0.029730245 -0.28761724
000160 88 8d 5b bd 7a fb 50 be b9 0e 1b bd 95 5e 82 be
       -0.05360177 -0.2040843 -0.037855837 -0.25462785
000170 5e d9 62 be 3a e4 95 3d 6f cc 81 3d 39 7d db be
       -0.22153232 0.073189214 0.06337821 -0.42868975
000180 79 a2 80 be 90 e0 f5 bc 03 d1 bb 3b 2b 11 fd 3d
       -0.25123957 -0.030014306 0.0057317032 0.1235679
000190 49 14 6b be f4 c6 21 be 3b 1f 06 be 24 9a 94 3c
       -0.22956957 -0.15798551 -0.13097851 0.018139906
0001a0 7b 9a 9b be 31 98 7f be e6 8d af be 4e 40 b3 be
       -0.30391297 -0.249604 -0.34287947 -0.35009998
0001b0 4f 10 a7 bd 7c 05 fa bc 43 96 9c 3e fb 49 ab be
       -0.081574075 -0.030520193 0.3058339 -0.3345488
0001c0 6f b3 71 3d 36 c7 ce be 5c 9e 8c 3e e5 9c 09 be
       0.05900901 -0.4038636 0.2746457 -0.13438757
0001d0 fa e9 9a bd 3b d0 ca be 30 53 25 3d 59 a4 e3 3d
       -0.07564159 -0.39611992 0.040362537 0.11115331
0001e0 bc 19 08 be aa de ed 3c e8 4e f4 3d 27 62 d7 3c
       -0.13291067 0.029036839 0.11929113 0.02629192
0001f0 36 ce 98 3d 3e 0d ff bd d6 0b 0a 3e b6 22 8e 3e
       0.074612066 -0.124536976 0.13481078 0.27760857
000200 35 9f 28 3e 58 1f 7b 3e 93 b7 73 be 69 ac 23 3e
       0.16466983 0.24523675 -0.23800497 0.15983738
000210 d0 52 4d be 4d 22 2b 3f 56 07 25 3f fd 41 0b be
       -0.20051122 0.66849214 0.6446432 -0.13599391
000220 f7 df e4 3e 6e 93 96 be 3c 6a cd 3b 37 35 9f be
       0.44702122 -0.29409355 0.0062687676 -0.31095287
000230 a2 89 51 3d a8 8e d2 3d 4b 7a b4 bc 97 4f 80 be
       0.051156648 0.10281116 -0.02203097 -0.25060722
000240 e6 8f 67 be 38 6f 09 bf 45 d6 03 be 19 e0 3f be
       -0.22613487 -0.5368533 -0.12874706 -0.1873783
000250 fb 27 75 3d 0f be 18 bd fd 17 f5 bd aa c1 03 3d
       0.05985258 -0.03729063 -0.11967466 0.032167114
000260 2b 3a 12 bc 4e 42 4e be 86 d5 c5 3d ec 8e 5c be
       -0.008925001 -0.2014248 0.09659867 -0.21538895
000270 08 7a 03 3e a9 65 4c be 03 ba 00 be d1 47 7e 3c
       0.1283952 -0.19960655 -0.12570958 0.015520052
000280 df ad 66 be d4 71 fc 3c c5 1f 67 be 57 e2 37 bc
       -0.22527264 0.030815996 -0.22570713 -0.011223397
000290 5e 92 9f ba cf d8 67 bd 53 22 6a 3e 6f 09 91 be
       -0.0012174358 -0.05660325 0.22864656 -0.2832751
0002a0 9b fb b6 bb 40 b3 1d be 6e 25 9d bb 14 4f 1e bd
       -0.005584193 -0.1540041 -0.0047957217 -0.038649634
0002b0 ec 3e 17 be 44 91 97 be 98 b2 87 be de 7f 86 be
       -0.14770097 -0.29603016 -0.26503444 -0.2626943
0002c0 8d 7b 15 be 76 e2 15 3b 3e 5a c4 be 80 fa 79 3c
       -0.14597912 0.0022870577 -0.383501 0.015257478
0002d0 04 7b 81 3d ed 4b 00 be 49 f3 80 bd bd 76 53 be
       0.063222915 -0.12528963 -0.06296403 -0.20650764
0002e0 98 f5 95 be 7d 75 5d be d5 fb 56 bc d7 38 0e be
       -0.29288936 -0.2162685 -0.013121565 -0.1388887
0002f0 1b 44 e0 3c 12 8a 33 3d 5a f9 8f bd b0 e8 ca 3d
       0.027376225 0.043832846 -0.07029982 0.09907663
000300 1b ac 51 be c0 bf 01 bd 5a a3 63 3e 64 c4 20 be
       -0.2047581 -0.031677008 0.22230282 -0.15699917
000310 46 2c 4b be 38 a9 c0 3d 10 ca 82 be 48 08 03 3e
       -0.19841108 0.09407276 -0.25544786 0.12796128
000320 7a 45 fd bd 84 8d 55 be f0 56 00 3d cc 88 ae bd
       -0.12366767 -0.20854765 0.03133291 -0.08522186
000330 90 cc 40 3e 78 9a 6d 3d a4 f7 69 bd 6a 62 31 be
       0.18828034 0.05800864 -0.057120934 -0.17322698
000340 34 5b 1f be 1a 24 1e be b4 4f bb 3e 64 df c7 3b
       -0.15562135 -0.15443459 0.36584246 0.0060996283
000350 89 61 b5 be d2 e3 33 be 3c 99 ca bc 2e 68 bd 3d
       -0.35425976 -0.17567375 -0.024731271 0.09248386
000360 76 f8 40 bc 2c c2 8d 3d 18 6a 27 3d e6 0c 67 be
       -0.011777988 0.06921801 0.040872663 -0.22563514
000370 db c4 d6 bd 0b 85 9f be 49 7c 40 be 56 66 0a 3e
       -0.10486766 -0.3115619 -0.18797411 0.135156
000380 60 d3 7d be 9a a3 9d 3d 95 c0 7a be 3e cd ed bd
       -0.24787664 0.0769722 -0.24487527 -0.116114125
000390 2f 62 97 3e b5 51 e9 be b1 ed 76 3d 81 9b 43 3d
       0.29567096 -0.4557015 0.060285274 0.047755722
0003a0 d4 a4 2b 3e df 2e 56 be d9 4b 27 3e 83 50 fa bd
       0.16762096 -0.20916317 0.16337527 -0.12222388
0003b0 c6 94 f2 bd 45 1e 17 be c3 cf 9f bd 9c 41 89 3d
       -0.118447825 -0.1475764 -0.07803299 0.06701967
0003c0 6e e6 62 3e 96 a1 ac bd f4 4d 3d 3e cf 4b e3 3c
       0.22158214 -0.084292576 0.18486768 0.02774611
0003d0 31 bd 69 3d 5a 1f 0a be ab 21 de bd 16 77 80 be
       0.057065193 -0.13488522 -0.108462654 -0.25090855
0003e0 4a 9b 3a be 05 44 a6 be db 0b f5 bd 66 57 bf bd
       -0.182233 -0.3247377 -0.11965152 -0.09342842
0003f0 5f da 81 be 91 f9 59 bd 6e 55 91 be a6 92 36 be
       -0.25361916 -0.05321652 -0.2838549 -0.1782938
