deployment/models/edge_model.tflite (tflite, 15464 bytes, 5 tensors)

arith.constant f4 [1, 32]
00000000: e951 be3e 6c38 d33e 746e 5dbd fc0f 6bbe
00000010: c32a 403e bea4 b83e ab12 523e f95b 80be
00000020: a3f6 bebe 60c6 d93d 8857 fcbd 8af5 2d3d
00000030: 0d66 a23b 586b 793e 7671 b1be b013 f3bd
00000040: d72a 85be ff90 6cba 0896 493e aec6 cf3d
00000050: 521a ac3e 53f7 673e dedc 8abe 84e3 b4bd
00000060: e9b9 823e 380f 273d 2341 2d3e 5477 21bc
00000070: 4214 8f3e c05e fe3c 84ad 83be c85b a2bb
0.37171867 0.41253984 -0.054060414 -0.22955316 0.18766312 0.36063188 0.20514934 -0.2507017
-0.37297544 0.1063354 -0.12321383 0.042470492 0.004956013 0.24357355 -0.34656876 -0.118689895
-0.26009247 -0.00090242916 0.19686139 0.10145317 0.3361383 0.2265294 -0.27121633 -0.08832458
0.25532463 0.040785998 0.16919379 -0.00985511 0.27945143 0.03105104 -0.2571832 -0.004954789

arith.constant1 f4 [32, 64]
00000000: c04f 173e c734 52be 1c7f 4e3e 259b a43d
00000010: 3c83 0dbe c1f6 59bd 7881 b5bd cd1f 3b3d
00000020: 4428 6a3e 4432 4ebd 4367 0dbe d42d 423e
00000030: 3097 3a3b de66 a33d 8e72 52be b018 a9bc
00000040: b452 4cbe fc0e 07be 4c30 943c 00d6 2ebb
00000050: 0097 99bb 3daa 23bb c73e 443e 00ae ebba
00000060: 59c3 72be 29b1 2dbe c076 82bd 5000 e2bd
00000070: 007c cf3d 8016 fe3d 0080 caba 6b7c 88bd
00000080: 9452 0a3e 80f3 c6bd 186d 78be 1cb1 7ebe
00000090: 29d0 f2bd adcb 1a3e fc8e 17be c8d3 05be
000000a0: 5cad 363e 98c0 adbd b0de 15be 3722 783a
000000b0: 2110 a8be ddeb 5ebe bad3 a4bc 406c ecbc
000000c0: ab1c 47be c096 0b3d f017 e53d 0bb1 ffbd
000000d0: 60d1 97bc 9231 89bd ce0a 86be fb72 243e
000000e0: d864 52be 5562 0a3e 1cb0 42be bfab 373e
000000f0: 36dc 74be 88b7 83bd 56f8 963d 9fdc 8f3c
00000100: 20ca e33c 10ad 353d 0075 fcbb 00cd 303b
00000110: 3805 debd 00d4 823c 0831 f3bd 2cda 5a3e
00000120: cc7e 633e 3c49 33be d06e 68be d031 21bd
00000130: 682d cbbd 706d 6fbe 1053 1ebe 64a1 073e
00000140: a0fa 49bd 20bf ac3d 843f 793e d44b 143e
00000150: 0013 223e d835 5cbe 5011 10bd 14c0 2bbe
00000160: 3050 9bbd f026 cc3d e017 1f3d 0060 1f3a
00000170: e830 80bd b8fa 27be c0b7 4a3e cc3b 213e
00000180: 4076 6ebe 60ce 1e3d 3842 36be f8fc 04be
00000190: b495 7abe 48e9 c7bd c836 7f3e 482a 603e
000001a0: 2493 43be dc69 623e 90f1 4f3d 0056 b0bb
000001b0: e075 ca3c d079 663d 2805 953d 78ab 21be
000001c0: 2861 dcbd e84c 423e 40d2 07bc e021 0ebe
000001d0: c068 29bc 2c78 38be 7cb0 1ebe b8c6 3fbe
000001e0: a0bb 013d 50c7 a7bd a09f 1f3d 6817 b23d
000001f0: 40f3 9dbd 0040 ceb8 d0dc 43be a0e2 31bd
00000200: d157 e83d e363 7d3d 6f27 bfbd 501a a93c
00000210: 80c8 f63d 6c1b 99be f07f 42be be93 9bbd
00000220: 6758 673e 5c28 31be 059c 4b3e 7707 9a3d
00000230: 2e6c 19be 0496 563c 068a 22bb f46a 5e3c
00000240: 3c5a 48be 4c0f 30be 3269 813d 94c8 14be
00000250: 3ce8 533e 2bae a13d b665 01be 844e 6abd
00000260: fbe0 b43d d030 4f3e 36f6 703d 3c72 49bd
00000270: c085 653c e092 193e 3b68 293e 3109 613e
00000280: 1cb0 69be 2c6f 123e 98dd 85bd ce16 edbc
00000290: 29c7 f93d e96d 543e dc72 4d3e 8472 6cbe
000002a0: f43e 633d 28a1 51be 50c6 27bd 942f 513d
000002b0: 504a 6d3e 033d a73b ffff 0ebe e408 ffbd
000002c0: e0dd 413d 60fe f63d d0d4 0b3e 22f6 81bd
000002d0: 84df 233e fac6 38bd 5a27 dabc 43e4 763e
000002e0: 0457 073e 9a81 3d3e 002b 103d 3beb 97bd
000002f0: 1ba3 df3c 1bf9 7fbe 5399 1fbe 263a aabd
00000300: 9833 c03d 5cdc 5ebe ec2b 513e ecbf 2a3e
00000310: 200b a83c d094 e2bd 28a1 24be bcf6 60be
00000320: d48b 293e 0c78 7ebe 9cf3 383e 0085 653c
00000330: c0e5 35be a00a f03d f076 89bd 5c13 33be
00000340: fc4e 4abe b037 b0bd c851 ce3d 7804 ef3d
00000350: 28a4 ce3d 1ca8 433e 1cd2 58be c09a a2bc
00000360: a0a7 8dbc 00bf d63b 0063 5abd f84c f0bd
00000370: 0080 633c 2082 20bd 9437 5cbe 881b 033e
00000380: dc0f 713e 6090 a2bc 808f f1bb 94a1 53be
00000390: bcd4 163e 3037 093d 205d 1cbe d83e 1bbe
000003a0: 9850 38be 308c a9bd 10c7 de3d c014 4fbd
000003b0: 1095 563e 604d 773e 30df 3abe 5cab 37be
000003c0: 5060 593e 00d7 c0bd 4020 cdbc b0ff dc3d
000003d0: 807d b9bd b08f 193e 80e8 f73b 68f8 00be
000003e0: 00e4 61be 8039 af3b d044 8d3d 20bd 7bbe
000003f0: 609b aabd f040 493e 380a 5bbe 047f 51be
0.14776516 -0.20527945 0.20165676 0.08037404 -0.13819593 -0.05321384 -0.08862585 0.045684624
0.22866923 -0.050340906 -0.13808922 0.18962795 0.0028471462 0.07978605 -0.20551512 -0.020641655
-0.19953424 -0.1318931 0.018089436 -0.0026677847 -0.00468719 -0.0024973296 0.19164573 -0.0017980933
-0.23707332 -0.16962112 -0.06370306 -0.11035216 0.10131073 0.12406635 -0.0015449524 -0.06664356
0.13508064 -0.09714413 -0.24260366 -0.2487225 -0.1185611 0.15116759 -0.14800638 -0.1306907
0.17839569 -0.08484 -0.1463573 0.00094655476 -0.32824805 -0.21769662 -0.02012049 -0.028860211
-0.1944453 0.034079313 0.11186206 -0.1248494 -0.018532455 -0.06698908 -0.26180118 0.16059487
-0.20546281 0.13514073 -0.19012493 0.1793661 -0.23912129 -0.0643149 0.07371585 0.017561255
0.027806342 0.0443545 -0.007704377 0.0026977658 -0.10840839 0.01597023 -0.11874586 0.21372288
0.22216338 -0.17508405 -0.22698522 -0.039354146 -0.0992077 -0.23381591 -0.15461373 0.1324516
-0.04931128 0.08434892 0.24340636 0.14482051 0.1582756 -0.21504915 -0.03517276 -0.1677249
-0.07583654 0.09968364 0.03884113 0.0006079674 -0.06259328 -0.16404235 0.19796658 0.15745467
-0.23287296 0.038771033 -0.17798698 -0.12987125 -0.2447117 -0.09761292 0.24923241 0.21891129
-0.19099098 0.22110695 0.05076748 -0.0053813457 0.02471441 0.056268513 0.07276374 -0.15788066
-0.107607186 0.1897465 -0.008289874 -0.1388011 -0.010339916 -0.18014592 -0.15497011 -0.18728149
0.031673074 -0.08192313 0.03897059 0.08695871 -0.07712412 -9.8347664e-05 -0.19127202 -0.043429017
0.11344875 0.061862838 -0.09333693 0.02064243 0.12049961 -0.29903734 -0.18994117 -0.07596539
0.22592317 -0.17300552 0.19883735 0.07520955 -0.14982674 0.01309729 -0.0024801507 0.013575304
-0.19565672 -0.17193335 0.063188925 -0.1452964 0.20694059 0.07894548 -0.12636456 -0.057203785
0.08831974 0.20233464 0.058828555 -0.049181208 0.014008939 0.14997435 0.16543667 0.21976162
-0.22821087 0.14300221 -0.06536406 -0.028941538 0.1219619 0.20745052 0.20063347 -0.23090559
0.05547996 -0.20471632 -0.04096061 0.051070765 0.23172879 0.0051037087 -0.13964842 -0.124528676
0.047330737 0.12060237 0.136554 -0.06345774 0.16003233 -0.045111634 -0.026630092 0.24110512
0.13216788 0.1850647 0.035197258 -0.074179135 0.027299454 -0.2499737 -0.15585832 -0.08311872
0.09384841 -0.21763748 0.20426911 0.16674775 0.020513117 -0.1106354 -0.16077101 -0.21969122
0.16557246 -0.24850482 0.1806168 0.01400876 -0.17763424 0.117207766 -0.06712139 -0.17487854
-0.19756693 -0.086043715 0.10074192 0.11670774 0.10089904 0.19107097 -0.211739 -0.019849181
-0.017291844 0.0065535307 -0.05331707 -0.117334306 0.013885498 -0.039186597 -0.21505576 0.12803471
0.23541206 -0.019844234 -0.007371843 -0.20667106 0.14729589 0.033499897 -0.152699 -0.15160692
-0.17999494 -0.08278692 0.10877812 -0.050556898 0.209553 0.2415061 -0.18249202 -0.17936462
0.21228147 -0.09416008 -0.025039792 0.10790956 -0.0905714 0.14996219 0.007565558 -0.1259476
-0.22059631 0.0053474307 0.068978906 -0.24583864 -0.08330417 0.19653678 -0.21390617 -0.20458609

functional_11_1/e1_1/BiasAdd/ReadVariableOp f4 [64]
00000000: 6065 23bd 0750 52bd e5df babc 6f9c a3bd
00000010: 0000 0000 dcb1 b9bc 0000 0000 8c8a 8ebd
00000020: 2917 1dbd d7c2 bbbb 07b7 07be 1467 92bd
00000030: f3b2 65bd 95db 35bd 1364 17be 2b93 d3bc
00000040: 0000 0000 0000 0000 9061 2dbe 0000 0000
00000050: 0000 0000 62d7 01bc b8d6 dcbc 716c 70bd
00000060: 7ea0 00be 0eb3 f7bc 80a2 03be 9cc3 52bc
00000070: 0000 0000 0000 0000 107d 66bd 64b6 65bd
00000080: 633f 32bd 0db2 83bd 0000 0000 bbd2 fcbc
00000090: 9be7 babc fb95 8abc 0000 0000 09ca 2bbe
000000a0: aa77 97bd 0000 0000 0000 0000 2559 f2bd
000000b0: f929 2dbc a986 eebc 5101 80bd 2f15 4bbc
000000c0: 7db2 acbd 0000 0000 36b0 d73a 49cc 51bd
000000d0: a037 3dbb b572 3e3c 046f 4c3c a30d 5ebd
000000e0: 0000 0000 a804 8fbd 0000 0000 2d8b 95bc
000000f0: 19da 4d3c e9bb 36bc 2738 acbd 8022 a7bc
-0.0398916 -0.05134585 -0.02281184 -0.07988822 0.0 -0.022667818 0.0 -0.069600195
-0.038352165 -0.005730014 -0.13253413 -0.07148567 -0.056078862 -0.044398863 -0.14784269 -0.025827011
0.0 0.0 -0.16931748 0.0 0.0 -0.007924886 -0.026957855 -0.058697168
-0.12561223 -0.030236747 -0.12854958 -0.01286402 0.0 0.0 -0.056271613 -0.056082144
-0.04351748 -0.06430445 0.0 -0.030862203 -0.022815516 -0.01691722 0.0 -0.16776289
-0.07395871 0.0 0.0 -0.11833409 -0.010569089 -0.029116945 -0.06250251 -0.012395187
-0.084324814 0.0 0.0016455713 -0.051220212 -0.0028872266 0.011624028 0.01247764 -0.054212224
0.0 -0.0698331 0.0 -0.01825484 0.012564206 -0.0111532 -0.08409148 -0.020402193

functional_11_1/e2_1/BiasAdd/ReadVariableOp f4 [32]
00000000: 99cb 30bd 0000 0000 99ab 94bc 0000 0000
00000010: db77 65bd 7d19 02bd e89b e63c 34e9 23bd
00000020: 108f 1abd 0000 0000 8b78 423c b6f4 713c
00000030: b21b 85bd 0000 0000 a702 a5bc 0000 0000
00000040: 3c2d 00bd 9ca0 933c 0000 0000 ed69 e63c
00000050: 2519 26bd 3020 023d 1178 a9bc 7616 0fbd
00000060: 48fc 5c3c 0000 0000 1bcf c73c 86bf 1abc
00000070: 87eb d7bb 0000 0000 d2db 8ebc df9f 23bc
-0.043162916 0.0 -0.01814823 0.0 -0.056022506 -0.03176259 0.028150514 -0.04001732
-0.03773409 0.0 0.01186956 0.014767816 -0.06499423 0.0 -0.020142866 0.0
-0.03129314 0.01802092 0.0 0.028126681 -0.040551323 0.031768978 -0.020687135 -0.03493353
0.013487883 0.0 0.024390748 -0.009445077 -0.0065893563 0.0 -0.017438803 -0.009986847

functional_11_1/e1_1/MatMul f4 [64, 19]
00000000: ed0e c93d 9201 77be 70be d0bd 87da eebd
00000010: 2202 893d a0a7 7ebe 2744 1ebd aea9 c0bd
00000020: d038 08bd dc07 42be 212c 59bd fbe2 a8bd
00000030: bd1b 3c3d 8a53 0ebe d2b0 d53c 2509 2fbe
00000040: 28de 093d 3d6a 49bc 9f5b 8c3d e469 1f3e
00000050: 63eb cf3c 5b36 adba 8bb6 993e 7724 5f3c
00000060: 1874 2a3e c3da fd3d 7cb8 f63d ec7c c03d
00000070: 88c7 79be 5bd8 ffbd 246e 473e 69bc 89be
00000080: 6664 24be f5bd 46bd 96b8 91be 6b3e 093e
00000090: e045 63bd c4cf 323d 7239 153e 1f4c fe3d
000000a0: 63e7 c1bd 355e 1c3e 6bb0 97be 641c 79bb
000000b0: 302a dd3d cc07 08be 2928 573e 7f1c f9bd
000000c0: d85e 093d 6956 f9bb 696f 48be 1648 81be
000000d0: de0d d73d 4537 24be 7a33 ae3d d4a0 9ebd
000000e0: 1c5c 6abe 0260 f3be d1b9 493e bb44 b9be
000000f0: 396f 13be a7c9 81be de2d 1ebe 3183 7fbd
00000100: 8740 aebe a5ae 453d 35e3 0ebe e7ff 873d
00000110: 7331 043e abe7 cfbd e0ed 593d 59f6 2bbe
00000120: d43d b8be 96e4 f83d a434 e8bd e152 acbd
00000130: f0c5 dcbd a6db 563e 68fa 34be 807a c3bc
00000140: 0cdf b8bd b2ed 35be 70b1 633d 0a18 9bbd
00000150: 94d8 82be 3222 293e d923 86be 5f3b 3bbe
00000160: c813 083e c8c3 efbd 90c3 febd cc44 97bd
00000170: a67e 0cbe 5c49 13bd 88db 72bd 0755 a0bd
00000180: 1581 82be 5168 3ebe 1291 dd3d b65c 2bbd
00000190: 03a4 67be 5cdc 843d 8dfd 84be 81d7 5b3d
000001a0: 8864 5bbe bf9e 7abd 0811 be3d aba2 a93d
000001b0: e014 1e3e c5d8 8b3e 9f1a 92bd 8221 aebd
000001c0: 2b73 083e 8712 373e 6983 08be 086a b13d
000001d0: 780b a23d 502f 033e 20a9 d83d b674 223e
000001e0: 6ed9 113e 1763 1ebe d60f 46be 4861 37bd
000001f0: ca94 f7bd 0093 b13c 6073 433d 2484 273e
00000200: 1e31 273e 6460 bb3d f829 d5bd e8d2 7bbd
00000210: b089 36be 5382 4abd eafe 3cbe a3f5 7dbe
00000220: 0324 243e b755 3c3e 5789 9bbd fba6 9e3d
00000230: 022e 97be 94a9 c7bd b595 a0be a3fe 8a3d
00000240: 2605 bf3d eff9 28be 41a8 493d eccb e13d
00000250: 22d1 303d 2142 64be 59d1 01be 0c48 40bd
00000260: 6867 f43d 1e37 c0bd 6af0 35be e0c2 683e
00000270: e24f 3c3e 2f43 0abe 645b 2f3d f6d3 2abe
00000280: 0f04 8bbe f069 643e 1aca 013e 66c3 1cbe
00000290: 483f cdbd 665a 35be 2b73 b93d 0c07 43be
000002a0: 712e 21be b70f 2c3e f2f3 8fbd 8733 1cbf
000002b0: 85b8 d9bd fdd7 0f3d 79ff 5b3e fdca 3d3d
000002c0: a2f1 2ebe b6ef ab3d 7fb2 813d bfc3 14be
000002d0: 4e5f 5e3d b56d 953e 04a2 193e b083 3f3e
000002e0: 498e 5e3e 308d aabd 30ca cf3e d540 a8bd
000002f0: 457d a6bc 42f6 c03d 29cf fb3e 52b8 76be
00000300: d89b adbc 0057 d53d bfa6 a1be 1021 bfbe
00000310: f60f 55be 7bca 65be a5e0 933d 29ea 3abe
00000320: f955 043e 2d4d f8bd 23fa 0dbe 585a f8bd
00000330: 65e1 fcbd 51c8 ecbc 4ed3 adbe ab35 c2be
00000340: 1ef2 98bd c92c eebd 9e0e b9bd 811b aa3d
00000350: 85d2 9bbe 2937 7cbe 4514 89be bd41 ffbd
00000360: 4589 ea3d a4ba 64bd a2b3 f33d 7e18 753c
00000370: 6235 9d3c f90a ba3d 4797 8e3d 1780 acbd
00000380: 222a 133e 38d6 093e deb1 cb3c 39c3 bd3c
00000390: d179 783a bf4d 1f3e aad7 453e ab2e 873e
000003a0: 0def 553e 0461 8abe 5512 7dbe ca0c 573d
000003b0: 1f57 143d d6a1 48be a322 673e b184 9c3d
000003c0: 4e58 eabd 7e58 3cbe 1609 a73d 8e6d edbd
000003d0: f260 7f3d 18dc 573d dc01 9bbe c4d6 f8bd
000003e0: 45b5 abbe cdb7 513e 1c0d b1bd f820 ddbc
000003f0: 1be3 503e 5442 923d c81d 63be 05f7 0e3d
0.098173 -0.24121693 -0.10192573 -0.116627745 0.0668986 -0.24868631 -0.038639214 -0.09407364
-0.033257306 -0.1894831 -0.0530206 -0.08246418 0.04592489 -0.13899055 0.026085291 -0.17093332
0.03365913 -0.012293396 0.06853413 0.15567738 0.025380796 -0.0013215052 0.30022082 0.013619534
0.16645849 0.12395241 0.12046906 0.09398827 -0.24392521 -0.124924384 0.19475609 -0.26901558
-0.16053924 -0.048521 -0.2846114 0.13402717 -0.05548656 0.043655172 0.14572695 0.12416863
-0.09467962 0.15270312 -0.29626784 -0.0038011307 0.10799062 -0.13284224 0.21011414 -0.12163638
0.033537716 -0.007609178 -0.1957375 -0.2525031 0.10500692 -0.16036709 0.08505912 -0.07745519
-0.228867 -0.47534186 0.1969979 -0.3618525 -0.14397897 -0.2534916 -0.15447184 -0.062380973
-0.34033605 0.048262257 -0.1395386 0.066406064 0.12909488 -0.10151609 0.05320537 -0.16793193
-0.3598467 0.12152974 -0.113381654 -0.084142454 -0.10779941 0.20982227 -0.17673647 -0.023862123
-0.09026918 -0.17766455 0.05558914 -0.075729445 -0.2555586 0.1651695 -0.26199225 -0.18284367
0.13288796 -0.11707264 -0.12439644 -0.07386169 -0.13720188 -0.035958633 -0.059291393 -0.07828718
-0.25489107 -0.18594481 0.108186856 -0.041836463 -0.2262116 0.06487343 -0.25974694 0.053672317
-0.21425068 -0.06118655 0.09280592 0.082829796 0.1543765 0.2731382 -0.07133984 -0.08502485
0.13325183 0.17878161 -0.13331379 0.08662802 0.07912344 0.12811017 0.10579133 0.15864834
0.14243099 -0.15467487 -0.19341978 -0.04477051 -0.12088926 0.02167654 0.047717452 0.16359001
0.1632733 0.091492444 -0.104083955 -0.061480433 -0.17825961 -0.049440693 -0.18456617 -0.24800734
0.16029362 0.18392073 -0.07594555 0.07746693 -0.2952729 -0.09749141 -0.31364217 0.06786849
0.09327154 -0.16501592 0.049232725 0.11025223 0.043168195 -0.22290851 -0.12677516 -0.04694371
0.11933786 -0.09385513 -0.17767492 0.22730589 0.18389848 -0.13502191 0.042811766 -0.16682419
-0.27151534 0.22306037 0.12674752 -0.15308914 -0.100218356 -0.17710266 0.0905517 -0.19045657
-0.15740372 0.1680287 -0.07028951 -0.61016124 -0.106308974 0.03511809 0.21484174 0.046336163
-0.17084363 0.083953306 0.063328736 -0.14527796 0.05429011 0.29185262 0.1500321 0.18702579
0.21733965 -0.08327711 0.40583944 -0.08215491 -0.020323405 0.0942197 0.49181488 -0.2409375
-0.021192476 0.104169846 -0.3157253 -0.37329912 -0.2080687 -0.22440521 0.07220582 -0.18253388
0.12923421 -0.12124095 -0.13864951 -0.12126607 -0.12347678 -0.028904112 -0.33950275 -0.3793157
-0.07468055 -0.11629636 -0.09035991 0.08306027 -0.3043405 -0.24630417 -0.26773277 -0.124637105
0.11451963 -0.055842057 0.118994966 0.014959453 0.019190494 0.09084124 0.069624476 -0.08422869
0.14371541 0.13460624 0.024865087 0.023164378 0.0009478601 0.15557002 0.1932055 0.26402792
0.20891972 -0.27027142 -0.24714024 0.05250243 0.036215898 -0.19592986 0.22571807 0.076424964
-0.11442624 -0.18393132 0.0815603 -0.115931615 0.062348314 0.052700132 -0.30274856 -0.12150338
-0.33536735 0.2048027 -0.086450785 -0.02699326 0.20399134 0.07141557 -0.2217933 0.034903545
