deployment/models/model.tflite (tflite, 15872 bytes, 6 tensors)

arith.constant f4 [2, 32]
00000000: 4f41 9cbe 1c22 fabd cd23 bebc a414 6bbe
00000010: 480a f8bd e70d 6b3e d9e0 473e 31d0 6b3d
00000020: 16e2 10be 2479 90be e639 4a3e 1d57 543e
00000030: 473c a9bd 855e 54bd db01 c53d 8b6d ca3e
00000040: c268 a2bd 5b05 babd 71ef 9abd 3483 163d
00000050: 1d82 57be f21d 703e a486 b9bd 8004 46bd
00000060: 5979 1b3e f9e6 a93e ef1c 823e e32f 3f3d
00000070: 3f9e 533e 48de 75be 1802 42be f811 473d
00000080: f886 f7bd 06f8 c13e 0df5 ff3d bbd7 50bd
00000090: 5092 80bd bd6b 14bd dfc5 d8bd 9e85 c93e
000000a0: 9a82 0dbe ee32 3d3e 4ab7 353e 87d2 463e
000000b0: 9a66 32be af4e 64be 4de2 7abe aadd 8abe
000000c0: 7ede 2ebe f1a3 e33d 1d3a c83d a36e 1e3d
000000d0: 1e6d 5b3e 126a 2f3e 8e1f b0be 3545 9cbe
000000e0: 4399 b3be ade3 9d3e 0e82 723e 99a7 2bbd
000000f0: 07a3 27be 0520 a3be 03c1 09be 0164 80be
-0.30518577 -0.12213537 -0.02321043 -0.22957093 -0.12111336 0.22954522 0.19519366 0.057571594
-0.14148745 -0.28217423 0.19748649 0.20736356 -0.0826345 -0.051847953 0.096194945 0.395367
-0.07930137 -0.09083053 -0.07565201 0.03674622 -0.21045728 0.23448923 -0.09058884 -0.048344135
0.15183009 0.3318403 0.254127 0.046676528 0.20665835 -0.24010575 -0.18946111 0.04860112
-0.1208629 0.3788454 0.124979116 -0.050986987 -0.06277907 -0.03623556 -0.10584616 0.39359754
-0.13819352 0.1847646 0.177457 0.19416247 -0.17421952 -0.2229564 -0.2450039 -0.2712224
-0.17077062 0.11115254 0.09776709 0.03867973 0.21428344 0.17130306 -0.34399074 -0.3052155
-0.35077867 0.30837765 0.23682424 -0.04190788 -0.16370784 -0.31860366 -0.13452534 -0.25076297

arith.constant1 f4 [32, 64]
00000000: 1e2e a7bd a008 d8bc db15 253d 3b26 2d3e
00000010: 1c68 41bd b068 44be f361 423e cfab 61be
00000020: 7c98 2abe ff27 74be d835 0bbe d856 45be
00000030: 00b5 4e3e 70ed c4bd 9303 433e 141e 0fbc
00000040: 0009 0ebb dcee 59be 061a 5bbe 48e2 a5bd
00000050: bf55 52be 84b5 2bbd 9cfa 29be be00 fdbd
00000060: 98df 853d 000b b23d 29f7 473e 5c17 363d
00000070: f7f1 103e da15 3ebe f074 cc3d 43e5 33be
00000080: 0119 11bd 8c2b d9bc 1dac d73c 59fc 003c
00000090: 11de 633e 0dd5 07bd 5330 87be 3898 943d
000000a0: 7991 debd e0a7 e73d 97a9 02be 706b 5fbe
000000b0: 22ce d7bd 28e7 2d3e 783d 0ebe 571e bf3d
000000c0: b2d9 aebe 781d 1c3d 343c c7bd e0d7 aa3d
000000d0: 845c 173e 5852 43be 98c6 10be 644f 503e
000000e0: b409 48be f732 93bd e0c0 9abd 90a7 05bd
000000f0: 506c 323e 0a88 56bb 6881 3ebe b500 833d
00000100: 4104 ef3d 2081 c3bc d29d 8dbe 95d5 fabd
00000110: 721b 5e3d 8035 c13b 5b22 d03d a3e0 0e3d
00000120: 00e8 55bc 30a8 eb3d 7589 2fbc 80d2 bbbb
00000130: 5e32 0bbc 54d8 793e 8e05 33be ad99 093e
00000140: 73e0 253e 65c1 2f3e d64d c13d 4317 733e
00000150: 7829 693d 171b 4dbd 4863 a53d ef12 b53d
00000160: 9035 f8bd c640 eabd d401 0cbe 574f 45be
00000170: 517a 1cbd 7bab ecbd 4d44 38be 3db7 403e
00000180: 73e6 82bc e8ba 233e a169 673e 475d 39be
00000190: 726a 52be 3b04 0bbe a3ab 673e 9086 193d
000001a0: 99aa 73be 98c0 7dbe 64fb 74be 6d08 003e
000001b0: 0ef8 3dbd 4880 8e3d 8ec3 96be bd80 abbd
000001c0: 984e a5bd d299 853d ba6b cbbd 0015 123c
000001d0: 74fb 28be 19b4 48be 08c8 533d bc14 7abe
000001e0: f3de 71be 7336 573e 20f8 f2bc aa33 65be
000001f0: 0c19 31bd e67c 55be 7e28 203e 6ae0 f0bd
00000200: ceaa 14be 60f1 5c3e e084 39be 04a1 47be
00000210: c647 253e 7112 913d 2bcf c03d b535 33bd
00000220: 7009 f03d ee80 513e daab 7a3d a0c5 203e
00000230: 1dc4 20be c25f 29be fc91 2bbe b537 3c3e
00000240: 4b86 53be e6d4 3fbe 4328 64be 9c35 23be
00000250: c016 76be 61eb 07be 308c 4ebd a165 663e
00000260: 4080 f9bc 48df 46be e4b6 193e 0daa f9bd
00000270: b9a0 e2bd 6422 b83c 70a6 41be e7e6 1a3e
00000280: f890 603e 7eaf 89bc b789 723d 355c 78bd
00000290: decc 5dbd d7e5 d23d 2dbb aebc a025 7fbd
000002a0: 4efb 3bbe 9fb2 60be 1eb2 b33d 80c9 d23d
000002b0: 5bc7 003e 80b4 2cbd aa19 ca3d c3bf 9abd
000002c0: 42ff f43c 75cb d5bd 63d0 0f3e a407 4ebe
000002d0: c588 c3bb 2c51 453e 5ecf d8bd 3aeb 57bd
000002e0: 15ce 3bbe 6e7e 623e 8040 923c f03d 083d
000002f0: 4e09 8bbd fea7 623e 982c c8bd dbb9 473e
00000300: 7f95 81be 145f 6e3e dfeb 183e 75cf 963d
00000310: 093e 49be dbd0 453e e3e9 d9bb 3837 763d
00000320: 60f6 e3bd 6d48 373e a965 4cbe 808e e83c
00000330: fd10 50be 9bde 853c 6f71 2d3e 6800 bb3d
00000340: 96c5 07be 73f5 643e 0f78 5f3e 2ca4 b6bc
00000350: 1e91 0c3e 507a 113e 70f9 fabd 98b7 863c
00000360: 481f 7ebe 93be 163e 3e23 cebd f96c 24bc
00000370: 890f 6c3e be9d 2c3c 510b 22be 9f45 683d
00000380: dc28 3ebe 60fb 0bbd ba85 aabd d641 713e
00000390: 9bab cbbc 0a37 35be f1e3 6c3e 4073 743d
000003a0: d15a 183d c778 3b3e 51d7 0d3e 41e0 bf3d
000003b0: 08f5 853d 7cf3 543e c7f3 30be 2baf 9a3d
000003c0: a8b5 ef3d 2b63 1d3e b227 d2bd e84b 74be
000003d0: 3251 8ebd d813 21be b13f 80bd 9bf1 ea3d
000003e0: 6e5e 9b3d 4a37 9dbd 40a7 81bd 2c3d 673e
000003f0: 2c2f ccbd 875a c03d 76f0 503e 531b ebbd
-0.08163093 -0.0263713 0.040304046 0.16909115 -0.047218427 -0.1918056 0.18982677 -0.22038196
-0.1665973 -0.23843382 -0.13594759 -0.1927141 0.20186234 -0.096156 0.19044332 -0.0087351985
-0.0021672845 -0.21282524 -0.21396646 -0.080998 -0.20540522 -0.041921154 -0.16599506 -0.12353657
0.06536788 0.08693504 0.19527878 0.04445587 0.14154802 -0.18563023 0.099832416 -0.17567925
-0.035424236 -0.026510023 0.026327187 0.007872664 0.2225268 -0.033162165 -0.26404056 0.07255596
-0.108675905 0.113113165 -0.12760006 -0.21818328 -0.105373636 0.1698271 -0.13890636 0.09331959
-0.34150463 0.03811404 -0.0972828 0.08341956 0.14781386 -0.1907438 -0.14138258 0.20342785
-0.19534951 -0.07187455 -0.07556319 -0.032630503 0.1742413 -0.0032734894 -0.18604052 0.06396619
0.11670733 -0.023865283 -0.2765947 -0.12247769 0.054225393 0.0058962703 0.10162803 0.0348822
-0.013055801 0.115066886 -0.010713925 -0.0057318807 -0.008495895 0.24398929 -0.17482588 0.13437529
0.16198902 0.17163618 0.09438674 0.23739342 0.056924313 -0.050074663 0.08075577 0.08841502
-0.12119591 -0.11438136 -0.13672572 -0.19268547 -0.038202588 -0.11556145 -0.17994805 0.188199
-0.015979027 0.15989268 0.22598888 -0.18101989 -0.20548418 -0.13575833 0.22624068 0.037481844
-0.23795547 -0.247805 -0.23924023 0.12503214 -0.04637914 0.069580615 -0.2944607 -0.08374164
-0.08071631 0.065234795 -0.099326566 0.00891614 -0.16502172 -0.19599952 0.051704437 -0.24421972
-0.23620205 0.21016864 -0.02965933 -0.2238299 -0.043236777 -0.20848426 0.15640447 -0.117615536
-0.14518282 0.21576452 -0.18117094 -0.19495016 0.1614066 0.070835955 0.09414514 -0.04375239
0.1172055 0.20459339 0.061199047 0.15700388 -0.15699811 -0.16540435 -0.16754907 0.18380626
-0.20656697 -0.18733558 -0.22280984 -0.15938419 -0.24032116 -0.13273384 -0.050426662 0.22499706
-0.030456662 -0.19421113 0.15011173 -0.12190638 -0.11065812 0.022477336 -0.18911147 0.15127145
0.21930301 -0.016807314 0.059213366 -0.06063481 -0.054150455 0.10297745 -0.021329487 -0.06229174
-0.18357584 -0.21943139 0.087742075 0.10292339 0.12576048 -0.042164326 0.09868176 -0.07556107
0.029906873 -0.10439197 0.14044337 -0.20120102 -0.005967232 0.19269246 -0.10586427 -0.052714564
-0.18340333 0.22118542 0.017853022 0.033262193 -0.06788884 0.22134396 -0.097741306 0.19504492
-0.2530937 0.23278457 0.14933728 0.07363788 -0.19652571 0.19317953 -0.006650196 0.060111254
-0.11130977 0.17898722 -0.19960655 0.028388262 -0.2031898 0.016341498 0.16937803 0.09130937
-0.13258967 0.22359256 0.21823142 -0.02229508 0.13727233 0.14206815 -0.12254608 0.016444966
-0.2481662 0.14721136 -0.10065316 -0.010035747 0.23052801 0.010535656 -0.1582463 0.05670702
-0.18570274 -0.034175277 -0.083262876 0.2356027 -0.024862101 -0.17696777 0.23133828 0.059680223
0.037195984 0.18307792 0.13851668 0.09368945 0.065408766 0.20796007 -0.17280494 0.07552942
0.1170457 0.15369861 -0.102614775 -0.23857081 -0.069490805 -0.15730226 -0.06262148 0.11471864
0.075863704 -0.07676561 -0.063307285 0.22581929 -0.09969935 0.09392267 0.20404229 -0.11479821

functional_11_1/dense_20_1/BiasAdd/ReadVariableOp f4 [64]
00000000: 1501 49bc 0000 0000 00e7 b3bc a591 eabc
00000010: 1bee ba3c 6102 e5bc 3389 28bd 616e 443a
00000020: 0000 0000 2fb4 61bc ddaf 87bc 0000 0000
00000030: 74a4 73bc dbe1 34bc 8632 4c3b 810c 60bd
00000040: eb44 cdbb aded 80bd 9947 f4bc 2457 9639
00000050: 40ad 4639 fd8e cabd 0000 0000 4f05 8abd
00000060: 0000 0000 a81a 5dbc e42d 1abd a011 c5bd
00000070: eb98 4abd aea9 5abc 8750 7dbc d5a4 7dbc
00000080: c438 0d3a fbb3 9bbc 81d4 50bb 3832 6dbc
00000090: 205e e3bb c22a 8abc 3b63 b2bc 0000 0000
000000a0: 183c e5ba be30 98bc ea2c 34bc f74c 32bd
000000b0: d7a7 86bc 0000 0000 1255 e13b 0b30 95bc
000000c0: 23d5 af3c a6f8 efba 9992 15bd 0000 0000
000000d0: 7875 d3ba d72a c83b 232b 9abb 6cff 18b6
000000e0: 3038 16bb cfa0 63bd 0000 0000 7565 aabb
000000f0: 365f 25bc ea63 04bd e219 57ba 6e40 6dba
-0.012268324 0.0 -0.021960735 -0.028633902 0.022818616 -0.027955236 -0.04114647 0.00074932544
0.0 -0.013775869 -0.01656335 0.0 -0.014870752 -0.011040176 0.0031158044 -0.054699425
-0.006264319 -0.06295333 -0.029819297 0.00028675154 0.00018947292 -0.09890554 0.0 -0.06739294
0.0 -0.013495125 -0.03764142 -0.09622502 -0.04946224 -0.013346119 -0.015461094 -0.015481194
0.0005387182 -0.01900672 -0.0031864943 -0.014477305 -0.006938711 -0.016866092 -0.021775832 0.0
-0.0017489223 -0.01857793 -0.0109970365 -0.04353043 -0.016437454 0.0 0.0068765962 -0.018211385
0.021463936 -0.0018308356 -0.03651676 0.0 -0.0016133031 0.0061086225 -0.0047048493 -2.279844e-06
-0.0022921674 -0.05557328 0.0 -0.005200083 -0.010093501 -0.032321848 -0.0008205456 -0.00090504333

functional_11_1/dense_21_1/BiasAdd/ReadVariableOp f4 [2]
00000000: ac77 12bc 9f77 123c
-0.008939665 0.008939653

functional_11_1/intermediate_1/BiasAdd/ReadVariableOp f4 [32]
00000000: ffda c4bc 1c3c 13bc d0a2 e43b ee50 633b
00000010: 0000 0000 eae2 68bc 8e35 b7bc 98e9 87b9
00000020: 3103 a7bc 0000 0000 0000 0000 dffd 27bc
00000030: d58f b83b 5ed3 26bc 0962 0ebc 0000 0000
00000040: 95e4 c6bc 2388 78bb 9596 893b c068 1dbc
00000050: 0909 da3b 0000 0000 0000 0000 0000 0000
00000060: 2046 30bc 8023 92bc 2e80 74bc fd0f bcbc
00000070: 98e0 3abc 4361 cabc 429f 18bc 0000 0000
-0.024030207 -0.008986499 0.0069774166 0.003468569 0.0 -0.014214257 -0.022364404 -0.00025923247
-0.020387264 0.0 0.0 -0.010253399 0.0056323805 -0.01018223 -0.008690366 0.0
-0.024278918 -0.003792294 0.004198859 -0.009607494 0.006653909 0.0 0.0 0.0
-0.010758907 -0.017839193 -0.014923139 -0.022956843 -0.011406086 -0.024704581 -0.009315314 0.0

functional_11_1/dense_20_1/MatMul f4 [64, 19]
00000000: 2b66 643d 80d9 3dbe 5737 81bb 51fc adbc
00000010: 5c59 15bd 892b 313e 9214 633e ea69 6d3e
00000020: e239 0f3d 6835 36be f381 41bd da06 1d3d
00000030: 9f0c 0f3e d342 79be bfbb 80bd 0d14 43bd
00000040: c01f 30be 5a22 0d3d c24e 953a 4803 dd3d
00000050: 10be 9cbd 3b90 23be 5cf0 853d 80a3 09bc
00000060: f474 49bd 0088 cc3c 102a c33d d662 6dbe
00000070: 0811 673d 2095 e13c 55aa 7abe 080b 343d
00000080: 84b2 e93d e082 2b3e 9235 2abe 9264 b3bd
00000090: 1a50 303e 40c6 ad3c 32ab 243f 2771 95bd
000000a0: a40a 833e 3e31 9dbd 70d2 50be e897 00be
000000b0: 1e98 67be 8041 a93c c405 0b3e 246f 4a3e
000000c0: f3ed f93d 90f7 76be 037d fdbd 588b eebc
000000d0: 250c a1bb ec12 393e ddc6 db3d d5c7 6ebe
000000e0: 2625 ccbd 5a26 433f e48d 093e 80c8 7c3e
000000f0: bb1e 88bd 7ff7 4e3e 0cf0 d33b b292 7a3d
00000100: 270a eb3d 1794 8bbd ff28 47bd eb0a de3d
00000110: e32a d7bd 8c57 753d 8f3b 6c3d 7008 06be
00000120: 4e69 c03d fa24 febc a1e1 18be 402d 8f3d
00000130: 566a 2c3f 0aca 133e 6ca3 91bd 4f5a c53d
00000140: 8521 f43d 9cbc c63d b70d d13d 93c2 49bc
00000150: e743 51bc f0ef 013e 475d 98bd e4ba fbbd
00000160: 92cd 86bb 33d8 14be 5824 0cbe 3e7e af3e
00000170: c828 903e 8485 133e d2a1 a73d 8124 0ebd
00000180: 649e 29be 579b 76be 9030 a23c 9312 0dbe
00000190: 0b38 043d 53bc 58bd 7827 313e b89b 6dba
000001a0: 2d81 aebd 2b47 85be 8d29 503e f8dd 8bbe
000001b0: c6bc 8fbe bc66 0d3d e478 40ba 721e 28be
000001c0: 311e 3ebe b99a 83be ac3a 9b3f b32a f7bc
000001d0: 9c22 05be dc31 963e 777a 47be a6b0 a8be
000001e0: 8312 34be b37d 74be 323a 393e f376 833d
000001f0: 7a91 c13d e168 07bd 22af d13d 2702 a5bd
00000200: d0dd 34be c79f e6bc 6edb 5dbe 3aa7 543d
00000210: 6fb6 253e c5cf 96bf ac59 173e 4170 44be
00000220: b897 d1bd 06b2 7fbe 7330 e5bd 5236 2fbe
00000230: e38d 863e 72a5 f93d 8d6d acbd e920 5d3e
00000240: cfdd 223e 2f98 223d 82dd 9b3d 21ee d83c
00000250: cdb0 08be bc30 2d3c 6ad5 173d f8c2 8b3c
00000260: 2042 2f3e cc8b 63bd 2835 5cbe 2061 8bbc
00000270: 1340 1dbe aaa0 b8bd 82c3 90bd 7411 843d
00000280: 8041 cfbb 040e 7ebe 2067 c43d ea6c edbd
00000290: 785f d6bd 2014 3abe 585a 13be 38aa b73d
000002a0: fea5 1a3e 9a77 81bd 98fb 6e3e 8394 44bd
000002b0: 385e 143e 2f86 ecbd 50e3 edbc eaa9 733e
000002c0: ea89 19be ef87 e8bd d230 4fbe 75ac 03be
000002d0: 655f 49be 1d84 24be 83bf 09be 7e1c 623e
000002e0: 499b 0e3e ed9f 633e 9fa1 a8be 947f 373d
000002f0: 73bc 60bd 1f5c d4bd 46c8 213e 34cd 1b3e
00000300: 3d35 40be 1a66 483e 91a2 8cbe 67c3 8bbe
00000310: b7d8 9fbd d618 6bbe eac5 57be 0749 753e
00000320: 8ca2 e7bd 5ac0 5a3e 5aa9 413e 033e 963d
00000330: 1d20 023d 955c 26be dddd 693c 003d 4a3e
00000340: 70c4 07be 5c6a 81be a059 2e3d b323 01be
00000350: 189e 503e 22b8 5ebe d69b c8bd aa51 803e
00000360: 4215 bebd 04c9 96bd 24df 95bd 504f 703e
00000370: 860c 2c3e e0af 67bc d0f5 293e 70e9 b03d
00000380: 4204 93bd bf36 75be 173a 72be c002 b43b
00000390: 88f8 563f 1bc2 cd3c fab6 953e d21d d3bd
000003a0: 59d6 92bd 1ce1 b33d 4b18 b2bd 4a2b 553d
000003b0: 6bdc 393e 8b4f 59be 1bf1 593d c571 483e
000003c0: 5ff5 87be b4b3 853d e640 83bd c83a 063f
000003d0: 6127 863d cd03 61be 6efa 6fbe 61de 1d3f
000003e0: 5c56 fb3d 2bc3 7b3e 19ae cf3d f362 ae3d
000003f0: e3a6 443e 7ecf 2d3c b824 6abc d61c 85bd
0.055761497 -0.18540001 -0.0039433646 -0.021238478 -0.036462173 0.17301764 0.22175816 0.23184934
0.03496731 -0.1779381 -0.04724307 0.038336612 0.13969658 -0.24341898 -0.0628581 -0.047626544
-0.17199612 0.03445659 0.001139127 0.107916415 -0.07653439 -0.15972988 0.065399855 -0.008400798
-0.0491838 0.024967194 0.09529507 -0.23182234 0.056412727 0.027536929 -0.24479039 0.043955833
0.11411002 0.16749144 -0.16621998 -0.08759417 0.17218056 0.021212697 0.64323723 -0.07296973
0.25594056 -0.07675408 -0.20392776 -0.12557948 -0.22616622 0.020661116 0.13576418 0.1976896
0.12203588 -0.24117875 -0.1237736 -0.029119179 -0.004914778 0.18073624 0.107312895 -0.23318417
-0.09968023 0.76230395 0.13433033 0.2468586 -0.06646486 0.202116 0.006467825 0.061175056
0.11476546 -0.06815355 -0.04862308 0.10841926 -0.10506227 0.059897944 0.057673987 -0.13089156
0.09395085 -0.031023491 -0.1492982 0.06991053 0.67349756 0.1443254 -0.071112484 0.096363656
0.11920456 0.09703943 0.10207694 -0.0123144565 -0.012772537 0.12689185 -0.07439666 -0.12291506
-0.0041138614 -0.14535598 -0.13685739 0.34276003 0.28156114 0.14406401 0.08185162 -0.03470278
-0.16564327 -0.24082695 0.019798547 -0.13776617 0.03228001 -0.052913975 0.17300212 -0.00090640364
-0.08520732 -0.2603086 0.2032835 -0.27317786 -0.2807371 0.034521803 -0.0007342233 -0.16417864
-0.18566205 -0.25703982 1.212728 -0.030171728 -0.13001484 0.29334915 -0.1948031 -0.32947272
-0.17585187 -0.23876075 0.18088606 0.06419172 0.094515756 -0.033059005 0.10238482 -0.08057051
-0.1766274 -0.02815236 -0.21665737 0.051917292 0.16182874 -1.1782156 0.14780301 -0.19183446
-0.10234016 -0.24970254 -0.111908816 -0.17110565 0.26280126 0.12189759 -0.08419333 0.21594585
0.15904926 0.039695915 0.07610609 0.026480736 -0.13348694 0.010570701 0.037068762 0.017060742
0.17115068 -0.055553243 -0.21504653 -0.017014086 -0.15356474 -0.09015019 -0.0706854 0.064486414
-0.006324947 -0.24810034 0.09589982 -0.11593039 -0.10467428 -0.1817174 -0.14389932 0.089680135
0.15102383 -0.0632164 0.23338163 -0.047993194 0.14489067 -0.11549031 -0.029039055 0.23795286
-0.14994016 -0.11354052 -0.20233467 -0.12858756 -0.19665296 -0.16066022 -0.13451962 0.22081181
0.13926424 0.22228976 -0.32935807 0.044799402 -0.05486722 -0.10369133 0.15799055 0.15214998
-0.18770309 0.19570199 -0.27467778 -0.27297518 -0.07805007 -0.22958693 -0.21071592 0.23953639
-0.113103 0.21362439 0.18912259 0.073360465 0.031768907 -0.16246255 0.014274088 0.19749832
-0.13258529 -0.25276458 0.04256594 -0.12611274 0.20372808 -0.21749929 -0.09795348 0.25062305
-0.09281398 -0.073625594 -0.07317951 0.23467755 0.16801652 -0.014141053 0.16597676 0.08638275
-0.071785465 -0.23946665 -0.23654972 0.005493492 0.8397298 0.02511697 0.29241163 -0.10308422
-0.0716979 0.087831706 -0.0869604 0.052043237 0.18150489 -0.2122175 0.05320845 0.1957465
-0.2655439 0.06528416 -0.06408863 0.52433443 0.0655048 -0.21974106 -0.23435375 0.6166745
0.12272331 0.2458617 0.10140628 0.08514967 0.19204287 0.010608552 -0.014290981 -0.06499641
