deployment/models/model.tflite (tflite, 15824 bytes, 6 tensors)

arith.constant f4 [2, 32]
0.028568717 0.36054096 -0.06568572 -0.0017308639 0.16858593 0.30991843 0.022168169 0.20095497
0.28564414 -0.0013431893 0.032883406 -0.25247148 -0.10394513 0.12511526 0.027266331 -0.18228969
0.19756573 -0.025952354 0.08290382 -0.20086175 -0.07805354 -0.25468388 0.2674958 0.29823497
-0.35922036 -0.018860904 0.04344434 -0.18406492 0.21309592 -0.38849267 0.0019791254 0.14216153
-0.0461641 0.24153893 -0.0138538685 0.2331294 -0.10529759 0.30464798 -0.048212662 0.1800537
0.21985768 0.020017315 -0.08664674 0.17187972 -0.015808824 0.17851973 -0.2655819 -0.0703421
0.25031123 -0.029975012 0.17602965 -0.31373915 -0.13065708 0.06908741 0.26239002 0.3423634
0.15991142 0.3011555 0.008909985 -0.26065004 -0.078915045 -0.17002028 -0.1814805 0.14562581
00000000: f108 ea3c d398 b83e 3c86 86bd 28de e2ba
00000010: caa1 2c3e a1ad 9e3e 059a b53c 24c7 4d3e
00000020: f33f 923e f40d b0ba c0b0 063d f143 81be
00000030: 2fe1 d4bd 371e 003e a45d df3c 26aa 3abe
00000040: ac4e 4a3e 089a d4bc 7ac9 a93d b4ae 4dbe
00000050: 89da 9fbd ed65 82be 36f5 883e 41b2 983e
00000060: bbeb b7be 2f82 9abc b1f2 313d 847b 3cbe
00000070: d135 5a3e 83e8 c6be 37b4 013b cb92 113e
00000080: 9116 3dbd fb55 773e 56fb 62bc 79b9 6e3e
00000090: 43a6 d7bd d2fa 9b3e a47a 45bd ff5f 383e
000000a0: 5f22 613e 5afb a33c d973 b1bd 3d01 303e
000000b0: 8281 81bc e0cd 363e 5afa 87be 850f 90bd
000000c0: cb28 803e 288e f5bc 1e41 343e 6ba2 a0be
000000d0: f8ca 05be b37d 8d3d fc57 863e 414a af3e
000000e0: d2bf 233e 0e31 9a3e 30fb 113c ec73 85be
000000f0: 369e a1bd cc19 2ebe 06d6 39be ef1e 153e

arith.constant1 f4 [32, 64]
0.17748106 -0.44537684 0.082462445 -0.17610478 0.05233161 0.19427991 -0.18991339 -0.1751628
-0.02258861 -0.21257742 -0.1784327 -0.03584006 0.025104333 -0.18279076 -0.09664426 0.18527287
0.026172802 0.010036914 0.16718507 -0.092140615 0.083274305 -0.42164448 0.16976948 -0.034899533
0.2491979 -0.17391145 0.087283276 0.22447261 -0.23985319 0.15663548 -0.00042062998 0.14214775
-0.09337445 0.24420398 0.05826677 -0.24601173 -0.18639398 0.08568603 0.7932493 -0.1948218
-0.1861116 0.23778123 -0.0672222 -0.14531651 0.0012590945 0.39023915 0.108643234 -0.09556847
-0.15414597 0.070263445 -0.2033352 0.16434509 0.3519021 -0.06246078 0.046257365 0.22112438
-0.29429772 0.08983716 -0.1590064 -0.09623436 -0.1115343 0.06613797 0.15554321 -0.08115238
-0.12621772 0.05649191 -0.24009833 -0.004727304 -0.24470758 0.22593927 0.23025322 -0.15866353
0.23285401 -0.1978644 -0.0844854 0.3916165 0.09684914 -0.018724859 0.16605875 0.24106216
0.042754892 0.44307882 -0.18461467 0.20398521 -0.03918338 -0.17485707 0.25922933 0.1876027
0.21635997 -0.07913624 0.029061433 -0.21245466 0.10010119 0.167496 -0.17823344 0.37882516
-0.06509114 1.0782166 -0.12419686 -0.054297347 0.052894652 0.065966345 0.100838825 -0.17291829
-0.11803866 0.5206045 -0.044928245 0.10427549 0.31476057 1.615584 0.027423024 -0.116426535
-0.24000207 0.12047303 0.03756534 0.17831695 0.6331734 0.07676488 -0.31836239 -0.18730216
-0.0627336 -0.0115696825 0.09793106 0.120126195 0.06515902 -0.11330101 0.06895268 0.10807878
-0.08013153 -0.055484314 0.027737143 0.06277257 0.07587804 0.07973701 -0.1129027 0.11854453
-0.10255003 -0.08496828 0.00061568123 0.08545613 -0.05899786 0.20973402 -0.021446276 -0.01365608
-0.10964396 -0.09698101 0.12985931 -0.16955835 0.18619055 0.10476734 -0.036910962 0.1942187
0.052607358 -0.29450813 -0.09525225 0.039617125 -0.2580039 0.16137877 -0.072898805 -0.028653722
0.05620486 0.1806373 -0.11930631 -0.06382894 -0.11570984 -0.19199395 0.06284951 0.0900913
0.20670952 -0.018024987 -0.23154992 0.076187864 -0.14869149 0.12000763 0.10698378 0.056855377
0.09508654 0.107858 0.11862703 -0.0062171817 -0.022962965 0.22148782 -0.26301 -0.11173713
-0.25916836 -0.05766058 0.21520308 0.14916073 0.10204937 -0.124522746 -0.0407964 0.116407275
-0.09604162 -0.012277635 0.006035213 0.15749574 -0.026274696 -0.014022291 0.21823114 -0.007944763
0.026170254 -0.092258364 -0.26180494 0.14583683 0.056364037 -0.1976304 -0.23102438 0.18298918
-0.116236635 -0.057635892 0.18027878 0.14823413 -0.017512023 -0.06536125 -0.23357943 0.1960128
0.090568125 0.10854908 -0.28081527 0.09597382 -0.13149945 -0.24418885 -0.09183568 0.028539822
0.010113232 0.20447187 0.018590633 -0.041050684 -0.1428346 -0.027268436 -0.26937896 -0.013188667
-0.099601135 -0.05555799 -0.24048115 -0.032224298 0.06708469 -0.3076996 0.18720609 0.052222453
0.15304233 0.12778395 0.0723936 -0.055897772 -0.08714558 -0.24730891 -0.3385463 -0.11668498
-0.1285121 0.21018387 0.087018654 -0.020636307 -0.16069461 0.16521458 0.023677588 0.05515653
00000000: 98bd 353e 6f08 e4be 12e2 a83d d054 34be
00000010: ac59 563d 50f1 463e a878 42be e15d 33be
00000020: c00b b9bc e5ad 59be 10b7 36be 07cd 12bd
00000030: 9aa7 cd3c 802d 3bbe 6ded c5bd 2cb8 3d3e
00000040: 5868 d63c de71 243c 9032 2b3e 38b4 bcbd
00000050: b88b aa3d c9e1 d7be 0dd8 2d3e d0f2 0ebd
00000060: bc2d 7f3e d815 32be 93c1 b23d 26dc 653e
00000070: 139c 75be 0d65 203e 0088 dcb9 2e8f 113e
00000080: 1b3b bfbd 9c10 7a3e 23a9 6e3d 80ea 7bbe
00000090: 10de 3ebe 287c af3d 6312 4b3f 5e7f 47be
000000a0: 0a94 3ebe ec7c 733e cbab 89bd dacd 14be
000000b0: 3308 a53a 6dcd c73e 5880 de3d 67b9 c3bd
000000c0: 71d8 1dbe 48e6 8f3d 1a37 50be 144a 283e
000000d0: 832c b43e e0d6 7fbd 5d78 3d3d 6e6e 623e
000000e0: 31ae 96be 8cfc b73d 93d2 22be 8516 c5bd
000000f0: 186c e4bd 5873 873d b846 1f3e 3833 a6bd
00000100: 383f 01be 1064 673d 56dc 75be 80e7 9abb
00000110: a094 7abe a05c 673e 80c7 6b3e b178 22be
00000120: 4871 6e3e f79c 4abe ae06 adbd f581 c83e
00000130: d858 c63d e064 99bc 4e0b 2a3e 00d9 763e
00000140: c11f 2f3d 3adb e23e a10b 3dbe 80e1 503e
00000150: c07e 20bd bb0d 33be b5b9 843e ec1a 403e
00000160: 788d 5d3e 2e12 a2bd 3e12 ee3c b78d 59be
00000170: da01 cd3d 1284 2b3e d482 36be 5ff5 c13e
00000180: 814e 85bd 0003 8a3f ec5a febd e566 5ebd
00000190: 10a8 583d 5d19 873d 9684 ce3d 7e11 31be
000001a0: 41be f1bd 5646 053f ae06 38bd 638e d53d
000001b0: 4c28 a13e 75cb ce3f 40a6 e03c 0971 eebd
000001c0: 1ac3 75be 90ba f63d 1dde 193d b898 363e
000001d0: a717 223f e836 9d3d 6500 a3be 23cc 3fbe
000001e0: 797a 80bd c48e 3dbc 1490 c83d b904 f63d
000001f0: 1872 853d 5c0a e8bd 1037 8d3d 6858 dd3d
00000200: 001c a4bd 8543 63bd 0139 e33c e88e 803d
00000210: f265 9b3d 284d a33d 8839 e7bd 79c7 f23d
00000220: c005 d2bd d903 aebd ab65 213a a003 af3d
00000230: bda7 71bd 84c4 563e 1ab0 afbc c0bd 5fbc
00000240: 038d e0bd fb9d c6bd d7f9 043e b4a0 2dbe
00000250: bca8 3e3e 4290 d63d f32f 17bd 44e1 463e
00000260: d07a 573d c5c9 96be 9d13 c3bd 9145 223d
00000270: 1619 84be 7a40 253e f84b 95bd 36bb eabc
00000280: 1137 663d fcf8 383e de56 f4bd bfb8 82bd
00000290: 48f9 ecbd 109a 44be 3eb7 803d ca81 b83d
000002a0: a9ab 533e 23a9 93bc 6c1b 6dbe 6208 9c3d
000002b0: 9542 18be 8fc6 f53d 501a db3d 2fe1 683d
000002c0: bbbc c23d a8e4 dc3d baf2 f23d 80b9 cbbb
000002d0: d41c bcbc b4cd 623e 3fa9 86be 70d6 e4bd
000002e0: b7b1 84be 802d 6cbd 325e 5c3e 97bd 183e
000002f0: 43ff d03d c805 ffbd 201a 27bd f066 ee3d
00000300: 78b1 c4bd 2228 49bc 09c3 c53b 9046 213e
00000310: 083e d7bc c0bd 65bc fc77 5f3e c02a 02bc
00000320: 0063 d63c f4f1 bcbd 4c0b 86be 4056 153e
00000330: fadd 663d a05f 4abe a891 6cbe 8461 3b3e
00000340: 790d eebd 9d13 6cbd 009b 383e b0ca 173e
00000350: 6075 8fbc 1edc 85bd 722f 6fbe 94b7 483e
00000360: c87b b93d fb4e de3d 05c7 8fbe ec8d c43d
00000370: cba7 06be a40c 7abe 5814 bcbd 58cc e93c
00000380: f8b1 253c 1361 513e 624b 983c c324 28bd
00000390: 3c43 12be 0e62 dfbc 0aec 89be 4715 58bc
000003a0: aefb cbbd c690 63bd b140 76be a0fd 03bd
000003b0: b363 893d cd8a 9dbe f4b2 3f3e 36e7 553d
000003c0: 21b7 1c3e ccd9 023e 1943 943d 10f5 64bd
000003d0: 6279 b2bd 8c3e 7dbe f155 adbe 89f8 eebd
000003e0: ad98 03be 713a 573e d636 b23d 790d a9bc
000003f0: 218d 24be 032e 293e 80f7 c13c d0eb 613d

arith.constant2 f4 [2]
0.010678156 -0.010678249
00000000: 6ff3 2e3c d3f3 2ebc

arith.constant3 f4 [32]
-0.1865955 -0.43872094 -0.18662728 -0.08173913 -0.15096036 -0.16365437 -0.07565255 -0.107835755
-0.11406401 -3.811513e-05 -0.2035209 -0.08858567 0.009003459 -0.07161351 0.005140893 0.08178109
-0.1448567 -0.110645555 -0.22988614 -0.18901461 -0.16380599 -0.04144436 -0.0846702 -0.15986936
-0.06982756 -0.12432208 -0.26737636 -0.10498326 -0.10770795 -0.092328995 -0.045990024 -0.17465708
00000000: e412 3fbe 08a0 e0be 391b 3fbe d866 a7bd
00000010: 5a95 1abe 0395 27be b9ef 9abd fed8 dcbd
00000020: 649a e9bd cfdd 1fb8 c867 50be 676c b5bd
00000030: 3e83 133c 1baa 92bd f074 a83b d87c a73d
00000040: 5155 14be 239a e2bd 4667 6bbe 0c8d 41be
00000050: c2bc 27be 90c1 29bd 9267 adbd cbb4 23be
00000060: c001 8fbd 939c febd 8ee5 88be 7701 d7bd
00000070: fc95 dcbd fc16 bdbd 0960 3cbd 4ed9 32be

sequential_7_1/dense_21_1/BiasAdd/ReadVariableOp f4 [64]
0.0 0.04255772 -0.17423387 0.0 -0.1183598 0.0 0.0 -0.028317707
0.0 -0.08292184 0.050091766 -0.24689643 -0.25078177 0.0 -0.27485338 0.0
-0.10003466 -0.23008835 -0.02599134 0.0 0.0 0.006351991 -0.12204709 0.0
0.0 -0.08648131 -0.1982611 -0.071804985 -0.169973 -0.093371056 0.0 -0.28484115
-0.06030645 -0.04082913 -0.1934367 -0.07963219 0.0 -0.02937293 -0.037117377 -0.16053307
-0.01404374 -0.19385083 -0.1977847 -0.023850929 -0.1309887 -0.018557241 0.0 -0.12092239
-0.056307584 0.0 -0.1574289 0.0 -0.144893 0.0 0.13292694 -0.118941486
-0.03855521 -0.084299184 -0.06220715 -0.08181686 -0.07756239 -0.12908465 0.0 0.0
00000000: 0000 0000 0151 2e3d 5d6a 32be 0000 0000
00000010: 9f66 f2bd 0000 0000 0000 0000 89fa e7bc
00000020: 0000 0000 edd2 a9bd 062d 4d3d 6bd2 7cbe
00000030: 7866 80be 0000 0000 95b9 8cbe 0000 0000
00000040: f9de ccbd 489c 6bbe caeb d4bc 0000 0000
00000050: 0000 0000 5d24 d03b d3f3 f9bd 0000 0000
00000060: 0000 0000 1d1d b1bd f504 4bbe 7e0e 93bd
00000070: 670d 2ebe 5339 bfbd 0000 0000 b3d6 91be
00000080: e503 77bd 723c 27bd 4514 46be 3416 a3bd
00000090: 0000 0000 809f f0bc 6408 18bd c862 24be
000000a0: b717 66bc d580 46be 1388 4abe 0663 c3bc
000000b0: e721 06be 5b05 98bc 0000 0000 28a6 f7bd
000000c0: c8a2 66bd 0000 0000 0b35 21be 0000 0000
000000d0: d55e 14be 0000 0000 001e 083e 9897 f3bd
000000e0: 11ec 1dbd 0da5 acbd edcc 7ebd 998f a7bd
000000f0: 08d9 9ebd c42e 04be 0000 0000 0000 0000

sequential_7_1/dense_21_1/MatMul f4 [64, 19]
0.1694392 0.06567916 0.08416858 -0.2081915 -0.08658454 0.11608079 0.08213082 0.183774
-0.1479196 0.21451825 0.070608795 0.17330134 0.015254647 -0.21443465 -0.109582886 -0.033053935
0.21248427 -0.24822605 0.11253142 -5.894667 -0.08010981 0.15580003 0.12191877 0.01398409
0.20373301 -0.0911186 -0.077966824 0.073456176 -0.120520994 0.8624344 0.30139986 -0.57030517
0.14008887 0.37756747 -1.5742395 -0.030953933 -1.162878 0.39949667 9.778525 0.7057474
0.10567139 0.18023655 -0.1401839 -0.6003635 -0.048541047 -0.12899557 -0.025452046 -0.34913933
-0.68209785 -0.4202789 -0.2433417 0.024769504 0.098205656 1.3692863 -0.3256128 0.003468228
-0.55536014 0.044006288 -0.14793569 0.18573356 -0.24805233 -0.1782938 -0.0074891746 0.00027570128
0.11595753 -0.2226866 -0.1987025 -0.017948568 -0.16921927 -0.0263343 -0.25277856 0.11293039
0.19156453 -0.033780992 -0.123885095 -0.07685092 -4.504085 -0.79907924 0.12008949 0.27352646
-0.025159247 0.027330225 -0.07723127 -0.0075828657 0.13857102 0.031174101 0.7133147 0.11331573
-0.20445338 0.007154485 -0.9458246 -0.06675594 0.048081517 -1.787101 0.030821702 -0.19801563
0.07602593 -0.06425877 -0.09250097 0.26291752 -0.07209636 -0.071987644 -0.23251913 -0.20117661
0.03070414 0.14501229 -0.04446949 0.0038635433 0.11527458 -0.21724403 0.15679637 0.072334826
0.026329368 0.0057453513 0.23598045 0.22820348 -0.20369437 0.07658094 0.108373135 -0.050372392
0.045017958 0.12786186 -0.22653374 -0.26558617 0.2465607 -0.22306673 0.080741644 -0.2105842
-0.17699295 -0.24357705 -0.03705889 -0.05473599 -0.09790856 0.18821713 -0.021955777 -0.07619067
-0.25408486 -0.22733076 0.17509529 0.23697165 0.016991377 -0.2794287 0.22251073 0.1878931
0.110821255 -0.15390544 0.075313754 0.23111083 -0.056701876 0.1783391 0.16862564 -0.2128423
0.19121492 0.16029891 -0.035484135 -0.26796257 0.014533371 -0.1818684 -0.09657811 -0.25945947
-0.04944931 -0.18113546 0.05814445 0.19597006 -0.23622465 0.119428664 -0.017005563 -0.23085284
0.14134592 -0.19146709 0.18692228 0.25141218 -0.2557472 0.11833979 -0.2665462 0.050322477
0.03212748 -0.0027956725 0.06215649 -0.08842822 0.0015035584 0.015722807 0.13299212 0.10505438
-0.29666108 -0.17662483 -0.28955296 -0.059935108 0.036634136 -0.21677008 -15.324399 0.080705784
-0.64821047 0.28353482 0.0025142066 0.7013552 0.035890102 0.23385316 0.044991348 0.07534875
-1.0031828 0.28836432 0.090651765 -0.47055912 -0.2567785 -2.4352593 0.25610483 0.071041435
0.5397917 8.271505 0.050141364 0.30349976 -0.097163334 -0.14959136 -0.5352118 0.05240118
-0.13862345 -0.012462809 -0.4714727 -0.09946774 -0.0589305 -0.09917335 -0.35830814 -0.3432853
1.1082667 -0.3464785 0.04882696 -0.30210918 -3.6696556 -0.5874957 0.005292688 0.2619411
-0.23340118 -0.26609987 -0.07990949 -0.26058674 0.01703109 -0.4320215 -0.20301725 -0.300551
-0.084460884 -0.8774553 -0.43662998 -0.6246206 -0.30419847 0.09942674 0.008845207 0.20284384
-0.1867292 -0.18879728 -0.021112755 -0.20467764 0.22357643 0.25151289 0.13313648 -0.18467887
00000000: 7881 2d3e cc82 863d 9460 ac3d 2730 55be
00000010: 3c53 b1bd c4bb ed3d 3434 a83d 402f 3c3e
00000020: 3c78 17be acaa 5b3e 589b 903d e875 313e
00000030: a0ee 793c c294 5bbe fe6c e0bd 9063 07bd
00000040: 7a95 593e f82e 7ebe e076 e63d 1da1 bcc0
00000050: 9d10 a4bd 0b8a 1f3e 8cb0 f93d 861d 653c
00000060: 639f 503e 639c babd 12ad 9fbd 3170 963d
00000070: b6d3 f6bd 80c8 5c3f 1551 9a3e 85ff 11bf
00000080: 7573 0f3e 8650 c13e ae80 c9bf 1a93 fdbc
00000090: 30d9 94bf d48a cc3e d774 1c41 ddab 343f
000000a0: 3e6a d83d ee8f 383e 5e8c 0fbe 6cb1 19bf
000000b0: fad2 46bd 6a17 04be cf80 d0bc 64c2 b2be
000000c0: f79d 2ebf cc2e d7be 912e 79be 6ae9 ca3c
000000d0: 0c20 c93d c644 af3f b9b6 a6be 364b 633b
000000e0: 152c 0ebf f03f 343d 747c 17be f030 3e3e
000000f0: 6e01 7ebe a692 36be c067 f5bb 008c 9039
00000100: 247b ed3d f507 64be ab78 4bbe e008 93bc
00000110: d147 2dbe 08bb d7bc 316c 81be 0c48 e73d
00000120: 7e29 443e f05d 0abd 78b7 fdbd 0464 9dbd
00000130: 7721 90c0 7590 4cbf 7bf1 f53d a90b 8c3e
00000140: c41a cebc a3e3 df3c 6e2b 9ebd b079 f8bb
00000150: 90e5 0d3e d460 ff3c cb9b 363f 1412 e83d
00000160: 3a5c 51be 2c70 ea3b 9021 72bf 57b7 88bd
00000170: 20f1 443d babf e4bf cb7d fc3c 9cc4 4abe
00000180: 7cb3 9b3d 1a9a 83bd 2671 bdbd 209d 863e
00000190: 42a7 93bd 426e 93bd 7f19 6ebe 3e01 4ebe
000001a0: 4087 fb3c 1a7e 143e a425 36bd 8033 7d3b
000001b0: 1415 ec3d 3875 5ebe 3a8f 203e 4824 943d
000001c0: b0b0 d73c 8043 bc3b dca4 713e 2cae 693e
000001d0: 4295 50be 78d6 9c3d bcf2 dd3d 4853 4ebd
000001e0: c064 383d 38ee 023e 76f8 67be e9fa 87be
000001f0: 687a 7c3e 9b6b 64be e05b a53d 62a3 57be
00000200: a43d 35be 436c 79be 10cb 17bd d832 60bd
00000210: 4884 c8bd febb 403e 9adc b3bc db09 9cbd
00000220: 6917 82be 65c9 68be 2e4c 333e b2a8 723e
00000230: 8031 8b3c 4711 8fbe dad9 633e 0c67 403e
00000240: 41f6 e23d 6399 1dbe 193e 9a3d 51a8 6c3e
00000250: 3a40 68bd 869e 363e 33ac 2c3e 55f3 59be
00000260: d8cd 433e 6625 243e d057 11bd 6432 89be
00000270: 601d 6e3c b63b 3abe beca c5bd dfd7 84be
00000280: 5c8b 4abd 937b 39be e028 6e3d 60ac 483e
00000290: e0e4 71be 0497 f43d 404f 8bbc b064 6cbe
000002a0: fcbc 103e f30f 44be 8e68 3f3e 19b9 803e
000002b0: 4cf1 82be 225c f23d be78 88be f11e 4e3d
000002c0: 1b98 033d 9a37 37bb ce97 7e3d db19 b5bd
000002d0: 0c13 c53a 1ecd 803c 162f 083e c026 d73d
000002e0: f6e3 97be 24dd 34be 4940 94be 847e 75bd
000002f0: ad0d 163d faf8 5dbe bd30 75c1 1349 a53d
00000300: 1ff1 25bf 7a2b 913e 63c5 243b 048c 333f
00000310: 8001 133d 3477 6f3e d948 383d 7250 9a3d
00000320: 4b68 80bf 7da4 933e a2a7 b93d 20ed f0be
00000330: 7978 83be 4adb 1bc0 2c20 833e 2c7e 913d
00000340: ca2f 0a3f 1658 0441 0861 4d3d 5264 9b3e
00000350: 92fd c6bd 7a2e 19be a403 09bf 9fa2 563d
00000360: 4ef3 0dbe cf30 4cbc df64 f1be beb5 cbbd
00000370: 1c61 71bd 661b cbbd 2a74 b7be 17c3 afbe
00000380: afdb 8d3f a165 b1be c7fe 473d 0eae 9abe
00000390: a3db 6ac0 1e66 16bf 496e ad3b 251d 863e
000003a0: b800 6fbe 3e3e 88be 96a7 a3bd a06b 85be
000003b0: c984 8b3c ec31 ddbe c1e3 4fbe d2e1 99be
000003c0: d4f9 acbd e9a0 60bf f78d dfbe 23e7 1fbf
000003d0: e7bf 9bbe 3fa0 cb3d 7deb 103c 4cb6 4f3e
000003e0: f035 3fbe 1354 41be a8f4 acbc 0497 51be
000003f0: 38f1 643e 4cc6 803e ee54 083e 751c 3dbe
