deployment/models/naive_edge_model.tflite (tflite, 15456 bytes, 5 tensors)

arith.constant f4 [1, 32]
0.36848792 -0.016125897 -0.33001465 0.22017452 -0.33901563 -0.32685634 -0.102832064 0.074410066
-0.048424974 0.4033949 -0.03171742 -0.08722752 -0.082212955 -0.30177355 0.156877 0.1497368
-0.41694418 -0.14231625 -0.21251093 -0.30315828 -0.39148322 -0.13411513 -0.06473939 0.4154106
0.14560327 -0.097432 -0.26431698 0.12521835 -0.36508662 -0.07473572 0.19040403 0.32257187
00000000: 73aa bc3e 751a 84bc aef7 a8be 6e75 613e
00000010: 7593 adbe b759 a7be 9e99 d2bd 4e64 983d
00000020: 4459 46bd c789 ce3e 20ea 01bd 58a4 b2bd
00000030: 445f a8bd 1082 9abe 5da4 203e 9b54 193e
00000040: b579 d5be 5abb 11be 779c 59be 9037 9bbe
00000050: 7d70 c8be 7a55 09be 1696 84bd b3b0 d43e
00000060: 0619 153e 6e8a c7bd 8e54 87be 3d39 003e
00000070: a2ec babe 0b0f 99bd 46f9 423e 2428 a53e

arith.constant1 f4 [32, 64]
0.20461397 0.1696373 -0.24143535 -0.024125636 0.20117135 0.24143071 0.22056168 -0.16744673
0.1341924 0.01755106 0.13952486 -0.17524153 -0.1023127 0.22251281 -0.06097897 -0.18478082
0.2270585 -0.094523616 0.06324679 -0.08982333 -0.18722016 -0.19281042 0.024408098 0.17073141
0.11962663 0.10106814 -0.14792003 -0.13432822 0.14797181 -0.041610863 0.0084484015 0.035328507
-0.040468585 -0.08912599 -0.107363105 -0.14297475 -0.06259602 0.15807217 0.032342315 0.061213475
-0.15603334 -0.23335668 -0.078381814 -0.12815246 -0.05900812 -0.2506038 0.05467771 0.09977239
-0.047346856 -0.162716 -0.24178135 -0.057724036 -0.21703643 -0.21115078 0.030068934 -0.1926586
0.09305885 0.19087529 0.20875123 0.25342527 0.1892338 -0.18493004 0.016340323 0.14042568
0.12359226 -0.24604785 0.23974882 -0.19026643 0.014423072 0.07362081 0.20657635 -0.1739856
-0.09956843 0.22032233 -0.082079135 -0.012211978 0.057093017 -0.120645374 -0.06869175 -0.059534594
-0.10227735 0.17537393 -0.08845784 -0.2425045 -0.029868977 -0.008059323 -0.1395308 0.02653855
0.09773143 0.15830034 0.07865149 0.15026522 -0.06527734 0.20323251 -0.1870335 0.0333836
0.044798076 0.24977982 -0.19031835 -0.08116317 -0.011479914 0.20971969 0.024846852 -0.22319368
-0.24891502 0.13937211 -0.12469124 -0.015053511 -0.19798587 0.046051223 -0.25558895 -0.1908828
-0.25698942 0.040210634 -0.022440791 0.18832642 -0.1058799 -0.20444618 -0.1272394 -0.09861624
0.04010487 -0.114859104 0.23532346 -0.1674785 -0.11315304 0.21745868 0.04925817 -0.08684003
0.035172164 -0.11800152 -0.1930393 0.20495415 0.11270547 -0.1429832 0.19649994 0.20666438
0.050445497 0.005806923 -0.20245987 -0.0138575435 0.2138418 0.051780403 0.07714105 -0.11285561
-0.05884111 -0.22516066 0.022211075 -0.24681872 0.06818807 0.0038125515 -0.17865503 -0.07758129
0.18858624 0.2358095 0.08753455 0.06401551 -0.12642097 0.15086013 -0.17833954 -0.0023677945
0.103786826 0.012134254 0.16920686 0.22050995 0.18702388 -0.008432806 0.041496754 -0.015075564
-0.09849918 0.05913353 -0.17219877 0.131688 -0.12057388 0.012966156 0.07263768 -0.112374485
0.23881775 0.04401499 0.13931566 -0.22419381 -0.21948516 -0.14689666 0.2384659 0.11455226
-0.08588511 -0.010743558 -0.104537606 -0.18078691 -0.24010313 -0.14362401 -0.0096799135 -0.21099067
0.23080856 -0.0656825 -0.2313124 0.1038751 -0.08438661 0.19906354 0.2487256 -0.14023453
0.06664621 -0.17699666 0.101330616 0.19147968 -0.07531738 0.17271906 0.24774928 0.05982967
-0.090449005 0.0033735018 0.05349606 0.03862691 0.12323824 0.19728369 0.124220185 -0.048656464
-0.11285206 0.1469279 -0.14264913 0.068890244 0.011227429 0.10202124 -0.06455534 -0.05907315
-0.1769539 0.09520614 -0.11546755 0.09690605 0.11926639 0.23572314 0.031492114 0.2010917
0.012336671 0.05148459 0.13483915 -0.4065952 -0.22492297 0.16307917 -0.25527114 0.21202093
0.07227037 0.22841522 0.085514426 -0.10675599 0.15853518 0.20937374 -0.07327539 0.092399895
-0.21260518 0.16383757 -0.121206954 0.3094763 -0.07587232 0.027457474 0.0023134805 0.0037514325
00000000: 5386 513e 66b5 2d3e d43a 77be 20a3 c5bc
00000010: ddff 4d3e 9d39 773e ecda 613e 2877 2bbe
00000020: bc69 093e 3ec7 8f3c 9bdf 0e3e 8472 33be
00000030: 5289 d1bd 66da 633e 16c5 79bd 2f37 3dbe
00000040: 0682 683e 9995 c1bd 8887 813d 4bf5 b7bd
00000050: a4b6 3fbe 1870 45be 7ef3 c73c 37d4 2e3e
00000060: cefe f43d d0fc ce3d 5978 17be 568d 09be
00000070: ec85 173e 2770 2abd 2a6b 0a3c a0b4 103d
00000080: 63c2 25bd b087 b6bd 30e1 dbbd f967 12be
00000090: 5832 80bd acdd 213e 6079 043d fbba 7a3d
000000a0: 34c7 1fbe 0ef5 6ebe a586 a0bd 663a 03be
000000b0: 80b2 71bd 244f 80be bcf5 5f3d 7855 cc3d
000000c0: c7ee 41bd 069f 26be 8895 77be 0a70 6cbd
000000d0: cc3e 5ebe e937 58be 2053 f63c 4c48 45be
000000e0: a395 be3d d074 433e e2c2 553e f5c0 813e
000000f0: 81c6 413e 4d5e 3dbe 24dc 853c c0cb 0f3e
00000100: f01d fd3d f8f3 7bbe b780 753e 34d5 42be
00000110: c04e 6c3c 82c6 963d c088 533e 4829 32be
00000120: 88ea cbbd 2d9c 613e 1b19 a8bd c014 48bc
00000130: 5eda 693d ec14 f7bd 43ae 8cbd 8cda 73bd
00000140: ca76 d1bd 3995 333e 6229 b5bd 1a53 78be
00000150: c9af f4bc 400b 04bc 29e1 0ebe 6067 d93c
00000160: 6a27 c83d 7c19 223e 0814 a13d 20df 193e
00000170: 20b0 85bd 2f1c 503e b685 3fbe 3ebd 083d
00000180: 307e 373d 48c6 7f3e d0e2 42be e038 a6bd
00000190: 4016 3cbc c2c0 563e a08b cb3c e28c 64be
000001a0: 94e3 7ebe 90b7 0e3e 1f5e ffbd 00a3 76bc
000001b0: cfbc 4abe 35a0 3c3d 8edc 82be c876 43be
000001c0: 1e94 83be e8b3 243d c0d5 b7bc a4d8 403e
000001d0: 90d7 d8bd 575a 51be 0c4b 02be 50f7 c9bd
000001e0: 0145 243d 403b ebbd a2f8 703e 7c7f 2bbe
000001f0: c8bc e7bd 7dad 5e3e efc2 493d 30d9 b1bd
00000200: b010 103d c8aa f1bd 18ac 45be 80df 513e
00000210: 20d2 e63d 306a 12be 4837 493e d49f 533e
00000220: f09f 4e3d 0048 be3b a451 4fbe c00a 63bc
00000230: 58f9 5a3e b017 543d 20fc 9d3d d820 e7bd
00000240: 6003 71bd 8490 66be 00f4 b53c 0cbe 7cbe
00000250: 30a6 8b3d 00dc 793b 58f1 36be f0e2 9ebd
00000260: c01c 413e 0c78 713e 5045 b33d 901a 833d
00000270: 8074 01be 147b 1a3e a49e 36be 002d 1bbb
00000280: 308e d43d c0ce 463c 9044 2d3e 5ccd 613e
00000290: 3083 3f3e c029 0abc 80f8 293d 80ff 76bc
000002a0: f0b9 c9bd 0036 723d e054 30be 38d9 063e
000002b0: 70ef f6bd 0070 543c 10c3 943d 9824 e6bd
000002c0: a48c 743e 1049 343d c4a8 0e3e 1093 65be
000002d0: b8c0 60be 146c 16be 6830 743e 609a ea3d
000002e0: 88e4 afbd c005 30bc d017 d6bd 3420 39be
000002f0: 98dd 75be 2c12 13be 8098 1ebc f00d 58be
00000300: 1459 6c3e 8c84 86bd 28dd 6cbe 78bc d43d
00000310: e3d2 acbd 50d7 4b3e ecb1 7e3e a499 0fbe
00000320: cf7d 883d 9d3e 35be 6d86 cf3d 4013 443e
00000330: 0040 9abd 44dd 303e fdb1 7d3e f50f 753d
00000340: 543d b9bd f815 5d3b af1e 5b3d 4037 1e3d
00000350: 5564 fc3d bc04 4a3e 2767 fe3d 004c 47bd
00000360: fb1e e7bd 4474 163e 9d12 12be 5416 8d3d
00000370: 40f3 373c 83f0 d03d 9735 84bd b0f6 71bd
00000380: 6733 35be 70fb c23d 407a ecbd ae76 c63d
00000390: f041 f43d 6861 713e e0fd 003d fcea 4d3e
000003a0: c01f 4a3c 81e1 523d 4613 0a3e 3f2d d0be
000003b0: 3552 66be 3afe 263e e6b2 82be 041c 593e
000003c0: 7d02 943d aee5 693e 3022 af3d e2a2 dabd
000003d0: 0c57 223e 1266 563e 6811 96bd 283c bd3d
000003e0: 2cb5 59be 09c5 273e 5a3b f8bd ad73 9e3e
000003f0: f262 9bbd 7fee e03c c39d 173b 98da 753b

functional_2_1/e1_1/BiasAdd/ReadVariableOp f4 [64]
-0.009392475 0.006743372 0.0059451587 0.0 -0.0078038517 -0.012965543 0.0 0.0
0.0058028665 -0.00775315 -0.008313127 0.0 -0.02621703 -0.0077795824 -0.019428931 0.0039463895
-0.007381603 0.004505618 0.0065402887 -0.01823297 0.0018990608 0.0 0.032594614 0.004227007
-0.0028672204 0.0 -0.0017186425 -0.030442065 0.0 -0.018051822 -0.015035526 -0.006309838
-0.007609139 0.0 0.0 0.0058069145 0.0 0.040242445 0.0 0.0062521347
0.0 0.0020861772 0.0023353344 9.351262e-05 -0.009827843 0.03500178 -0.0071670213 0.0
0.015201301 -0.020385247 0.0 0.006105909 0.0 -0.006733179 0.0 0.0
-0.042620413 -0.0076960935 -0.023513773 -0.03142813 0.0006567287 -0.027977465 -0.018247074 -0.015701033
00000000: e5e2 19bc 81f7 dc3b 9bcf c23b 0000 0000
00000010: 74b7 ffbb 6e6d 54bc 0000 0000 0000 0000
00000020: f925 be3b 230e febb c833 08bc 0000 0000
00000030: 19c5 d6bc deeb febb 6c29 9fbc b750 813b
00000040: 60e1 f1bb dda3 933b eb4f d63b 4f5d 95bc
00000050: e8e9 f83a 0000 0000 ee81 053d b482 8a3b
00000060: fae7 3bbb 0000 0000 1344 e1ba a361 f9bc
00000070: 0000 0000 6ae1 93bc 9157 76bc c2c2 cebb
00000080: 1656 f9bb 0000 0000 0000 0000 ee47 be3b
00000090: 0000 0000 43d5 243d 0000 0000 b5de cc3b
000000a0: 0000 0000 3fb8 083b 690c 193b 351c c438
000000b0: f604 21bc 075e 0f3d 55d9 eabb 0000 0000
000000c0: e10e 793c f6fe a6bc 0000 0000 1414 c83b
000000d0: 0000 0000 00a2 dcbb 0000 0000 0000 0000
000000e0: be92 2ebd 832f fcbb f59f c0bc c8ba 00bd
000000f0: 5128 2c3a ff30 e5bc e37a 95bc 749f 80bc

functional_2_1/e2_1/BiasAdd/ReadVariableOp f4 [32]
-0.006503862 -0.008241694 0.0 0.036225904 -0.020408178 0.0061439835 -0.017141685 -0.0063392743
-0.025656624 -0.0068044052 0.0 0.0031667966 0.0 -0.0169302 -0.006544023 -0.0066345157
0.023053056 -0.021020506 0.0067593716 0.0 0.00699359 0.006190841 0.0046397354 -0.0068272087
-0.006956687 -0.031373557 0.0 -0.0060054506 0.006484834 0.0060808375 -0.005882952 0.0
00000000: 591e d5bb 2c08 07bc 0000 0000 9d61 143d
00000010: 0d2f a7bc 7853 c93b b86c 8cbc b0b9 cfbb
00000020: d72d d2bc 7df7 debb 0000 0000 088a 4f3b
00000030: 0000 0000 34b1 8abc 3e6f d6bb 5a66 d9bb
00000040: c3d9 bc3c 3233 acbc b87d dd3b 0000 0000
00000050: 7c2a e53b 8adc ca3b ec08 983b c7b6 dfbb
00000060: ecf4 e3bb 8f81 00bd 0000 0000 5fc9 c4bb
00000070: bb7e d43b c341 c73b c7c5 c0bb 0000 0000

functional_2_1/e1_1/MatMul f4 [64, 19]
0.09565557 0.18761706 -0.15352216 -0.0682597 -0.1964146 0.19668116 -0.1093949 -0.13983685
-0.24229997 0.17457625 0.06667222 -0.21336864 -0.12525985 -0.06914906 0.15965655 0.08298813
0.037142664 -0.0011757151 -0.10851425 0.15069608 -0.10678451 -0.08971267 0.207629 -0.14843644
-0.06882095 -0.13102679 0.14033587 -0.21463345 -0.010149248 -0.084865645 -0.07059534 0.17908056
0.14426957 0.1844099 0.13810845 0.049473733 0.2145881 0.05506165 0.12509868 -0.062179074
-0.25764126 -0.11233884 0.21897534 0.2430643 0.15219826 0.07162268 0.059088152 -0.13588533
0.02321536 -0.18436822 -0.08264296 0.055659134 0.2524102 0.14904565 0.09626917 0.16824672
0.07141721 -0.19361274 -0.046635523 0.110051095 0.17093602 0.10751134 0.20868376 0.15080273
0.10546908 -0.055946827 0.15830085 0.22408384 -0.23625845 0.09543413 -0.12434447 0.20484483
-0.06179498 -0.1262655 -0.17752244 -0.05434221 0.06312638 0.23286064 0.03425256 0.052693002
0.15250446 -0.120093904 0.19168778 0.16785575 -0.044242844 0.24703851 -0.008804299 -0.10401286
-0.23837084 -0.17782696 -0.015842937 0.10475002 0.22557352 0.030489303 0.23486586 -0.099850826
-0.13787384 -0.1547746 -0.11398836 -0.21798117 0.012973827 -0.18088827 -0.20838092 0.12949517
-0.2724949 -0.08722431 -0.12501533 0.020510761 0.016697269 0.13022944 0.05441805 -0.2410213
0.09907245 0.02024283 -0.22983131 -0.15196621 -0.17235947 0.18959093 -0.26745495 0.2656777
-0.12340702 0.00890407 -0.22476456 -0.23150375 0.2573275 -0.12700453 -0.19335197 -0.19185543
-0.21624735 0.18550375 -0.008216441 0.24145621 0.009094566 0.21545947 0.22265527 -0.029100925
-0.09412335 0.16980198 -0.083136395 -0.062886715 0.23300803 -0.18169251 0.2296013 0.22824618
-0.10265152 -0.029855534 -0.25790435 0.12274626 -0.20066416 -0.08142421 -0.11534797 0.15060139
0.16571318 0.036950964 0.27406266 0.082177214 0.19933471 0.20315778 0.06748692 0.0310885
0.1034223 0.084487334 -0.026681144 -0.11275035 0.036363933 -0.21084005 -0.163303 -0.18825795
0.13617858 0.14128003 0.0025825396 0.060434137 -0.25743762 0.05796207 -0.07392633 0.16183735
-0.108557045 -0.2666432 0.21524413 0.19754769 0.25466293 0.07315563 0.22772165 0.14341216
0.17912862 0.12786439 0.01264067 0.1278551 -0.12552297 0.099962816 0.06529679 0.048851065
-0.23528357 -0.019936258 -0.26759538 -0.17094839 0.2587266 -0.18547338 0.22991455 0.08988007
-0.27083203 0.2464958 -0.023956912 -0.07277736 0.106301 -0.06908978 0.092109405 -0.17760631
-0.21675235 -0.030851498 0.08858839 -0.25585517 0.00036916137 0.21775147 0.033325046 0.1385963
-0.011861563 -0.24009256 -0.082977995 -0.15113512 -0.12943242 -0.06965347 0.04978329 -0.17269352
-0.09271167 0.0010304451 -0.16598247 0.2365396 0.14174426 0.054812714 -0.13941492 -0.20311409
0.14883909 0.13526438 -0.16575536 -0.08743507 0.10797531 -0.1334608 0.13704073 -0.18674983
-0.18712822 -0.05508239 -0.1246041 -0.23825179 -0.23235336 -0.16883531 -0.109298564 -0.11971671
0.1979511 0.18311477 0.05912666 0.20183627 -0.14298101 -0.090813816 -0.14346658 0.15413117
00000000: 11e7 c33d b01e 403e ea34 1dbe becb 8bbd
00000010: e920 49be c966 493e 6f0a e0bd 6431 0fbe
00000020: 7c1d 78be 1ec4 323e 728b 883d 4f7d 5abe
00000030: 1e44 00be 069e 8dbd 027d 233e aef5 a93d
00000040: e822 183d 741a 9aba b83c debd 1350 1a3e
00000050: d6b1 dabd 47bb b7bd b29c 543e b9ff 17be
00000060: 00f2 8cbd e32b 06be 35b4 0f3e dfc8 5bbe
00000070: 0849 26bc 0ace adbd 4a94 90bd e560 373e
00000080: 67bb 133e f3d5 3c3e 4d6c 0d3e f8a4 4a3d
00000090: fcbc 5b3e 5388 613d de19 003e 7caf 7ebd
000000a0: 8ee9 83be e811 e6bd 123b 603e d9e5 783e
000000b0: dcd9 1b3e e9ae 923d 6b06 723d 8625 0bbe
000000c0: 232e be3c 06cb 3cbe b640 a9bd d5fa 633d
000000d0: e93b 813e 6c9f 183e c528 c53d de48 2c3e
000000e0: 3043 923d 6b42 46be e404 3fbd 7862 e13d
000000f0: da09 2f3e e82e dc3d 32b1 553e 086c 1a3e
00000100: 2c00 d83d 8028 65bd 9e19 223e 3c76 653e
00000110: bced 71be f872 c33d 50a8 febd d8c2 513e
00000120: bc1c 7dbd be4b 01be 71c8 35be f095 5ebd
00000130: 6748 813d 0573 6e3e 6a4c 0c3d 9ed4 573d
00000140: 212a 1c3e cbf3 f5bd cd49 443e 61e2 2b3e
00000150: fc37 35bd aaf7 7c3e e83f 10bc b204 d5bd
00000160: 7c17 74be 4518 36be 0cc9 81bc 2e87 d63d
00000170: bffc 663e b4c4 f93c ad80 703e 977e ccbd
00000180: cd2e 0dbe 3c7d 1ebe bb72 e9bd 7536 5fbe
00000190: 2d90 543c c63a 39be cf61 55be 629a 043e
000001a0: 7484 8bbe a9a2 b2bd 0504 00be 2f06 a83c
000001b0: b6c8 883c de5a 053e 76e5 5e3d 4ace 76be
000001c0: 7fe6 ca3d 4bd4 a53c e658 6bbe 089d 1bbe
000001d0: 007f 30be 2024 423e dbef 88be e806 883e
000001e0: d2bc fcbd 60e2 113c ae28 66be 520f 6dbe
000001f0: 6ec0 833e 7a0d 02be 0ffe 45be c075 44be
00000200: f26f 5dbe b2f4 3d3e 409e 06bc 4c40 773e
00000210: 6001 153c 68a1 5c3e beff 633e 1065 eebc
00000220: bec3 c0bd 92e0 2d3e 6a43 aabd c0ca 80bd
00000230: a899 6e3e 9a0d 3abe 9a1c 6b3e 5eb9 693e
00000240: f63a d2bd 9893 f4bc 0a0c 84be 6462 fb3d
00000250: e87a 4dbe bcc1 a6bd 8e3b ecbd 4037 1a3e
00000260: b7b0 293e e559 173d f151 8c3e 874c a83d
00000270: 661e 4c3e 9808 503e 9536 8a3d 4fad fe3c
00000280: 12cf d33d b207 ad3d 6a92 dabc a8e9 e6bd
00000290: 59f2 143d 74e6 57be e738 27be b1c6 40be
000002a0: 6672 0b3e b6ab 103e d33f 293b c989 773d
000002b0: ddce 83be a369 6d3d b066 97bd b1b8 253e
000002c0: 2853 debd 7585 88be f568 5c3e f149 4a3e
000002d0: 2e63 823e 9ed2 953d dd2f 693e a3da 123e
000002e0: 7e6d 373e e2ee 023e d01a 4f3c 73ec 023e
000002f0: 1889 00be 4eb9 cc3d 53ba 853d 0e18 483d
00000300: 2dee 70be 5d51 a3bc 4302 89be 180d 2fbe
00000310: d077 843e bcec 3dbe b86e 6b3e 0b13 b83d
00000320: 7faa 8abe 6569 7c3e 4941 c4bc 4c0c 95bd
00000330: 57b4 d93d f17e 8dbd dba3 bc3d 6ede 35be
00000340: 54f4 5dbe 48bc fcbc d46d b53d 73ff 82be
00000350: 008c c139 3efa 5e3e d87f 083d 30ec 0d3e
00000360: 0057 42bc d3da 75be 5ef0 a9bd 2ac3 1abe
00000370: ef89 04be 7aa6 8ebd 90e9 4b3d 92d6 30be
00000380: 9edf bdbd 0010 873a 4ff7 29be 7037 723e
00000390: 6825 113e 4c83 603d c9c2 0ebe 24fd 4fbe
000003a0: 4669 183e bf82 0a3e c6bb 29be 2811 b3bd
000003b0: 2922 dd3d f3a9 08be 6854 0c3e 593b 3fbe
000003c0: 8a9e 3fbe 129e 61bd 6f30 ffbd 47f8 73be
000003d0: 0aee 6dbe 2ae3 2cbe edd7 dfbd 092e f5bd
000003e0: b1b3 4a3e 7082 3b3e cc2e 723d 2bae 4e3e
000003f0: 9d69 12be 98fc b9bd e7e8 12be 90d4 1d3e
