deployment/models/naive_edge_model.tflite (tflite, 14728 bytes, 3 tensors)

arith.constant f4 [1, 32]
00000000: a09c 893c 1002 dcbc 6c20 813e 1425 dabe
00000010: 1486 aebd 3030 753e 20a3 4fbe 6b25 52be
00000020: a0c5 c43d 9094 5cbd d802 293d 40e4 403c
00000030: 9407 133e 4eef c33e f058 d23c 2cba cbbd
00000040: f8a0 c43e 7acb 93be 14f0 c33e bc75 88be
00000050: 13fd a3be 2c81 9e3e 1656 873e 4cb2 7a3e
00000060: 8704 6ebe 1466 1abe e069 16bd 28c2 a63e
00000070: 54b6 c0be 7cf5 d0be 10c0 663d 9ced 4d3e
0.016798317 -0.026856452 0.25220048 -0.42606413 -0.08521667 0.23944163 -0.20277071 -0.20522086
0.096080065 -0.053852618 0.041262478 0.011773169 0.1435836 0.38268512 0.025677174 -0.09947619
0.3840406 -0.28866178 0.38269103 -0.26652324 -0.32029018 0.30957925 0.26432866 0.24482077
-0.23243915 -0.15078002 -0.036722064 0.32570004 -0.37639105 -0.4081229 0.05633551 0.20110172

arith.constant1 f4 [32, 64]
00000000: c87f dc3d 1839 373e 007b 1f3d 5081 513d
00000010: b896 03be f0c4 693e b827 cf3d 4862 1dbe
00000020: fc10 4b3e a08d 9abd 8ce2 09be a8c5 97bd
00000030: a0c4 363d a8eb e6bd a05d f9bc 1028 bebd
00000040: 2084 c93c 886f a9bd b422 53be 5cc4 06be
00000050: b02f c5bd e069 4b3d d059 42bd 00e5 19bb
00000060: 50cb 7f3d 00f5 9abb a0af 5a3d 8479 2abe
00000070: 08ee e23d 0072 6abe 509b cc3d 04cc 133e
00000080: ecb4 41be a0a9 aebd 80cd b43c 205c 20be
00000090: 28e7 623e 7c62 3ebe 682e 133e 687a c0bd
000000a0: 100c 4f3d 4869 a43d 3c01 31be 54a7 3a3e
000000b0: c4d6 58be a0bb 27bd 3ccc 7f3e 6023 fbbc
000000c0: a8cb 55be 8c3a 553e 80c3 30bc 80f0 6cbc
000000d0: 9c26 2bbe a060 6bbe 30c8 57be a898 dbbd
000000e0: c8a6 b9bd ec3f 353e c042 263e c0a0 25bd
000000f0: 84b5 02be 9c4a 423e 28c4 ac3d 742e 2b3e
00000100: f851 99bd 2c51 5d3e 6096 d1bc 98e5 bebd
00000110: 6061 a43d 9800 7f3e bca5 47be 50b7 bd3d
00000120: 4082 a73c 64fc 62be c071 51bd b09d 57be
00000130: 5c99 4c3e 4072 64be a0c4 343e 50b0 6cbd
00000140: 0866 44be 10c9 5abd 108d 1cbe f886 c5bd
00000150: bcfe 09be 70f6 47be e0be b73d 401e 6b3c
00000160: a8e2 8b3d c405 7f3e c00e 983d c08d 6bbe
00000170: 703d 3c3d cc17 5c3e a8a7 7fbe 00fd 263e
00000180: f022 393d a0f4 3bbd 000a b8bc dc51 473e
00000190: b43d 6abe 00e9 9d3c 1028 22be 94f6 05be
000001a0: e4bf 18be 883f f9bd 40b2 5abc e817 5cbe
000001b0: 2485 5d3e 0c3e 213e 2c05 493e d0bf f63d
000001c0: c025 683c e0bd c53d d88a 47be dc6a 3cbe
000001d0: 4074 16be 109a 1c3d 0080 41bd 000f 6cbc
000001e0: c8ef c3bd d028 8f3d 5021 f03d 00f4 16bc
000001f0: 6423 623e 0089 2abc 44bf 04be 10f8 5f3d
00000200: 6c18 31be d016 43be 484f 173e a475 11be
00000210: 54a4 63be 083b 10be 8043 acbc 8047 c3bd
00000220: d410 1f3e e8d4 953d d86d 803d 782c 23be
00000230: b0c6 28bd 906b b73d fcd4 1d3e e0d2 09bd
00000240: 88d5 383e 344d 32be fc81 393e a0a2 76be
00000250: bc13 343e 78df 1e3e f031 fd3d 00bf 4b3d
00000260: 405d d13d 20f6 733d fc33 0f3e 604b 883d
00000270: 4cb8 303e 34bf 7d3e 582c 00be f434 4e3e
00000280: fcdb 573e 60d9 c7bc 5458 583e a066 113d
00000290: a8e3 c9bd 901d 563d e06d 253e 0091 4b3c
000002a0: dc22 053e 1c75 3bbe b84a 133e c075 143d
000002b0: a0b4 c7bc 404d 41bd e444 673e f0f0 2cbe
000002c0: a0f0 853d f830 fdbd 7043 49bd c04b cabc
000002d0: ec37 273e 048c 183e 006a 9cba d068 193e
000002e0: 64b4 22be fcec 00be 784b c4bd 4805 61be
000002f0: cc35 123e 8073 d2bd 48a5 993d 18e6 e7bd
00000300: 787d a8bd c0f3 88bd d8cb f6bd 802c 09bc
00000310: dcbb 2c3e 4c27 20be 9873 cabd a095 043e
00000320: 90da 743e 80f6 1b3e 2c29 073e f426 503e
00000330: 6ce0 373e c032 443c 6c85 763e e0e5 d3bd
00000340: 705b 5f3e 2002 63be a09f 32bd a072 933c
00000350: 1c93 143e 400f ee3c 8c52 443e b8e7 43be
00000360: b4bc 6abe 50e6 4cbe c4ca 483e 3871 8bbd
00000370: 28be 2cbe c00d 723e 48ef ba3d 4461 243e
00000380: 0023 70bd 742e 0ebe 90be debd 0cf8 683e
00000390: d8e7 fabd 4023 2bbc fc6e 7dbe 44fd 5dbe
000003a0: 60e1 783d 707d ca3d 0844 af3d 00a8 3e3c
000003b0: 1849 f43d b04f 353e 0071 0ebc 981f 363e
000003c0: 18bb e23d a06e 183d 107f 70bd 308c 9d3d
000003d0: 90e8 1a3e 180b 22be 20ef 743d 944c 5cbe
000003e0: 00df f3bd d0a6 b33d 8829 48be 588f 2f3e
000003f0: 9066 473d 80f3 703e c8b0 1cbe 8875 443e
0.1076656 0.17892873 0.03893566 0.051148713 -0.12850463 0.22829032 0.101149976 -0.15369523
0.19830698 -0.07546544 -0.13465327 -0.07410747 0.04462111 -0.112754166 -0.030440152 -0.09284985
0.024599135 -0.08273226 -0.20618707 -0.13160843 -0.09628236 0.049661517 -0.047448933 -0.0023482442
0.062449753 -0.0047289133 0.053390145 -0.16647917 0.11080557 -0.2289505 0.09990561 0.14433295
-0.18916672 -0.08528447 0.022070646 -0.15660143 0.22158492 -0.18592256 0.14373171 -0.09398347
0.050548613 0.08027893 -0.17285627 0.18227893 -0.21175677 -0.040950418 0.24980253 -0.030656517
-0.2087847 0.20823115 -0.010788798 -0.014461637 -0.16713947 -0.22986078 -0.21072459 -0.10722476
-0.09065014 0.17700166 0.162364 -0.040436506 -0.12764555 0.18973774 0.08435851 0.16716939
-0.074863374 0.21612996 -0.0255844 -0.09321135 0.08026385 0.2490257 -0.19496816 0.0926348
0.02044785 -0.22166592 -0.05113387 -0.21056247 0.19980377 -0.22309208 0.17653131 -0.057785332
-0.19179547 -0.053414404 -0.15288186 -0.09644884 -0.1347608 -0.19527602 0.089719534 0.014350474
0.068303406 0.24904543 0.07424688 -0.23003292 0.04595703 0.21493453 -0.249663 0.1630745
0.045199335 -0.04588759 -0.022465706 0.1946482 -0.228751 0.019276142 -0.15835595 -0.13082343
-0.1491695 -0.12170321 -0.013348162 -0.21493495 0.2163282 0.15746325 0.19630879 0.12048304
0.014169157 0.096553564 -0.19486558 -0.18400139 -0.14692783 0.038232863 -0.04724121 -0.014407873
-0.09567219 0.06990206 0.11725104 -0.009213448 0.22083813 -0.01040864 -0.12963587 0.05467993
-0.17294472 -0.19051671 0.14776337 -0.14205033 -0.22230655 -0.14085019 -0.02102828 -0.09535122
0.15533763 0.07315999 0.06270951 -0.15934932 -0.04120511 0.08956063 0.15413278 -0.03364837
0.18050206 -0.17412263 0.18115991 -0.24085474 0.17585653 0.15514934 0.123630404 0.0497427
0.10222864 0.059560895 0.13984674 0.06655002 0.17257804 0.2477997 -0.12516916 0.20137388
0.21080011 -0.024395645 0.21127445 0.03549826 -0.09857875 0.052274287 0.16155195 0.012424707
0.13001579 -0.18306392 0.14383972 0.036245108 -0.02437812 -0.047192812 0.22584873 -0.16888785
0.06540036 -0.12362856 -0.04913658 -0.024694324 0.16329926 0.14897162 -0.0011933446 0.14981389
-0.15889126 -0.12590402 -0.09584707 -0.21974671 0.14278334 -0.10275936 0.07502228 -0.11323184
-0.08227056 -0.066871166 -0.12050599 -0.008372426 0.16868538 -0.1563999 -0.09885329 0.12947702
0.239115 0.15230751 0.131993 0.2032736 0.17956704 0.01197499 0.24074334 -0.103465796
0.21812224 -0.2216878 -0.04360926 0.017998993 0.14509243 0.029060006 0.19172114 -0.19131362
-0.22923547 -0.20009732 0.19608599 -0.06808704 -0.16869414 0.23638058 0.091276705 0.16052729
-0.05862713 -0.13884908 -0.10876191 0.22750872 -0.12251252 -0.010445416 -0.24749368 -0.21678644
0.06076181 0.098872066 0.08557898 0.011636734 0.11928004 0.1770618 -0.0086939335 0.1778549
0.110708416 0.037214875 -0.058714926 0.07692754 0.15127778 -0.15824544 0.05979836 -0.21513587
-0.11907768 0.08772051 -0.19547093 0.17144525 0.048681796 0.23530388 -0.15301812 0.1918546

functional_10_1/e1_1/MatMul f4 [64, 19]
00000000: 1048 af3c 80ad c33b 8e33 3bbe f63f 383e
00000010: a0b1 59be 84c9 803d 3acf 9dbd 70a4 97bc
00000020: 0612 a7bd 1836 263e 885f 673d 78f6 143d
00000030: 1299 0b3e 69f1 11be 103a 5c3d 903d 093e
00000040: 784b 233e e02c 5ebe efcc 1fbe 3cfd e1bd
00000050: d4e4 a63d e267 c8bd f09f bcbd 046e ee3d
00000060: 079c 11be a045 77bc d21f 3f3e 4966 6fbe
00000070: 3d9a 12be 50ed ea3d 6661 623e a6ea 36be
00000080: 1039 8e3c 4a82 643e afbc 31be 095c 54be
00000090: 3460 823d 6d58 3bbe da7c cebd 5fb8 06be
000000a0: 707e aa3c 3861 cfbd 874c 29be aca4 4ebd
000000b0: 56bd 593e 5231 69be 80c4 4fbd c03e 083d
000000c0: 60f2 f4bc b827 633d e0e1 10bc 807c 8fbd
000000d0: ba4f 863e faf9 263e def1 873e f02d 7d3d
000000e0: c87c 113d e06e 383e fa59 683e 0c53 773e
000000f0: defb d3bd 3082 383d 9b63 01be 245a 53bd
00000100: 7f92 3fbe 7857 8dbd 54fa 12be f360 04be
00000110: 2199 86be 286f 333e 226a 5d3e 984c af3d
00000120: e6ee a8bd c06f e13b 7edc 77be 585e 463d
00000130: 4071 cf3d 9ec2 49be 4ccb 73bd f4ff 3a3e
00000140: 70e5 ea3c 442a a5bd f5d1 19be 1459 ea3d
00000150: cc37 8f3d 326b 5cbe 9485 eebd 58d4 123d
00000160: 1080 ba3d d5f9 87be 5b54 5dbe 8442 433e
00000170: 7218 24be 10e4 f53c 5844 20be 00a4 e23c
00000180: 7854 583e 14be 68bd a0ed 7a3c 1c78 333e
00000190: 443d 7dbd 144e 163e 22bc 06be 004f c1bb
000001a0: 782c 813e d891 d0bd d0f6 743d 4842 823e
000001b0: d4a2 ab3d 00ca b93b 6647 423e 2889 3cbd
000001c0: 1066 513d b29d 103e 2cf7 69bd 123f eebd
000001d0: c0b5 ddbb 42d2 c7bd 8e8b d7bd bc1c af3d
000001e0: 0e51 613e f051 0d3d ca53 323e 2197 52be
000001f0: e448 07bd 2ef4 1b3e 5324 61be 2878 59bd
00000200: 5ea2 7abe 940c b33d e4b1 78bd 4897 523d
00000210: 7893 30be 4802 973d d412 6e3e b635 103e
00000220: 2484 373e 38a9 7a3e a0dd e3bd aa41 34be
00000230: 40cf f43d e72b 83be 1e82 413e da7a eabd
00000240: 3eaa 66be 3c98 14bd 4cf3 cb3d 6434 3c3e
00000250: ac01 67be 8818 1d3e fe3d 44be 682b 2c3d
00000260: 82cd 83be bed9 0cbe 2844 5a3d 73ba 3dbe
00000270: 24b1 da3d 9734 6abe b8b0 723e 683a 76be
00000280: c9c8 80be 80a0 ef3b 196a 2abe ac4a 713e
00000290: e220 f5bd 2cec d2bd bae2 6ebe c4be a3bd
000002a0: 04c1 6c3e 7832 01be 2033 a73d 922a b8bd
000002b0: 70db 28be 0279 2f3e 1c43 093e 58d2 d0bd
000002c0: 9cf0 40be f2a8 f8bd 143d 30be fcd8 073e
000002d0: 78ed 6c3e dc52 52bd 6233 98bd e87c 823e
000002e0: c01f 13bd bc66 393e 80b6 a33d 92d8 75be
000002f0: b0ee e73c 780c 3bbe b2a2 203e 128f 3f3e
00000300: 5a8a 863e 2417 143e 7aaa a7bd 78f9 463d
00000310: 7442 24be 2066 3bbc 9ab9 333e 1a62 ecbd
00000320: b402 e83d 037c 87be f0e5 5b3e d64e 1f3e
00000330: 6a48 233e b8dd c0bd 52f2 373e 6303 52be
00000340: a2b1 513e b4eb 863e 5840 e0bc 2e3f 2a3e
00000350: c0ae 3a3d 6276 203e 1224 853e 6e5a 823e
00000360: a738 10be 7522 58be d781 15be 90c6 53be
00000370: 0490 f03d 72e3 4dbe c873 023e ec9b 83bd
00000380: a2b3 98bd d0c2 2fbe b4f6 fbbd 40eb 463c
00000390: cd4b 60be 24ff abbd 2469 4abd 54b3 153e
000003a0: a42a 873d 27b1 80be 00b9 5cbc 9a65 083e
000003b0: c42e 0e3e c834 54be d84a 45be 6a4f 0b3e
000003c0: 3a67 6cbe 0004 373d 0e48 2a3e f069 b93c
000003d0: 66b7 053e c4f6 1abd 108f b1bd f84a f33d
000003e0: e06b e43c 1ce2 28be 8f30 83be 549d e93d
000003f0: 488c af3d f4bf 08be d401 e4bd ce12 05be
0.021396667 0.0059716105 -0.18281385 0.17993149 -0.21259165 0.06288436 -0.07705541 -0.018511027
-0.081577346 0.16231573 0.05648759 0.036367863 0.1363261 -0.14252247 0.05376631 0.1340239
0.15946758 -0.21696806 -0.1560552 -0.11034629 0.08149114 -0.09785439 -0.09210193 0.116420776
-0.14219676 -0.0150922835 0.18664482 -0.23378862 -0.1431665 0.11471045 0.22107467 -0.17862949
0.017361194 0.22315326 -0.17357133 -0.20738234 0.063660055 -0.1829545 -0.10082407 -0.1315627
0.020812243 -0.10125965 -0.16533099 -0.050450012 0.21263632 -0.2277272 -0.050724506 0.033262968
-0.02990073 0.0554578 -0.008842915 -0.07006168 0.26232702 0.16306296 0.26551718 0.061811388
0.03551939 0.18011045 0.22690573 0.24152774 -0.10350774 0.04504603 -0.12635653 -0.051599637
-0.18708228 -0.06901449 -0.14353305 -0.12927608 -0.26288703 0.17522871 0.21622518 0.08559531
-0.08248691 0.0068797767 -0.24205205 0.048429817 0.101290226 -0.19703147 -0.05952005 0.18261701
0.028673857 -0.08064702 -0.15021499 0.114427716 0.06993064 -0.21525267 -0.11646572 0.035847038
0.09106457 -0.26557794 -0.2161421 0.19068342 -0.1602495 0.030015975 -0.15651071 0.027666092
0.21125972 -0.056821898 0.015315443 0.17526287 -0.061826006 0.14678222 -0.13157704 -0.00589931
0.2522924 -0.101840675 0.05980569 0.25441194 0.083806664 0.005669832 0.18972549 -0.04602924
0.051122725 0.14122656 -0.057120487 -0.116331235 -0.006766051 -0.097569 -0.10524665 0.085504025
0.22003576 0.03450197 0.17414775 -0.20565464 -0.0330285 0.15229866 -0.21986513 -0.053093106
-0.24476 0.087426335 -0.060716525 0.051413804 -0.17243755 0.07373482 0.2324937 0.14082989
0.17921501 0.24478614 -0.11126256 -0.17603174 0.11953592 -0.25619432 0.18897292 -0.11449213
-0.2252588 -0.036277995 0.099585146 0.1837936 -0.22559232 0.15341389 -0.19164273 0.042033583
-0.25742728 -0.13754937 0.053287655 -0.18528156 0.10678318 -0.22871624 0.23700225 -0.24045718
-0.25153187 0.0073128343 -0.16642036 0.23563641 -0.119691625 -0.102989525 -0.23328677 -0.0799537
0.23120505 -0.12616909 0.08164048 -0.08992495 -0.16489959 0.17136005 0.13404506 -0.1019637
-0.18841785 -0.12141599 -0.172108 0.13266367 0.23137462 -0.051348552 -0.074316755 0.2548592
-0.03591895 0.18105596 0.079937935 -0.24008396 0.028312057 -0.18266475 0.15687063 0.1870692
0.2627743 0.14461952 -0.08186813 0.048577756 -0.16040975 -0.011437923 0.1755127 -0.11542149
0.113286406 -0.264618 0.21474433 0.15557417 0.15945593 -0.094172895 0.17963532 -0.20509104
0.20477918 0.26351702 -0.027374431 0.16625664 0.04557681 0.1567016 0.26004082 0.25459617
-0.14084111 -0.21106894 -0.14600311 -0.20681214 0.11746219 -0.20106295 0.1273948 -0.06426224
-0.07456137 -0.17164159 -0.12302914 0.012141049 -0.21903916 -0.083982736 -0.049416676 0.1461919
0.0659993 -0.25135157 -0.013471842 0.13320008 0.13885027 -0.2072326 -0.19266832 0.13604513
-0.23086253 0.04468155 0.16629049 0.022633523 0.13058242 -0.03783299 -0.08669865 0.118795335
0.02788347 -0.16492504 -0.25622985 0.11406961 0.085716784 -0.13354474 -0.11133161 -0.12995455
