deployment/models/trained_model.tflite (tflite, 15452 bytes, 5 tensors)

arith.constant f4 [1, 32]
0	0xba860c98	-0.0010227142
1	0xbbfa8180	-0.007644832
2	0xbd0d6c6c	-0.034527227
3	0x3d9596f4	0.07304183
4	0x3c2fb1b3	0.010723519
5	0xbd960834	-0.07325783
6	0x3dd185bc	0.10230586
7	0x3c34cc40	0.011035025
8	0xbc574ca1	-0.013140828
9	0x3cf62ff8	0.03005217
10	0x3da97b73	0.08275499
11	0xbca70b53	-0.020391142
12	0x3da575c6	0.08079104
13	0xbd33efaa	-0.043929733
14	0x3e4e3f78	0.20141399
15	0xbe71ae90	-0.23601747
16	0xbd271afb	-0.040797215
17	0xba676cdd	-0.00088281726
18	0xbb9105bc	-0.0044257324
19	0xbc683aba	-0.014174158
20	0xbc0852c8	-0.008320518
21	0x3ddfb670	0.10923469
22	0x3d85bd4e	0.06530248
23	0xbe782c08	-0.24235547
24	0x3cda2046	0.026626717
25	0x3eaacb89	0.3335841
26	0x3c8f46c1	0.017489793
27	0x3c8f9c20	0.0175305
28	0xbc6d8065	-0.014495944
29	0x3d26282d	0.04056566
30	0x3dd2a373	0.10285082
31	0x3cad5a07	0.021161092

arith.constant1 f4 [32, 64]
0	0xbf019f7d	-0.50633985
1	0xbe8f3b46	-0.2797491
2	0xbe2f41b0	-0.17114902
3	0x3de9cff8	0.1141662
4	0x3e37f88b	0.17965905
5	0x3d838ce6	0.064233586
6	0x3e16f1d8	0.14740694
7	0x3cc1d7fc	0.02366256
8	0x3db85a98	0.090016544
9	0xbb1875ff	-0.002326369
10	0x3d86d115	0.06582848
11	0xbd3a1c6c	-0.04543726
12	0xbd159eb4	-0.036528304
13	0xbe921c66	-0.2853729
14	0xbd119460	-0.035541892
15	0x3c5a1ab0	0.013312027
16	0xbdc3e100	-0.095644
17	0xbe1feb7a	-0.15617171
18	0x3e616938	0.22012794
19	0x3d5a8730	0.05335158
20	0xbd59f410	-0.05321127
21	0x3cb96ea3	0.022635764
22	0xbe40f352	-0.1884282
23	0xbd1f8549	-0.03894547
24	0x3e808eaa	0.25108844
25	0x3d9c031d	0.07617781
26	0xbe00728e	-0.12543699
27	0xbd86d153	-0.06582894
28	0x3d16b267	0.03679123
29	0xbe27d49f	-0.16389702
30	0x3e27258b	0.16322915
31	0xbf0d9bdb	-0.5531594
32	0x3decbfbd	0.11560009
33	0x3dfec98e	0.12440787
34	0xbd6167b1	-0.05503053
35	0x3e482d0b	0.19548433
36	0xbe34c1a8	-0.17651999
37	0xbe19b07c	-0.1500873
38	0x3e05a008	0.13049328
39	0x3e65c114	0.22436935
40	0x3e09dfbd	0.13464256
41	0xbe659dec	-0.22423524
42	0x3c4fcfaa	0.012683788
43	0xbdeed1e0	-0.11661124
44	0x3e17235d	0.14759584
45	0x3d850da0	0.064967394
46	0x3c799544	0.015233342
47	0x3e316f78	0.17327678
48	0x3e224f01	0.1585045
49	0xbe07f72c	-0.13277882
50	0xbde5bbb8	-0.11217445
51	0x3f005f25	0.5014518
52	0xbe15dd2b	-0.1463515
53	0xbe54d59e	-0.20784613
54	0x3e65dec3	0.22448258
55	0x3ce18335	0.027528385
56	0xbe4d67d0	-0.20059133
57	0xbd87b010	-0.06625378
58	0xbe03d978	-0.12875926
59	0xbe509bfb	-0.20372002
60	0x3e3420ad	0.1759059
61	0x3e9faa9d	0.31184855
62	0xbe4a0cd4	-0.19731456
63	0x3e609990	0.2193358
64	0x3dc0702a	0.093963936
65	0x3dbfecb8	0.093713224
66	0x3de64f68	0.11245614
67	0x3e7d46e0	0.24734068
68	0x3cbd68d2	0.023121271
69	0x3e504869	0.20340122
70	0x3e6b67bc	0.2298879
71	0x3dee6e86	0.116421744
72	0x3e6a42a8	0.2287699
73	0xbe0c9da9	-0.13732018
74	0x3d94c845	0.07264761
75	0xbd34af1f	-0.04411232
76	0xbe42633a	-0.18983164
77	0xbd8937dc	-0.067001075
78	0xbd31d0c0	-0.04341197
79	0xbccde166	-0.025131892
80	0xbe7b69e0	-0.24552107
81	0x3d3ec074	0.046570256
82	0xbe6669d0	-0.22501302
83	0xbd8a9fd0	-0.06768763
84	0xbcb3e320	-0.021958888
85	0xbe821221	-0.25404456
86	0x3e30311e	0.17206237
87	0x3e4d33ef	0.20039342
88	0xbda764d8	-0.08173531
89	0x3e3f50c6	0.18683156
90	0x3d578d2a	0.05262486
91	0x3dccb1e8	0.099948704
92	0x3ce13a75	0.027493695
93	0x3d87b3fe	0.06626128
94	0x3dc756f3	0.09733381
95	0xbea76f17	-0.32701942
96	0xbe740a31	-0.23832013
97	0x3d1f2411	0.038852755
98	0xbd0bbd88	-0.034116298
99	0xbe1a3bef	-0.15061925
100	0xbc0a7ec0	-0.008453071
101	0x3e3f67d0	0.18691945
102	0xbe66833c	-0.22511
103	0x3c06d87a	0.008230323
104	0xbd378808	-0.044807464
105	0xbd5a7050	-0.053329766
106	0x3de969a6	0.11397104
107	0xbe278351	-0.16358687
108	0xbe395e2a	-0.18102327
109	0xbe54ee60	-0.20794058
110	0x3e264e66	0.16240844
111	0x3dff88d0	0.12477267
112	0xbd092c82	-0.03348971
113	0xbe4607e4	-0.19338948
114	0x3e002acc	0.12516326
115	0xbe38eaf9	-0.18058385
116	0xbdf6a485	-0.12043098
117	0xbd2c2c39	-0.04203436
118	0xbd3f2d2e	-0.046673946
119	0x3e53635a	0.20643368
120	0x3d8039c8	0.06261021
121	0xbc9e60f4	-0.01933334
122	0xbd88b7e8	-0.06675702
123	0xbdd390ac	-0.10330328
124	0x3e3bf99c	0.18356937
125	0xbdd733ff	-0.10507964
126	0xbc3466f0	-0.01101087
127	0x3e6c8894	0.23098975
128	0x3dae7296	0.08517949
129	0xbe41f394	-0.18940574
130	0x3e3c894c	0.1841175
131	0xbe06c488	-0.13160908
132	0xbdf8f9e6	-0.12157039
133	0x3e094a89	0.13407339
134	0xbdcce450	-0.10004485
135	0x3e77010a	0.2412149
136	0xbe769948	-0.2408191
137	0x3e1b295b	0.15152495
138	0x3e3cfa11	0.18454768
139	0x3dd43983	0.10362532
140	0x3d8cc671	0.06873787
141	0x3d5f8fd4	0.054580525
142	0xbe6b8cb4	-0.23002893
143	0x3df90ae1	0.12160278
144	0xbe516a98	-0.20450819
145	0x3e3d2f7c	0.18475145
146	0xbe602244	-0.21888071
147	0x3d067f50	0.03283626
148	0xbe77d8e0	-0.24203825
149	0xbe478f2e	-0.19488212
150	0x3dafa5cf	0.08576547
151	0x3e21a511	0.15785624
152	0xbeae6476	-0.3406102
153	0xbd8d7085	-0.06906227
154	0xbdd683a2	-0.10474326
155	0x3d976e67	0.073941045
156	0xbdad1782	-0.084517494
157	0xbe6601b0	-0.22461581
158	0x3e175c21	0.14781238
159	0x3dac937d	0.08426569
160	0xbe09e039	-0.1346444
161	0x3e3d265a	0.18471661
162	0xbd5127a2	-0.051063187
163	0x3e6ab503	0.22920613
164	0x3e74bbd0	0.2389977
165	0x3da78bf8	0.08180994
166	0x3e5242a4	0.20533234
167	0x3e252f82	0.16131404
168	0x3d16cf42	0.03681875
169	0xbd821b21	-0.06352831
170	0xbd486468	-0.04892388
171	0xbd69d3cd	-0.057086755
172	0xbe6bf322	-0.23041967
173	0xbdc43c60	-0.09581828
174	0x3e17e031	0.14831616
175	0xbe15e474	-0.14637929
176	0x3d881f75	0.06646625
177	0xbc0454fa	-0.008076901
178	0xbdb53630	-0.08848226
179	0x3e346d51	0.17619826
180	0x3e55d320	0.20881319
181	0x3dc70927	0.097185425
182	0x3ca7b0e1	0.020470085
183	0xbb945961	-0.0045272564
184	0x3e20d116	0.1570476
185	0xbe692ab6	-0.22770199
186	0x3e1fc8c4	0.1560393
187	0xbd1bf710	-0.038077414
188	0xbe0d8896	-0.13821635
189	0x3e432935	0.19058688
190	0x3e3755f8	0.17903888
191	0x3c294540	0.010331452
192	0xbdd6ea90	-0.10493958
193	0xbe5bf9c4	-0.21481997
194	0x3e737a68	0.23777163
195	0xbdd8e568	-0.10590631
196	0x3de9df98	0.114196
197	0xbe1f47b3	-0.15554695
198	0x3e038284	0.12842757
199	0xbda00318	-0.0781309
200	0x3e63fd3c	0.2226457
201	0xbe20aa84	-0.15690047
202	0xbe02e023	-0.12780814
203	0xbe70c796	-0.23513636
204	0x3e14f070	0.14544845
205	0x3e1c894c	0.1528675
206	0x3e210900	0.1572609
207	0xbe4a8e24	-0.19780785
208	0x3bc7cf80	0.006097734
209	0xbe19c460	-0.15016317
210	0xbe343ef4	-0.1760214
211	0xbe7a53d4	-0.2444604
212	0x3da5fd28	0.08104926
213	0x3e0f1268	0.13971865
214	0x3e2a83bc	0.16651815
215	0xbe462a26	-0.19352016
216	0xbe99c006	-0.30029315
217	0x3ca80bc0	0.020513415
218	0xbe186ba0	-0.14884806
219	0x3e3f494c	0.18680304
220	0x3e3a3bdc	0.18186897
221	0x3e15c828	0.14627135
222	0xbe5cd8b4	-0.2156704
223	0x3dd3f24b	0.10348948
224	0x3e477f08	0.19482052
225	0xbe1b29a7	-0.15152608
226	0xbe77365c	-0.2414183
227	0x3d487090	0.048935473
228	0xbc36d000	-0.0111579895
229	0xbe09df2c	-0.1346404
230	0xbdb90350	-0.09033835
231	0xbe3cdb0c	-0.18442935
232	0x3d9516b1	0.07279719
233	0xbe2fafa4	-0.17156845
234	0xbe82d22b	-0.2555097
235	0xbd7c3f70	-0.061583936
236	0xbe1b5028	-0.15167296
237	0x3e697108	0.22797024
238	0x3e120604	0.14260107
239	0xbe689e20	-0.2271657
240	0x3e24ef00	0.16106796
241	0x3b4793bd	0.003045305
242	0x3e036388	0.12830937
243	0xbdfa00ca	-0.12207182
244	0x3e7c5b94	0.2464431
245	0xbe60e0d8	-0.21960771
246	0x3d06e534	0.03293343
247	0x3df405ad	0.11915145
248	0x3d467dd0	0.048459828
249	0xbe1d3dfc	-0.15355676
250	0x3d8fb730	0.07017362
251	0x3df41320	0.1191771
252	0x3dee1e41	0.11626864
253	0x3cf1a2c6	0.029496562
254	0xbe69ef84	-0.22845274
255	0x3e2ec214	0.17066222

functional_1_1/e1_1/BiasAdd/ReadVariableOp f4 [64]
0	0xbd50c5cb	-0.05096988
1	0xbdf44bf8	-0.119285524
2	0x00000000	0.0
3	0x00000000	0.0
4	0x3b2ba359	0.0026189892
5	0xbe417599	-0.18892516
6	0x00000000	0.0
7	0xbdad9d87	-0.084773116
8	0x00000000	0.0
9	0xbdf0bde1	-0.117549665
10	0xbe1b6a15	-0.15177186
11	0xbdcf5016	-0.10122697
12	0xbd631232	-0.055437274
13	0xbded885e	-0.115982756
14	0xbdfdfd54	-0.12401834
15	0xbda4171b	-0.080122195
16	0x00000000	0.0
17	0xbd7cad2f	-0.0616886
18	0x00000000	0.0
19	0x00000000	0.0
20	0x00000000	0.0
21	0xbe121a06	-0.1426774
22	0xbe536018	-0.20642126
23	0xbe37572e	-0.1790435
24	0xbca0a28b	-0.019608757
25	0xbe22db4b	-0.15903966
26	0xbe37b1c7	-0.1793891
27	0xbdae22eb	-0.08502754
28	0xbdda9b9d	-0.10674212
29	0xbd7a55db	-0.061117034
30	0xbde3f595	-0.111308254
31	0xbcae51db	-0.021279266
32	0xbd227a28	-0.03966728
33	0xbde4b124	-0.111665994
34	0xbe105ac0	-0.14097118
35	0xbdb03d0f	-0.08605396
36	0x00000000	0.0
37	0x00000000	0.0
38	0x00000000	0.0
39	0xbe565a2d	-0.20932837
40	0xbcbb0aa2	-0.022832219
41	0xbd5700a5	-0.05249085
42	0xbe021837	-0.1270455
43	0x3cac8969	0.021061616
44	0xbd793f7e	-0.060851566
45	0x00000000	0.0
46	0xbdd93c0b	-0.106071554
47	0x00000000	0.0
48	0xbd4f98dc	-0.050682887
49	0x3caf5425	0.021402428
50	0x00000000	0.0
51	0xbe08a4e8	-0.13344157
52	0xbd91011d	-0.070802905
53	0x3d888ba3	0.066672586
54	0xbe19fe4b	-0.15038411
55	0xbe232746	-0.1593295
56	0xbc9f38af	-0.019436209
57	0xbe21bf4f	-0.15795635
58	0x00000000	0.0
59	0xbd45831e	-0.048220746
60	0xbe351d49	-0.17686953
61	0xbdddf406	-0.108375594
62	0xbe06faec	-0.13181657
63	0x00000000	0.0

functional_1_1/e2_1/BiasAdd/ReadVariableOp f4 [32]
0	0x3b6a62e3	0.0035764507
1	0xbe036a9d	-0.12833638
2	0xbdabdb9b	-0.08391496
3	0xbdd5b4de	-0.10434888
4	0xbe7ff8d6	-0.24997267
5	0xbdf0e4ec	-0.117624134
6	0xbe35b85e	-0.17746112
7	0xbd294f0d	-0.041335154
8	0xbd54076a	-0.051764883
9	0xbdd63eb3	-0.10461178
10	0xbdb29305	-0.08719448
11	0xbd594530	-0.053044498
12	0x3c93d875	0.01804755
13	0xbdb44a4f	-0.08803236
14	0xbda3e7d1	-0.080032
15	0xbda05443	-0.07828572
16	0x3cfecb04	0.031102665
17	0xbdf135eb	-0.11777862
18	0xbe03dd81	-0.12877466
19	0xbd788dcc	-0.060682103
20	0x3e549680	0.20760536
21	0xbe0846b4	-0.13308221
22	0x3bdb2b83	0.0066885366
23	0xbdf2849f	-0.11841702
24	0xbc5647a9	-0.013078609
25	0xbd8a02f2	-0.06738843
26	0xbce8b477	-0.028406365
27	0x00000000	0.0
28	0xbe1b6abe	-0.15177438
29	0xbdaedec1	-0.08538581
30	0xbd443461	-0.047901515
31	0xbe6a1567	-0.22859727

functional_1_1/e1_1/MatMul f4 [64, 19]
0	0xbf4d6d45	-0.8024486
1	0xbf029947	-0.5101513
2	0x3e0bb7e9	0.13644375
3	0x3db4666f	0.088086
4	0xbe82ced8	-0.25548434
5	0xbe6ba004	-0.2301026
6	0x3e05fe83	0.1308537
7	0xbdc62f90	-0.096770406
8	0xbe422560	-0.1895957
9	0xbd8c103c	-0.06839034
10	0x3e35455e	0.17702243
11	0xbacd2a6b	-0.00156529
12	0x3d72e5f9	0.05930135
13	0x3f5d7ac0	0.86515427
14	0x3eb1979c	0.3468598
15	0xbe98eb43	-0.2986699
16	0x3aac9733	0.001316762
17	0xbc105af3	-0.0088107465
18	0x3d401301	0.046893124
19	0x3dd51776	0.104048654
20	0xbe104904	-0.14090353
21	0xbe9d61c4	-0.30738652
22	0xbdd47eef	-0.10375773
23	0x3c0f0fab	0.008731763
24	0xbea3d409	-0.31997707
25	0xbe51a965	-0.20474775
26	0x3d77f0e5	0.06053247
27	0xbcb6011f	-0.022217331
28	0xbea40965	-0.32038417
29	0x3d9a62a6	0.07538347
30	0xbebf30cd	-0.3734192
31	0x3dbda056	0.09259097
32	0xbe225891	-0.15854098
33	0xbd51c083	-0.051208984
34	0xbe51fe5d	-0.20507188
35	0xbe0093de	-0.12556407
36	0xbdd0b87a	-0.10191436
37	0x3e1b39c3	0.15158753
38	0xbe30fe2d	-0.1728446
39	0x3e227a20	0.158669
40	0x3d0eadc8	0.0348337
41	0x3d222618	0.03958711
42	0xbd943bfa	-0.07238002
43	0xbd60585c	-0.054771766
44	0x3e536c38	0.20646751
45	0x3dd4fb04	0.1039944
46	0xbd376c2c	-0.044780895
47	0xbe637e59	-0.22216167
48	0x3e870afe	0.26375574
49	0x3c9a25d0	0.018816859
50	0xbe05db8c	-0.13072032
51	0xbdc01300	-0.09378624
52	0x3dd7cc6c	0.10537037
53	0xbd812e4c	-0.063076586
54	0xbe3b2408	-0.18275464
55	0xbdf95266	-0.121739194
56	0xbe866b3b	-0.26253685
57	0x3ca2d6f0	0.01987788
58	0x3e003c1a	0.12522927
59	0xbe5d858a	-0.21632972
60	0x3e2a4fe6	0.16632041
61	0xbca31cf8	-0.019911274
62	0x3e48e3c6	0.19618139
63	0xbd13e188	-0.036103755
64	0x3cea0940	0.028568864
65	0xbe7403d6	-0.23829588
66	0xbe4c77bd	-0.19967552
67	0xbd866942	-0.06563045
68	0xbe600451	-0.21876647
69	0x3df35c04	0.11882785
70	0x3e6948ba	0.22781649
71	0x3e441f20	0.19152498
72	0xbe6a0ae2	-0.22855714
73	0xbe4f9aba	-0.20273867
74	0x3dfccaf0	0.12343395
75	0xbddc717c	-0.10763833
76	0xbe53250e	-0.20619604
77	0xbdd26f8f	-0.10275184
78	0x3e2a502e	0.16632149
79	0x3ead4c4e	0.33847278
80	0xbdacf0b9	-0.08444352
81	0xbe874b8f	-0.26424834
82	0x3e10b8ff	0.1413307
83	0xbe1bf8b9	-0.15231599
84	0xbe17decd	-0.14831086
85	0xbc89b9ad	-0.01681217
86	0xb8d59520	-0.00010184408
87	0xbd87e480	-0.0663538
88	0x3db259e9	0.08708555
89	0xbd08cec8	-0.033400327
90	0xbcd600c8	-0.02612342
91	0xbdec6971	-0.11543549
92	0x3a081482	0.0005191044
93	0x3d48cc13	0.049022745
94	0xbe35e9f8	-0.17765033
95	0x3f27683a	0.6539341
96	0x3f3b73f4	0.73223805
97	0xbe473ff6	-0.19457993
98	0x3e6bcfcb	0.23028485
99	0xbdeac604	-0.1146355
100	0xbf020746	-0.5079235
101	0xbec662c6	-0.38747233
102	0xbe54bc22	-0.20774892
103	0x3d5cd707	0.053916004
104	0xbe80ebee	-0.2518
105	0xbf201ed7	-0.6254706
106	0xbe0025bf	-0.12514399
107	0xbec53787	-0.38518927
108	0xbea13182	-0.31483084
109	0xbe7d0248	-0.24707901
110	0xbebbbf8f	-0.36669585
111	0xbd1b3cf6	-0.037899934
112	0xbe28aa27	-0.16471158
113	0xbe2ab586	-0.16670808
114	0x3e02f49e	0.12788627
115	0xbe47b13c	-0.19501203
116	0xbdeb2912	-0.11482443
117	0x3dd588fc	0.10426518
118	0xbd80d742	-0.06291057
119	0xbe36fc9d	-0.17869802
120	0xbd56ea9c	-0.052469835
121	0xbb82b1c0	-0.0039884746
122	0xbd2ec654	-0.04266961
123	0xbe73debc	-0.23815435
124	0x3e763a44	0.24045664
125	0x3d822bac	0.06355986
126	0x3cff77a0	0.031184971
127	0x3e88d2b0	0.26723242
128	0x39a94000	0.00032281876
129	0xbe501598	-0.20320737
130	0xbe17d13f	-0.14825915
131	0xbe2bf6f2	-0.16793421
132	0xbdc40852	-0.095718995
133	0x3e2f5b0c	0.17124575
134	0xbd888d1f	-0.06667542
135	0xbd0cd18f	-0.03437954
136	0x3d84b6b5	0.06480161
137	0xbeb39be9	-0.35079888
138	0xbdb00b62	-0.08595921
139	0xbe856f63	-0.26061544
140	0xbd0b811c	-0.034058675
141	0xbe0a305d	-0.13495012
142	0xbdf8ec95	-0.121544994
143	0xbe4d6922	-0.20059636
144	0xbd2bb982	-0.04192496
145	0xbd46b0fb	-0.048508625
146	0x3d498b48	0.049205095
147	0xbe0b2d92	-0.13591602
148	0x3b161a86	0.0022903993
149	0x3b03b0db	0.0020094428
150	0xbde4f041	-0.11178637
151	0xbe85cf4f	-0.26134726
152	0x3df8d6e4	0.12150362
153	0xbdb617ba	-0.08891244
154	0x3df0b5b4	0.11753407
155	0xbe7b61b7	-0.24548994
156	0x3e0c33e8	0.13691676
157	0x3dcf7130	0.10129011
158	0xbc520760	-0.012819141
159	0x3db6387c	0.08897492
160	0xbe12d8cd	-0.14340515
161	0x3e70c534	0.23512727
162	0xbd732a94	-0.059366778
163	0xbd745770	-0.0596537
164	0x3c860d90	0.016363889
165	0x3ca4ad10	0.020102054
166	0xbd51c324	-0.05121149
167	0x3e5141f0	0.2043531
168	0xbe5fd76f	-0.21859525
169	0xbe3a7fb4	-0.18212777
170	0x3da85bd4	0.0822064
171	0x3e001bf0	0.12510657
172	0xbe1ba8a2	-0.15201047
173	0x3d7b8bde	0.061412685
174	0xbeccead1	-0.400229
175	0xbe210c13	-0.15727262
176	0xbe8921d8	-0.26783633
177	0x3ddabc38	0.10680431
178	0xbe6fd057	-0.23419319
179	0xbe4e4ca4	-0.20146424
180	0x3d7f9d0e	0.06240564
181	0xbe7daeed	-0.2477376
182	0x3de8d286	0.11368279
183	0xbccc911f	-0.024971543
184	0xbd340f32	-0.043959804
185	0xbd2da39c	-0.04239236
186	0xbe6921c7	-0.22766791
187	0xbbf9025f	-0.0075991596
188	0x3cc33dfa	0.023833264
189	0x3de0bc22	0.109733835
190	0xbd133f22	-0.03594888
191	0xbe528637	-0.20559011
192	0x3c3c41a7	0.011490262
193	0xbdd3ee54	-0.10348192
194	0xbe68db03	-0.22739796
195	0x3dc73909	0.097276755
196	0xbe52121a	-0.20514718
197	0xbe6a775b	-0.22897093
198	0xbe003a5e	-0.12522265
199	0xbabf225b	-0.0014582382
200	0xbe3dae01	-0.18523408
201	0xbe64aa6e	-0.22330639
202	0x3dcf4000	0.10119629
203	0xbe19f4af	-0.15034746
204	0xbe590f72	-0.21197298
205	0xbe01336e	-0.12617275
206	0xbd82c2e3	-0.06384828
207	0x3e1190a6	0.14215335
208	0xbea8981e	-0.32928556
209	0xbf8ebf76	-1.1152179
210	0xbfc1cee0	-1.5141258
211	0xbe4305fe	-0.19045255
212	0xbf9b5f85	-1.2138525
213	0xbe5001d1	-0.20313193
214	0x3d55d16b	0.05220167
215	0xbe83a15f	-0.25709054
216	0xbd22ec02	-0.039775856
217	0x3d1010e1	0.035172347
218	0xbe08f447	-0.13374434
219	0x3e587878	0.21139705
220	0xbe3846a6	-0.179957
221	0xbefb1712	-0.4904104
222	0xbe30df0a	-0.17272583
223	0xbe881fb6	-0.26586694
224	0x3e14a9a8	0.14517844
225	0xbd9ec50f	-0.0775243
226	0xbe87b89b	-0.2650803
227	0xbd74f294	-0.059801653
228	0xbd5c4ec0	-0.05378604
229	0x3dffcff6	0.12490837
230	0x3d4eae05	0.050458927
231	0x3ef20610	0.4727025
232	0xbe79b744	-0.24386317
233	0xbea7da5a	-0.32783777
234	0xbe8466d8	-0.25859714
235	0xbeabf622	-0.33586222
236	0xbe404104	-0.18774801
237	0xbe3d9e00	-0.18517303
238	0x3d2a5e3c	0.041593775
239	0xbe64d636	-0.2234734
240	0x3e3958cf	0.18100284
241	0x3e44ddb3	0.19225197
242	0xbdbf4f97	-0.093413524
243	0xbde381b5	-0.11108724
244	0xbc211baa	-0.009833256
245	0xbe3bfa02	-0.18357089
246	0xbeb49753	-0.352717
247	0x3ea972ff	0.33095548
248	0xbe3b6085	-0.18298538
249	0x3dfaea2d	0.12251697
250	0x3da4efc7	0.080535464
251	0xbcb79278	-0.022408709
252	0xbe615abf	-0.22007273
253	0x3e04e72e	0.12978813
254	0x3c0e528d	0.008686674
255	0xbdca6fa1	-0.09884573
