deployment/models/trained_edge_model.tflite (tflite, 15464 bytes, 5 tensors)

arith.constant f4 [1, 32]
-0.007468228 -0.028792607 0.037110053 0.10348816 -0.2017108 0.16201681 0.069741905 0.014478078
0.055861052 0.0010968265 0.24473412 -0.08655145 -0.2716035 -0.023360495 -0.03032235 0.012064873
-0.37979704 0.009690874 -0.09787786 0.032973636 -0.20223203 0.028172176 -0.010669684 0.12865023
-0.026147144 -0.15513264 -0.02571143 0.10389625 0.007290407 -0.12878895 0.010510515 0.14980522
00000000: 0ab8 f4bb 79de ebbc b600 183d 9af1 d33d
00000010: 478d 4ebe bce7 253e d8d4 8e3d 7635 6d3c
00000020: 8fce 643d 64c3 8f3a 959b 7a3e e341 b1bd
00000030: 9d0f 8bbe 825e bfbc 9466 f8bc bfab 453c
00000040: c274 c2be 79c6 1e3c 3074 c8bd 5d0f 073d
00000050: ea15 4fbe 56c9 e63c e6cf 2ebc e3bc 033e
00000060: 8932 d6bc 17db 1ebe c7a0 d2bc 8fc7 d43d
00000070: 5ee4 ee3b 40e1 03be 4c34 2c3c 8a66 193e

arith.constant1 f4 [32, 64]
-0.2086547 -0.06761849 -0.19195135 -0.058098007 -0.038050056 0.035289943 0.054321885 0.109752506
-0.11101548 0.11123534 0.0011586547 -0.012337804 -0.13830286 -0.12178094 -0.5918733 -0.23327492
-0.1591197 0.06612599 -0.1944822 -0.08040438 0.19678947 0.07747115 -0.029117478 -0.028285468
-0.10629937 -0.15383816 0.13163005 0.043030977 -0.042269904 -0.12908475 0.18572965 -0.09149873
-0.28335255 0.07389724 -0.13473153 0.032267988 -0.13109839 0.014127219 -0.06998551 -0.0759451
-0.04646062 0.27116174 0.121074416 0.13891535 -0.16360253 -0.034866437 0.11152017 -0.021924615
0.31487572 -0.018467546 0.035886586 0.16598254 -0.08947928 -0.088575155 -0.16737486 0.9604189
0.17608647 0.13166866 -0.0059959153 0.09804481 -0.2732759 -0.12475467 0.25928983 0.037017185
-0.008083403 -0.067784354 -0.030392582 -0.16657662 0.08880836 0.186042 -0.11321741 0.11313354
0.012949263 -0.3001982 0.009201765 -0.023221482 0.10565952 -0.16451104 -0.080999546 -0.04401192
0.029562496 0.24849725 0.003495574 0.13723156 0.17112692 -0.14389767 -0.0078701 -0.02818945
0.15760398 0.15661852 -0.19659452 -0.22589403 0.08247992 0.10623933 0.026314558 0.19528143
-0.15127006 -0.060111463 -0.1026724 -0.1632302 -0.090488106 0.07990585 0.124883614 -0.16463575
0.16337706 -0.030784078 -0.030244056 -0.006248724 -0.13879971 -0.1350164 -0.24411589 0.105632946
-0.038453165 -0.17212927 -0.12797183 0.016163183 -0.22259276 0.083321676 -0.19903886 -0.20048882
-0.1549175 -0.070747584 -0.24426919 -0.24527264 -0.15839168 -0.1879161 0.060206365 0.121888526
0.1734798 -0.0061334562 -0.2883944 -0.22734058 0.045487165 -0.15204746 -0.20713037 -0.026940636
-0.24919915 0.06277324 0.21074563 0.08194571 -0.230098 0.2935465 0.16836712 -0.25575036
0.10464114 -0.09222913 -0.16303676 -0.16044132 -0.2186251 -0.071916565 -0.21268171 0.9358502
-0.08459377 -0.25836217 -0.05353737 0.13674498 0.095792234 0.21325415 -0.02484849 -0.1661512
-0.16201748 0.24890769 0.04544252 -0.17087793 -0.10559492 -0.055951174 0.16173281 -0.15585516
-0.054362457 0.119771235 0.49482465 0.17904876 -0.09694241 0.048112333 -0.17304987 -0.06619547
0.17442302 -0.230465 0.19780785 0.044189256 -0.749382 -0.087742016 0.16116205 -0.009262502
0.03599397 -0.15028809 0.19250531 -0.07272581 -0.0574705 0.14224416 0.14357099 0.049022812
0.18692005 -0.19560707 -0.1487853 0.030619172 -0.11479986 0.082482524 -0.17048776 0.19587713
-0.0072010537 -0.026159866 -0.037495136 0.07237794 0.051239487 -0.1418263 -0.14191297 0.14665505
0.13169414 -0.23684168 0.09465635 0.07128776 0.17001763 0.26262587 -0.14536816 -0.009558485
-0.042817146 -0.23769046 -0.05940208 0.17491657 0.034099136 -0.11367531 0.07904348 0.010422468
0.16341604 -0.1420095 -0.095789135 -0.20532762 0.024004532 -0.2317899 0.20048569 -0.18145105
0.033607107 0.16453972 -0.25893778 -0.16958278 -0.092887096 0.11187545 0.070634246 -0.32288784
0.022871997 0.0970574 0.24750215 0.2141575 -0.25588673 -0.14344807 -0.20069069 -0.2460817
-0.1451264 0.16124973 0.19686632 -0.06702682 -0.011472673 -0.07949382 -0.00029604195 8.128767e-05
00000000: 94a9 55be 907b 8abd e58e 44be 2df8 6dbd
00000010: 60da 1bbd 308c 103d a080 5e3d ecc5 e03d
00000020: 155c e3bd 5bcf e33d 00de 973a 8024 4abc
00000030: 449f 0dbe 4968 f9bd 0285 17bf 9fdf 6ebe
00000040: 46f0 22be 106d 873d 5826 47be 0dab a4bd
00000050: 2e83 493e 32a9 9e3d c787 eebc edb6 e7bc
00000060: 7cb3 d9bd c087 1dbe 07ca 063e 4041 303d
00000070: 3523 2dbd cb2e 04be ea2f 3e3e b063 bbbd
00000080: 9613 91be 7057 973d 10f7 09be 702b 043d
00000090: a83e 06be da75 673c 9054 8fbd 1b89 9bbd
000000a0: 7e4d 3ebd b6d5 8a3e ddf5 f73d d33f 0e3e
000000b0: 6c87 27be 1cd0 0ebd b064 e43d 409b b3bc
000000c0: 6437 a13e 4049 97bc d0fd 123d 54f7 293e
000000d0: ea40 b7bd e466 b5bd 5164 2bbe 03de 753f
000000e0: 0350 343e 26d4 063e 6279 c4bb b8cb c83d
000000f0: d2ea 8bbe 607f ffbd a3c1 843e 559f 173d
00000100: 4070 04bc 86d2 8abd ddf9 f8bc 1093 2abe
00000110: 28e1 b53d cb81 3e3e 88de e7bd 8fb2 e73d
00000120: 2529 543c 94b3 99be 00c3 163c fa3a bebc
00000130: 0564 d83d 9575 28be 17e3 a5bd d845 34bd
00000140: 0c2d f23c 1076 7e3e 0016 653b 6e86 0c3e
00000150: e53b 2f3e e959 13be 98f1 00bc 90ed e6bc
00000160: f062 213e 9b60 203e 1350 49be c450 67be
00000170: 3beb a83d 0194 d93d a191 d73c dbf7 473e
00000180: 8ae6 1abe 7037 76bd e845 d2bd d125 27be
00000190: d451 b9bd aea5 a33d fbc2 ff3d 4696 28be
000001a0: 514c 273e e42e fcbc 62c2 f7bc 19c2 ccbb
000001b0: 8321 0ebe bd41 0abe 84f9 79be 1656 d83d
000001c0: 1181 1dbd a842 30be 0c0b 03be a768 843c
000001d0: 5bef 63be 8ea4 aa3d d8d0 4bbe f14c 4dbe
000001e0: b1a2 1ebe 1ce4 90bd b421 7abe c028 7bbe
000001f0: 6e31 22be 146d 40be f39a 763d b1a0 f93d
00000200: b0a4 313e 29fb c8bb 6ea8 93be f8cb 68be
00000210: c050 3a3d 54b2 1bbe fc19 54be 9cb2 dcbc
00000220: 102e 7fbe 428f 803d b4cd 573e 27d3 a73d
00000230: cf9e 6bbe ba4b 963e 6e68 2c3e b6f1 82be
00000240: 184e d63d a0e2 bcbd 1cf3 26be bb4a 24be
00000250: 42df 5fbe fe48 93bd 3cc9 59be e193 6f3f
00000260: 803f adbd 0c48 84be 004a 5bbd e006 0c3e
00000270: b82e c43d 4c5f 5a3e 0f8f cbbc 8a23 2abe
00000280: e9e7 25be a8e1 7e3e f021 3a3d a0fa 2ebe
00000290: 2642 d8bd 0f2d 65bd 499d 253e 7f98 1fbe
000002a0: 2bab 5ebd 9f4a f53d a859 fd3e 8f58 373e
000002b0: be89 c6bd 7011 453d fc33 31be 7e91 87bd
000002c0: f39b 323e 04ff 6bbe 248e 4a3e cbff 343d
000002d0: 80d7 3fbf 16b2 b3bd aa07 253e c0c1 17bc
000002e0: 6a6e 133d 1fe5 19be 1d20 453e 45f1 94bd
000002f0: 3066 6bbd 74a8 113e 4604 133e 25cc 483d
00000300: f867 3f3e 384d 48be 2c5b 18be 0fd5 fa3c
00000310: 301c ebbd 99ec a83d 5894 2ebe 0494 483e
00000320: d1f6 ebbb 374d d6bc 8094 19bd e33a 943d
00000330: 7fe0 513d ea3a 11be a251 11be be2c 163e
00000340: d4da 063e a086 72be 30db c13d 51ff 913d
00000350: 1a19 2e3e e676 863e 64db 14be 319b 1cbc
00000360: 0861 2fbd 2165 73be 984f 73bd 541d 333e
00000370: 89ab 0b3d 9ace e8bd 8ce1 a13d 00c3 2a3c
00000380: 8956 273e f06a 11be 182d c4bd 6741 52be
00000390: 27a5 c43c 555a 6dbe 1f4c 4d3e 4ece 39be
000003a0: 9ba7 093d 1a7d 283e 7e93 84be 1ca7 2dbe
000003b0: 973b bebd f51e e53d b0a8 903d 8e51 a5be
000003c0: 0e5e bb3c 08c6 c63d 3471 7d3e 1b4c 5b3e
000003d0: 9603 83be 0de4 12be dc81 4dbe d7fc 7bbe
000003e0: 049c 14be a61e 253e 5397 493e 5b45 89bd
000003f0: e1f7 3bbc a8cd a2bd 1436 9bb9 fc78 aa38

functional_13_1/e1_1/BiasAdd/ReadVariableOp f4 [64]
0.0 -0.18342343 -0.09121655 -0.09290362 0.0 -0.044070825 0.0 -0.10083722
-0.13486554 -0.11961475 0.0 -0.040782727 -0.12878498 0.056880858 -0.19918582 -0.05549144
-0.041580755 0.0 0.0 -0.04332572 -0.16547027 -0.109963626 -0.0028975883 -0.07562915
-0.09994461 -0.04414543 -0.10118023 0.0 -0.14794956 -0.13428633 -0.1615297 -0.14287193
0.009089031 0.0 0.0 -0.012261172 -0.13200985 -0.029134465 -0.065501675 -0.030788688
-0.062243953 -0.0930313 -0.08341148 -0.07137955 -0.025725441 -0.16622831 0.0 -0.046397045
-0.09947183 0.0 0.0 -0.10054943 -0.0029607944 -0.04176639 -0.13235177 -0.053588014
-0.10926634 -0.05631799 -0.1699347 -0.054273803 -0.11613068 0.0 -0.07215706 -0.17194685
00000000: 0000 0000 5ad3 3bbe becf babd 4144 bebd
00000010: 0000 0000 9c83 34bd 0000 0000 bf83 cebd
00000020: 311a 0abe 94f8 f4bd 0000 0000 ca0b 27bd
00000030: 36e0 03be e7fb 683d 5ef7 4bbe fe4a 63bd
00000040: 9550 2abd 0000 0000 0000 0000 4f76 31bd
00000050: 0a71 29be 9c34 e1bd 77e5 3dbb 75e3 9abd
00000060: c2af ccbd d7d1 34bd 9537 cfbd 0000 0000
00000070: 1780 17be 5b82 09be 0b68 25be 054d 12be
00000080: 29ea 143c 0000 0000 0000 0000 15e3 48bc
00000090: 972d 07be 67ab eebc be25 86bd 8f38 fcbc
000000a0: 84f3 7ebd 3287 bebd a3d3 aabd 712f 92bd
000000b0: 29be d2bc c137 2abe 0000 0000 d40a 3ebd
000000c0: e3b7 cbbd 0000 0000 0000 0000 dcec cdbd
000000d0: e309 42bb 3c13 2bbd 3987 07be 1b7f 5bbd
000000e0: 08c7 dfbd b1ad 66bd 5d03 2ebe 354e 5ebd
000000f0: ecd5 edbd 0000 0000 15c7 93bd d612 30be

functional_13_1/e2_1/BiasAdd/ReadVariableOp f4 [32]
0.52020824 -0.128488 0.30477136 0.088322334 -0.0673618 0.030417599 0.19163619 -0.23827784
-0.13279316 -0.18520877 -0.09645442 -0.075870976 -0.046287443 -0.110881634 -0.10896054 -0.25905633
-0.027857384 0.016419677 -0.07528134 0.016847514 -0.095190935 -0.095533945 -0.13931203 -0.064087674
-0.030584287 -0.018330343 -0.28670013 0.04067083 -0.123960614 -0.09902522 -0.14942408 -0.1136031
00000000: 5e2c 053f 5c92 03be fe0a 9c3e 57e2 b43d
00000010: fcf4 89bd 542e f93c 473c 443e 1bff 73be
00000020: eefa 07be 5ea7 3dbe e589 c5bd 3e62 9bbd
00000030: e797 3dbd e915 e3bd b426 dfbd 08a3 84be
00000040: 2b35 e4bc 8f82 863c 1a2d 9abd cc03 8a3c
00000050: 77f3 c2bd 4da7 c3bd d0a7 0ebe 6640 83bd
00000060: e68b fabc 8429 96bc 5cca 92be 7596 263d
00000070: 10df fdbd bccd cabd a002 19be bea8 e8bd

functional_13_1/e1_1/MatMul f4 [64, 19]
-0.11876804 -0.2676347 -0.17213319 0.055565357 -0.17365396 0.013185799 0.110429496 0.088011295
-0.15080172 0.2675476 0.12580281 0.18198487 -0.11168039 -0.056871444 0.069449574 -0.14119458
-0.038803503 -0.24068737 0.079366714 -0.13289748 -0.29794082 -0.08140306 0.23947875 -0.048916016
-0.27959603 -0.46991032 -0.25606596 0.027335647 -0.4064697 -0.3141598 -0.11755845 -0.34311736
-0.08289433 -0.30428758 -0.2617133 -0.006137217 -0.28689614 -0.2283335 -0.09704043 -0.18539631
-0.19006433 0.105871394 -0.042507816 -0.33037922 -0.122861125 0.021449357 -0.27745977 -0.21701583
-0.38116083 -0.16129103 -0.27044037 -0.14819708 -0.2903005 -0.41032922 -0.007003405 -0.32390708
-0.35815158 -0.02861645 -0.21856837 -0.2856541 -0.089823805 -0.21633631 -0.17268647 0.12300216
-0.1789929 -0.09815815 0.12517042 -0.14612328 -0.23833577 -0.14387828 -0.07384724 -0.27859965
0.1128423 -0.10355706 0.147476 0.055630714 -0.19783121 -0.18806201 0.24648625 -0.04512167
-0.17845783 -0.17565435 -0.2204571 0.046893716 -0.10028382 -0.018191457 -0.12801094 0.051484704
0.015938759 -0.226097 -0.26779008 0.110139936 -0.14581452 -0.1253569 0.21649909 0.15859197
-0.012901507 -0.03089405 -0.17732379 0.07753632 0.06611989 0.092991486 -0.20351966 -0.029323066
0.16913298 -0.13744898 0.056079082 -0.19057763 -0.03923725 0.00017114296 -0.11340979 -0.17758702
0.08889488 0.0216025 -0.23741427 -0.17205165 0.08877039 -0.08987583 0.054330796 -0.16155708
-0.25288862 -0.21142446 -0.24603225 -0.047519818 0.18008551 0.13988978 0.14277086 -0.24262577
0.104355246 0.02872938 -0.26685345 -0.069367126 0.2510125 -0.24411798 0.029103762 -0.039813865
0.017679391 -0.20783181 -0.20742139 -0.035930358 0.08113982 0.003955703 0.15224954 -0.16336131
-0.23515052 -0.5560649 -0.2014824 -0.313282 -0.47455424 -0.051894866 0.020869471 0.13506165
-0.35173953 -0.17594971 -0.1471122 0.16240074 -0.22325152 -0.3852014 0.07754166 0.034463648
-0.37769783 -0.043753687 -0.3898945 -0.36352265 0.09313092 -0.09416525 -0.2655424 -0.36838943
-0.00026849206 -0.35083967 -0.34792206 0.039905846 0.45139715 -0.20647764 -0.42605862 0.10921191
0.123576134 0.08586747 -0.21143931 -0.11011218 0.1012808 0.0961293 -0.18779455 0.029756794
-0.13013102 0.0653422 -0.044371706 0.0007660103 -0.025029708 -0.329343 0.047491163 0.010442644
-0.08726762 -0.0034047663 -0.10694185 -0.16463798 -0.24039589 0.06621584 -0.115831226 -0.18337187
0.23607093 -0.17009172 -0.12972832 0.23161966 0.1764605 0.25302088 -0.025064304 -0.070909366
-0.007598549 -0.19794635 -0.0071796477 -0.015701044 0.029503226 0.06406282 -0.005175395 -0.1015629
-0.084760234 0.04387589 -0.24779044 -0.01958402 -0.08242939 -0.20611425 -0.048390612 -0.11296318
-0.24739899 -0.28646404 -0.0704408 -0.11002754 0.07333812 0.30778787 -0.16213566 -0.36426836
-0.20513165 0.056580324 0.052490983 -0.20634302 -0.14175138 0.011623321 -0.101526394 -0.34049055
-0.023486031 0.12159217 0.10000379 0.059760325 0.00054977764 0.06419837 0.14610109 -1.5885667
-2.203202 0.41950554 -1.2224767 0.019873923 0.09675057 0.22799622 0.10172839 0.13332589
00000000: a83c f3bd 6a07 89be af43 30be 8098 633d
00000010: 58d2 31be 4009 583c dc28 e23d 443f b43d
00000020: c46b 1abe 00fc 883e 74d2 003e 3e5a 3a3e
00000030: b0b8 e4bd 08f2 68bd 943b 8e3d 5095 10be
00000040: 6cf0 1ebd c076 76be 048b a23d 4716 08be
00000050: b38b 98be a6b6 a6bd eb39 753e 295c 48bd
00000060: 3627 8fbe 1698 f0be 141b 83be 02ef df3c
00000070: cc1c d0be 8ed9 a0be 7cc2 f0bd 14ad afbe
00000080: 81c4 a9bd 95cb 9bbe 49ff 85be b51a c9bb
00000090: 0de4 92be 42d0 69be 22bd c6bd 88d8 3dbe
000000a0: 39a0 42be 1ad3 d83d ad1c 2ebd 7727 a9be
000000b0: 9d9e fbbd 90b6 af3c 350f 8ebe 6639 5ebe
000000c0: 8327 c3be 7a29 25be 2977 8abe fac0 17be
000000d0: 44a2 94be ac16 d2be d27c e5bb 26d7 a5be
000000e0: a55f b7be 0c6d eabc 63d0 5fbe 4141 92be
000000f0: 8bf5 b7bd 4487 5dbe b9d4 30be 8ee8 fb3d
00000100: ea49 37be 2407 c9bd ad2c 003e 57a1 15be
00000110: 4b0e 74be d454 13be 393d 97bd 9da4 8ebe
00000120: dd19 e73d b915 d4bd f303 173e 08dd 633d
00000130: 4494 4abe 5493 40be e466 7c3e 80d1 38bd
00000140: a6bd 36be bcde 33be 82bf 61be a013 403d
00000150: 9a61 cdbd 4006 95bc 4d15 03be a0e1 523d
00000160: 0092 823c f985 67be c81b 89be 0c91 e13d
00000170: 6750 15be 8f5d 00be f0b1 5d3e ef65 223e
00000180: d860 53bc 8515 fdbc 5e94 35be 5dcb 9e3d
00000190: dd69 873d 5272 be3d 7567 50be ed36 f0bc
000001a0: 3231 2d3e 6dbf 0cbe 2eb3 653d c826 43be
000001b0: 3db7 20bd d774 3339 6443 e8bd 5fd9 35be
000001c0: 850e b63d baf7 b03c ba1c 73be 4f2e 30be
000001d0: 40cd b53d d210 b8bd f889 5e3d 386f 25be
000001e0: 9e7a 81be a77f 58be e1ef 7bbe 24a4 42bd
000001f0: 5668 383e 443f 0f3e 8632 123e e472 78be
00000200: 34b8 d53d e059 eb3c 04a1 88be 5a10 8ebd
00000210: b684 803e 10fa 79be 036b ee3c dd13 23bd
00000220: 5fd4 903c ddd1 54be 4666 54be b62b 13bd
00000230: a22c a63d d89e 813b 4ee7 1b3e 3048 27be
00000240: 4ccb 70be 455a 0ebf 6751 4ebe 8066 a0be
00000250: c6f8 f2be b68f 54bd 74f6 aa3c 9a4d 0a3e
00000260: 3417 b4be 292c 34be 95a4 16be 614c 263e
00000270: 0c9c 64be 1e39 c5be 29ce 9e3d c129 0d3d
00000280: 9c61 c1be 1137 33bd 40a0 c7be a41f babe
00000290: 6cbb be3d b6d9 c0bd 2cf5 87be 8a9d bcbe
000002a0: 65c4 8cb9 42a1 b3be d722 b2be 5074 233d
000002b0: 871d e73e e06e 53be 5b24 dabe 7eaa df3d
000002c0: 7c15 fd3d 49db af3d 8c83 58be 7f82 e1bd
000002d0: 4f6c cf3d 70df c43d 374d 40be 85c4 f33c
000002e0: 1141 05be 22d2 853d 1bbf 35bd 15ce 483a
000002f0: 1a0b cdbc a59f a8be 1886 423d a017 2b3c
00000300: 5eb9 b2bd 8022 5fbb 5404 dbbd dc96 28be
00000310: 572a 76be 2c9c 873d ec38 edbd d6c5 3bbe
00000320: 94bc 713e 862c 2ebe 80d7 04be b42d 6d3e
00000330: 10b2 343e f48b 813e a853 cdbc ee38 91bd
00000340: 40fd f8bb 73b2 4abe 4043 ebbb 7a9f 80bc
00000350: c0b0 f13c 5e33 833d 5c96 a9bb 3600 d0bd
00000360: c696 adbd 35b7 333d c7bc 7dbe ab6e a0bc
00000370: bdd0 a8bd 9d0f 53be 3c35 46bd 3d59 e7bd
00000380: 2956 7dbe 6aab 92be 4443 90bd 1e56 e1bd
00000390: 4c32 963d 5f96 9d3e e406 26be 6281 babe
000003a0: 080e 52be c5c0 673d c900 573d 964b 53be
000003b0: 4627 11be be6f 3e3c 12ed cfbd c754 aebe
000003c0: c765 c0bc 5105 f93d c9ce cc3d 3ec7 743d
000003d0: f41e 103a 6f7a 833d 869b 153e 2756 cbbf
000003e0: 4301 0dc0 6ec9 d63e 1e7a 9cbf a3ce a23c
000003f0: 2a25 c63d d777 693e f956 d03d 9586 083e
