AI-Training/model.tflite (tflite, 2104 bytes, 3 tensors)

arith.constant f4 [2]
0	0x3b750b7d	0.003739088
1	0xbbab22ef	-0.0052226703

arith.constant1 f4 [2, 15]
0	0x3e44accf	0.19206546
1	0x3f0fc69e	0.5616244
2	0xbe162099	-0.14660873
3	0x3e90d5dd	0.28288165
4	0x3f10d1b6	0.56569993
5	0x3b419f44	0.0029544393
6	0x3e96922d	0.29408398
7	0xbf1668ce	-0.5875367
8	0xbf0bd7e7	-0.54626316
9	0xbe6c7727	-0.23092328
10	0x3e94e08d	0.2907757
11	0x3ebc0576	0.36722916
12	0x3e7e6c0e	0.24845907
13	0x3e5e4770	0.21706939
14	0xbe764b7e	-0.24052235
15	0x3ed239d3	0.4105974
16	0xbf153044	-0.5827677
17	0x3ebb3949	0.36567143
18	0x3f1620db	0.58643883
19	0x3dcd4614	0.10023132
20	0xbe566591	-0.20937182
21	0x3f14ad05	0.58076507
22	0xbe0888f7	-0.13333498
23	0xbedcd120	-0.431283
24	0x3f09ead4	0.53873944
25	0xbcd9ab8d	-0.02657106
26	0xbf0a59fe	-0.5404357
27	0x3ebccabf	0.36873433
28	0xbe8768bc	-0.26447093
29	0x3ed3f53b	0.41398033

arith.constant2 f4 [15, 1]
0	0xbeea9035	-0.45813146
1	0x3e4c54db	0.19954245
2	0xbe36a9ac	-0.17838162
3	0xbe5ee934	-0.21768647
4	0x3eb9b3dd	0.36270037
5	0x3f18cd2e	0.5968808
6	0xbdd476f5	-0.10374252
7	0xbec7ec04	-0.39047253
8	0x3f006eb2	0.5016891
9	0xbf0429a3	-0.5162603
10	0xbeaeb4a9	-0.34122208
11	0x3e8722e4	0.26393807
12	0xbd1b4f4b	-0.037917417
13	0x3dc8971c	0.09794447
14	0x3eade48e	0.33963436
